{"format": "graph-model", "generatedBy": "1.15.0", "convertedBy": "TensorFlow.js Converter v2.1.0", "userDefinedMetadata": {"signature": {"inputs": {"image_tensor:0": {"name": "image_tensor:0", "dtype": "DT_UINT8", "tensorShape": {"dim": [{"size": "1"}, {"size": "320"}, {"size": "320"}, {"size": "3"}]}}}, "outputs": {"num_detections:0": {"name": "num_detections:0", "dtype": "DT_FLOAT", "tensorShape": {"dim": [{"size": "1"}]}}, "raw_detection_scores:0": {"name": "raw_detection_scores:0", "dtype": "DT_FLOAT", "tensorShape": {"dim": [{"size": "1"}, {"size": "2034"}, {"size": "3"}]}}, "detection_boxes:0": {"name": "detection_boxes:0", "dtype": "DT_FLOAT", "tensorShape": {"dim": [{"size": "1"}, {"size": "10"}, {"size": "4"}]}}, "detection_scores:0": {"name": "detection_scores:0", "dtype": "DT_FLOAT", "tensorShape": {"dim": [{"size": "1"}, {"size": "10"}]}}, "detection_classes:0": {"name": "detection_classes:0", "dtype": "DT_FLOAT", "tensorShape": {"dim": [{"size": "1"}, {"size": "10"}]}}, "raw_detection_boxes:0": {"name": "raw_detection_boxes:0", "dtype": "DT_FLOAT", "tensorShape": {"dim": [{"size": "1"}, {"size": "2034"}, {"size": "4"}]}}, "detection_multiclass_scores:0": {"name": "detection_multiclass_scores:0", "dtype": "DT_FLOAT", "tensorShape": {"dim": [{"size": "1"}, {"size": "10"}, {"size": "3"}]}}}}}, "modelTopology": {"node": [{"name": "Postprocessor/BatchMultiClassNonMaxSuppression/MultiClassNonMaxSuppression/ChangeCoordinateFrame/Scale/split/split_dim", "op": "Const", "attr": {"value": {"tensor": {"dtype": "DT_INT32", "tensorShape": {}}}, "dtype": {"type": "DT_INT32"}}}, {"name": "Postprocessor/BatchMultiClassNonMaxSuppression/MultiClassNonMaxSuppression/SortByField_1/Gather/GatherV2_6/axis", "op": "Const", "attr": {"value": {"tensor": {"dtype": "DT_INT32", "tensorShape": {}}}, "dtype": {"type": "DT_INT32"}}}, {"name": "Postprocessor/BatchMultiClassNonMaxSuppression/MultiClassNonMaxSuppression/ChangeCoordinateFrame/Scale/concat/axis", "op": "Const", "attr": {"value": {"tensor": {"dtype": "DT_INT32", "tensorShape": {}}}, "dtype": {"type": "DT_INT32"}}}, {"name": "Postprocessor/BatchMultiClassNonMaxSuppression/MultiClassNonMaxSuppression/Gather_2/GatherV2_6/axis", "op": "Const", "attr": {"value": {"tensor": {"dtype": "DT_INT32", "tensorShape": {}}}, "dtype": {"type": "DT_INT32"}}}, {"name": "Postprocessor/BatchMultiClassNonMaxSuppression/MultiClassNonMaxSuppression/Concatenate/concat_5", "op": "Const", "attr": {"value": {"tensor": {"dtype": "DT_FLOAT", "tensorShape": {"dim": [{"size": "10"}]}}}, "dtype": {"type": "DT_FLOAT"}}}, {"name": "Postprocessor/BatchMultiClassNonMaxSuppression/MultiClassNonMaxSuppression/SortByField/Gather/GatherV2_5/axis", "op": "Const", "attr": {"value": {"tensor": {"dtype": "DT_INT32", "tensorShape": {}}}, "dtype": {"type": "DT_INT32"}}}, {"name": "Postprocessor/BatchMultiClassNonMaxSuppression/MultiClassNonMaxSuppression/SortByField_1/Gather/GatherV2_5/axis", "op": "Const", "attr": {"value": {"tensor": {"dtype": "DT_INT32", "tensorShape": {}}}, "dtype": {"type": "DT_INT32"}}}, {"name": "Postprocessor/BatchMultiClassNonMaxSuppression/MultiClassNonMaxSuppression/Gather_2/GatherV2_5/axis", "op": "Const", "attr": {"value": {"tensor": {"dtype": "DT_INT32", "tensorShape": {}}}, "dtype": {"type": "DT_INT32"}}}, {"name": "add/y", "op": "Const", "attr": {"value": {"tensor": {"dtype": "DT_FLOAT", "tensorShape": {}}}, "dtype": {"type": "DT_FLOAT"}}}, {"name": "Postprocessor/BatchMultiClassNonMaxSuppression/MultiClassNonMaxSuppression/Gather/GatherV2_4/axis", "op": "Const", "attr": {"value": {"tensor": {"dtype": "DT_INT32", "tensorShape": {}}}, "dtype": {"type": "DT_INT32"}}}, {"name": "Postprocessor/BatchMultiClassNonMaxSuppression/MultiClassNonMaxSuppression/Gather_1/GatherV2_4/axis", "op": "Const", "attr": {"value": {"tensor": {"dtype": "DT_INT32", "tensorShape": {}}}, "dtype": {"type": "DT_INT32"}}}, {"name": "Postprocessor/BatchMultiClassNonMaxSuppression/MultiClassNonMaxSuppression/Concatenate/concat_4/axis", "op": "Const", "attr": {"value": {"tensor": {"dtype": "DT_INT32", "tensorShape": {}}}, "dtype": {"type": "DT_INT32"}}}, {"name": "Postprocessor/BatchMultiClassNonMaxSuppression/MultiClassNonMaxSuppression/SortByField/Gather/GatherV2_4/axis", "op": "Const", "attr": {"value": {"tensor": {"dtype": "DT_INT32", "tensorShape": {}}}, "dtype": {"type": "DT_INT32"}}}, {"name": "Postprocessor/BatchMultiClassNonMaxSuppression/MultiClassNonMaxSuppression/SortByField_1/Gather/GatherV2_4/axis", "op": "Const", "attr": {"value": {"tensor": {"dtype": "DT_INT32", "tensorShape": {}}}, "dtype": {"type": "DT_INT32"}}}, {"name": "Postprocessor/BatchMultiClassNonMaxSuppression/MultiClassNonMaxSuppression/Gather_2/GatherV2_4/axis", "op": "Const", "attr": {"value": {"tensor": {"dtype": "DT_INT32", "tensorShape": {}}}, "dtype": {"type": "DT_INT32"}}}, {"name": "Postprocessor/BatchMultiClassNonMaxSuppression/MultiClassNonMaxSuppression/SortByField_1/strided_slice", "op": "Const", "attr": {"value": {"tensor": {"dtype": "DT_INT32", "tensorShape": {}}}, "dtype": {"type": "DT_INT32"}}}, {"name": "Postprocessor/BatchMultiClassNonMaxSuppression/MultiClassNonMaxSuppression/SortByField_1/Gather/GatherV2_1/axis", "op": "Const", "attr": {"value": {"tensor": {"dtype": "DT_INT32", "tensorShape": {}}}, "dtype": {"type": "DT_INT32"}}}, {"name": "Postprocessor/BatchMultiClassNonMaxSuppression/MultiClassNonMaxSuppression/range_2", "op": "Const", "attr": {"value": {"tensor": {"dtype": "DT_INT32", "tensorShape": {"dim": [{"size": "10"}]}}}, "dtype": {"type": "DT_INT32"}}}, {"name": "Postprocessor/BatchMultiClassNonMaxSuppression/MultiClassNonMaxSuppression/Gather_2/GatherV2_1/axis", "op": "Const", "attr": {"value": {"tensor": {"dtype": "DT_INT32", "tensorShape": {}}}, "dtype": {"type": "DT_INT32"}}}, {"name": "Postprocessor/BatchMultiClassNonMaxSuppression/MultiClassNonMaxSuppression/Area/split/split_dim", "op": "Const", "attr": {"value": {"tensor": {"dtype": "DT_INT32", "tensorShape": {}}}, "dtype": {"type": "DT_INT32"}}}, {"name": "ConstantFolding/Postprocessor/BatchMultiClassNonMaxSuppression/MultiClassNonMaxSuppression/ClipToWindow/unstack-folded-2", "op": "Const", "attr": {"value": {"tensor": {"dtype": "DT_FLOAT", "tensorShape": {}}}, "dtype": {"type": "DT_FLOAT"}}}, {"name": "ConstantFolding/Postprocessor/BatchMultiClassNonMaxSuppression/MultiClassNonMaxSuppression/ClipToWindow/unstack-folded-0", "op": "Const", "attr": {"value": {"tensor": {"dtype": "DT_FLOAT", "tensorShape": {}}}, "dtype": {"type": "DT_FLOAT"}}}, {"name": "Postprocessor/BatchMultiClassNonMaxSuppression/MultiClassNonMaxSuppression/ClipToWindow/split/split_dim", "op": "Const", "attr": {"value": {"tensor": {"dtype": "DT_INT32", "tensorShape": {}}}, "dtype": {"type": "DT_INT32"}}}, {"name": "Postprocessor/BatchMultiClassNonMaxSuppression/MultiClassNonMaxSuppression/Gather/GatherV2_5/axis", "op": "Const", "attr": {"value": {"tensor": {"dtype": "DT_INT32", "tensorShape": {}}}, "dtype": {"type": "DT_INT32"}}}, {"name": "Postprocessor/BatchMultiClassNonMaxSuppression/MultiClassNonMaxSuppression/Gather_1/GatherV2_5/axis", "op": "Const", "attr": {"value": {"tensor": {"dtype": "DT_INT32", "tensorShape": {}}}, "dtype": {"type": "DT_INT32"}}}, {"name": "Postprocessor/BatchMultiClassNonMaxSuppression/MultiClassNonMaxSuppression/Concatenate/concat/axis", "op": "Const", "attr": {"value": {"tensor": {"dtype": "DT_INT32", "tensorShape": {}}}, "dtype": {"type": "DT_INT32"}}}, {"name": "Postprocessor/BatchMultiClassNonMaxSuppression/MultiClassNonMaxSuppression/SortByField/Gather/GatherV2_6/axis", "op": "Const", "attr": {"value": {"tensor": {"dtype": "DT_INT32", "tensorShape": {}}}, "dtype": {"type": "DT_INT32"}}}, {"name": "ConstantFolding/Postprocessor/BatchMultiClassNonMaxSuppression/MultiClassNonMaxSuppression/ClipToWindow/unstack-folded-3", "op": "Const", "attr": {"value": {"tensor": {"dtype": "DT_FLOAT", "tensorShape": {}}}, "dtype": {"type": "DT_FLOAT"}}}, {"name": "ConstantFolding/Postprocessor/BatchMultiClassNonMaxSuppression/MultiClassNonMaxSuppression/ClipToWindow/unstack-folded-1", "op": "Const", "attr": {"value": {"tensor": {"dtype": "DT_FLOAT", "tensorShape": {}}}, "dtype": {"type": "DT_FLOAT"}}}, {"name": "Postprocessor/BatchMultiClassNonMaxSuppression/MultiClassNonMaxSuppression/ClipToWindow/concat/axis", "op": "Const", "attr": {"value": {"tensor": {"dtype": "DT_INT32", "tensorShape": {}}}, "dtype": {"type": "DT_INT32"}}}, {"name": "Postprocessor/BatchMultiClassNonMaxSuppression/MultiClassNonMaxSuppression/range", "op": "Const", "attr": {"value": {"tensor": {"dtype": "DT_INT32", "tensorShape": {"dim": [{"size": "5"}]}}}, "dtype": {"type": "DT_INT32"}}}, {"name": "Postprocessor/BatchMultiClassNonMaxSuppression/MultiClassNonMaxSuppression/Slice/begin", "op": "Const", "attr": {"value": {"tensor": {"dtype": "DT_INT32", "tensorShape": {"dim": [{"size": "2"}]}}}, "dtype": {"type": "DT_INT32"}}}, {"name": "Postprocessor/BatchMultiClassNonMaxSuppression/MultiClassNonMaxSuppression/stack", "op": "Const", "attr": {"value": {"tensor": {"dtype": "DT_INT32", "tensorShape": {"dim": [{"size": "2"}]}}}, "dtype": {"type": "DT_INT32"}}}, {"name": "Postprocessor/BatchMultiClassNonMaxSuppression/MultiClassNonMaxSuppression/Reshape/shape", "op": "Const", "attr": {"value": {"tensor": {"dtype": "DT_INT32", "tensorShape": {"dim": [{"size": "1"}]}}}, "dtype": {"type": "DT_INT32"}}}, {"name": "Postprocessor/BatchMultiClassNonMaxSuppression/MultiClassNonMaxSuppression/non_max_suppression_padded/NonMaxSuppressionV4/max_output_size", "op": "Const", "attr": {"value": {"tensor": {"dtype": "DT_INT32", "tensorShape": {}}}, "dtype": {"type": "DT_INT32"}}}, {"name": "Postprocessor/BatchMultiClassNonMaxSuppression/MultiClassNonMaxSuppression/non_max_suppression_padded/iou_threshold", "op": "Const", "attr": {"value": {"tensor": {"dtype": "DT_FLOAT", "tensorShape": {}}}, "dtype": {"type": "DT_FLOAT"}}}, {"name": "Postprocessor/BatchMultiClassNonMaxSuppression/MultiClassNonMaxSuppression/non_max_suppression_padded/score_threshold", "op": "Const", "attr": {"value": {"tensor": {"dtype": "DT_FLOAT", "tensorShape": {}}}, "dtype": {"type": "DT_FLOAT"}}}, {"name": "Postprocessor/BatchMultiClassNonMaxSuppression/MultiClassNonMaxSuppression/Gather/GatherV2_1/axis", "op": "Const", "attr": {"value": {"tensor": {"dtype": "DT_INT32", "tensorShape": {}}}, "dtype": {"type": "DT_INT32"}}}, {"name": "Postprocessor/BatchMultiClassNonMaxSuppression/MultiClassNonMaxSuppression/mul", "op": "Const", "attr": {"value": {"tensor": {"dtype": "DT_FLOAT", "tensorShape": {"dim": [{"size": "5"}]}}}, "dtype": {"type": "DT_FLOAT"}}}, {"name": "Postprocessor/BatchMultiClassNonMaxSuppression/MultiClassNonMaxSuppression/range_1", "op": "Const", "attr": {"value": {"tensor": {"dtype": "DT_INT32", "tensorShape": {"dim": [{"size": "5"}]}}}, "dtype": {"type": "DT_INT32"}}}, {"name": "Postprocessor/BatchMultiClassNonMaxSuppression/Less", "op": "Const", "attr": {"value": {"tensor": {"dtype": "DT_BOOL", "tensorShape": {"dim": [{"size": "2034"}]}}}, "dtype": {"type": "DT_BOOL"}}}, {"name": "Postprocessor/Slice/begin", "op": "Const", "attr": {"value": {"tensor": {"dtype": "DT_INT32", "tensorShape": {"dim": [{"size": "3"}]}}}, "dtype": {"type": "DT_INT32"}}}, {"name": "Postprocessor/Slice/size", "op": "Const", "attr": {"value": {"tensor": {"dtype": "DT_INT32", "tensorShape": {"dim": [{"size": "3"}]}}}, "dtype": {"type": "DT_INT32"}}}, {"name": "Postprocessor/BatchMultiClassNonMaxSuppression/Fill", "op": "Const", "attr": {"value": {"tensor": {"dtype": "DT_FLOAT", "tensorShape": {"dim": [{"size": "2034"}, {"size": "2"}]}}}, "dtype": {"type": "DT_FLOAT"}}}, {"name": "Postprocessor/BatchMultiClassNonMaxSuppression/MultiClassNonMaxSuppression/Slice_1/begin", "op": "Const", "attr": {"value": {"tensor": {"dtype": "DT_INT32", "tensorShape": {"dim": [{"size": "2"}]}}}, "dtype": {"type": "DT_INT32"}}}, {"name": "Postprocessor/BatchMultiClassNonMaxSuppression/MultiClassNonMaxSuppression/stack_1", "op": "Const", "attr": {"value": {"tensor": {"dtype": "DT_INT32", "tensorShape": {"dim": [{"size": "2"}]}}}, "dtype": {"type": "DT_INT32"}}}, {"name": "Postprocessor/BatchMultiClassNonMaxSuppression/MultiClassNonMaxSuppression/Reshape_1/shape", "op": "Const", "attr": {"value": {"tensor": {"dtype": "DT_INT32", "tensorShape": {"dim": [{"size": "1"}]}}}, "dtype": {"type": "DT_INT32"}}}, {"name": "Postprocessor/BatchMultiClassNonMaxSuppression/MultiClassNonMaxSuppression/non_max_suppression_padded_1/NonMaxSuppressionV4/max_output_size", "op": "Const", "attr": {"value": {"tensor": {"dtype": "DT_INT32", "tensorShape": {}}}, "dtype": {"type": "DT_INT32"}}}, {"name": "Postprocessor/BatchMultiClassNonMaxSuppression/MultiClassNonMaxSuppression/non_max_suppression_padded_1/iou_threshold", "op": "Const", "attr": {"value": {"tensor": {"dtype": "DT_FLOAT", "tensorShape": {}}}, "dtype": {"type": "DT_FLOAT"}}}, {"name": "Postprocessor/BatchMultiClassNonMaxSuppression/MultiClassNonMaxSuppression/non_max_suppression_padded_1/score_threshold", "op": "Const", "attr": {"value": {"tensor": {"dtype": "DT_FLOAT", "tensorShape": {}}}, "dtype": {"type": "DT_FLOAT"}}}, {"name": "Postprocessor/BatchMultiClassNonMaxSuppression/MultiClassNonMaxSuppression/Gather_1/GatherV2_1/axis", "op": "Const", "attr": {"value": {"tensor": {"dtype": "DT_INT32", "tensorShape": {}}}, "dtype": {"type": "DT_INT32"}}}, {"name": "Postprocessor/BatchMultiClassNonMaxSuppression/MultiClassNonMaxSuppression/mul_1", "op": "Const", "attr": {"value": {"tensor": {"dtype": "DT_FLOAT", "tensorShape": {"dim": [{"size": "5"}]}}}, "dtype": {"type": "DT_FLOAT"}}}, {"name": "Postprocessor/BatchMultiClassNonMaxSuppression/MultiClassNonMaxSuppression/Concatenate/concat_1/axis", "op": "Const", "attr": {"value": {"tensor": {"dtype": "DT_INT32", "tensorShape": {}}}, "dtype": {"type": "DT_INT32"}}}, {"name": "Postprocessor/BatchMultiClassNonMaxSuppression/MultiClassNonMaxSuppression/SortByField/strided_slice", "op": "Const", "attr": {"value": {"tensor": {"dtype": "DT_INT32", "tensorShape": {}}}, "dtype": {"type": "DT_INT32"}}}, {"name": "Postprocessor/BatchMultiClassNonMaxSuppression/MultiClassNonMaxSuppression/SortByField/Gather/GatherV2_1/axis", "op": "Const", "attr": {"value": {"tensor": {"dtype": "DT_INT32", "tensorShape": {}}}, "dtype": {"type": "DT_INT32"}}}, {"name": "Postprocessor/BatchMultiClassNonMaxSuppression/MultiClassNonMaxSuppression/mul_2", "op": "Const", "attr": {"value": {"tensor": {"dtype": "DT_FLOAT", "tensorShape": {"dim": [{"size": "10"}]}}}, "dtype": {"type": "DT_FLOAT"}}}, {"name": "Postprocessor/BatchMultiClassNonMaxSuppression/MultiClassNonMaxSuppression/GreaterEqual/y", "op": "Const", "attr": {"value": {"tensor": {"dtype": "DT_FLOAT", "tensorShape": {}}}, "dtype": {"type": "DT_FLOAT"}}}, {"name": "Postprocessor/BatchMultiClassNonMaxSuppression/MultiClassNonMaxSuppression/Const_1", "op": "Const", "attr": {"value": {"tensor": {"dtype": "DT_INT32", "tensorShape": {"dim": [{"size": "1"}]}}}, "dtype": {"type": "DT_INT32"}}}, {"name": "Postprocessor/BatchMultiClassNonMaxSuppression/MultiClassNonMaxSuppression/Minimum", "op": "Const", "attr": {"value": {"tensor": {"dtype": "DT_INT32", "tensorShape": {}}}, "dtype": {"type": "DT_INT32"}}}, {"name": "ConstantFolding/Postprocessor/Decode/truediv_4_recip", "op": "Const", "attr": {"value": {"tensor": {"dtype": "DT_FLOAT", "tensorShape": {}}}, "dtype": {"type": "DT_FLOAT"}}}, {"name": "ConstantFolding/Postprocessor/Decode/truediv_5_recip", "op": "Const", "attr": {"value": {"tensor": {"dtype": "DT_FLOAT", "tensorShape": {}}}, "dtype": {"type": "DT_FLOAT"}}}, {"name": "Postprocessor/Decode/truediv", "op": "Const", "attr": {"value": {"tensor": {"dtype": "DT_FLOAT", "tensorShape": {"dim": [{"size": "2034"}]}}}, "dtype": {"type": "DT_FLOAT"}}}, {"name": "Postprocessor/Decode/get_center_coordinates_and_sizes/add", "op": "Const", "attr": {"value": {"tensor": {"dtype": "DT_FLOAT", "tensorShape": {"dim": [{"size": "2034"}]}}}, "dtype": {"type": "DT_FLOAT"}}}, {"name": "ConstantFolding/Postprocessor/Decode/truediv_2_recip", "op": "Const", "attr": {"value": {"tensor": {"dtype": "DT_FLOAT", "tensorShape": {}}}, "dtype": {"type": "DT_FLOAT"}}}, {"name": "Postprocessor/Decode/get_center_coordinates_and_sizes/sub_1", "op": "Const", "attr": {"value": {"tensor": {"dtype": "DT_FLOAT", "tensorShape": {"dim": [{"size": "2034"}]}}}, "dtype": {"type": "DT_FLOAT"}}}, {"name": "ConstantFolding/Postprocessor/Decode/truediv_6_recip", "op": "Const", "attr": {"value": {"tensor": {"dtype": "DT_FLOAT", "tensorShape": {}}}, "dtype": {"type": "DT_FLOAT"}}}, {"name": "Postprocessor/Decode/truediv_1", "op": "Const", "attr": {"value": {"tensor": {"dtype": "DT_FLOAT", "tensorShape": {"dim": [{"size": "2034"}]}}}, "dtype": {"type": "DT_FLOAT"}}}, {"name": "Postprocessor/Decode/get_center_coordinates_and_sizes/add_1", "op": "Const", "attr": {"value": {"tensor": {"dtype": "DT_FLOAT", "tensorShape": {"dim": [{"size": "2034"}]}}}, "dtype": {"type": "DT_FLOAT"}}}, {"name": "BoxPredictor_0/BoxEncodingPredictor/weights", "op": "Const", "attr": {"value": {"tensor": {"dtype": "DT_FLOAT", "tensorShape": {"dim": [{"size": "1"}, {"size": "1"}, {"size": "72"}, {"size": "12"}]}}}, "dtype": {"type": "DT_FLOAT"}}}, {"name": "BoxPredictor_0/BoxEncodingPredictor/biases", "op": "Const", "attr": {"value": {"tensor": {"dtype": "DT_FLOAT", "tensorShape": {"dim": [{"size": "12"}]}}}, "dtype": {"type": "DT_FLOAT"}}}, {"name": "BoxPredictor_0/Reshape/shape", "op": "Const", "attr": {"value": {"tensor": {"dtype": "DT_INT32", "tensorShape": {"dim": [{"size": "4"}]}}}, "dtype": {"type": "DT_INT32"}}}, {"name": "BoxPredictor_1/BoxEncodingPredictor/weights", "op": "Const", "attr": {"value": {"tensor": {"dtype": "DT_FLOAT", "tensorShape": {"dim": [{"size": "1"}, {"size": "1"}, {"size": "144"}, {"size": "24"}]}}}, "dtype": {"type": "DT_FLOAT"}}}, {"name": "BoxPredictor_1/BoxEncodingPredictor/biases", "op": "Const", "attr": {"value": {"tensor": {"dtype": "DT_FLOAT", "tensorShape": {"dim": [{"size": "24"}]}}}, "dtype": {"type": "DT_FLOAT"}}}, {"name": "BoxPredictor_1/Reshape/shape", "op": "Const", "attr": {"value": {"tensor": {"dtype": "DT_INT32", "tensorShape": {"dim": [{"size": "4"}]}}}, "dtype": {"type": "DT_INT32"}}}, {"name": "BoxPredictor_2/BoxEncodingPredictor/weights", "op": "Const", "attr": {"value": {"tensor": {"dtype": "DT_FLOAT", "tensorShape": {"dim": [{"size": "1"}, {"size": "1"}, {"size": "512"}, {"size": "24"}]}}}, "dtype": {"type": "DT_FLOAT"}}}, {"name": "BoxPredictor_2/BoxEncodingPredictor/biases", "op": "Const", "attr": {"value": {"tensor": {"dtype": "DT_FLOAT", "tensorShape": {"dim": [{"size": "24"}]}}}, "dtype": {"type": "DT_FLOAT"}}}, {"name": "BoxPredictor_2/Reshape/shape", "op": "Const", "attr": {"value": {"tensor": {"dtype": "DT_INT32", "tensorShape": {"dim": [{"size": "4"}]}}}, "dtype": {"type": "DT_INT32"}}}, {"name": "BoxPredictor_3/BoxEncodingPredictor/weights", "op": "Const", "attr": {"value": {"tensor": {"dtype": "DT_FLOAT", "tensorShape": {"dim": [{"size": "1"}, {"size": "1"}, {"size": "256"}, {"size": "24"}]}}}, "dtype": {"type": "DT_FLOAT"}}}, {"name": "BoxPredictor_3/BoxEncodingPredictor/biases", "op": "Const", "attr": {"value": {"tensor": {"dtype": "DT_FLOAT", "tensorShape": {"dim": [{"size": "24"}]}}}, "dtype": {"type": "DT_FLOAT"}}}, {"name": "BoxPredictor_3/Reshape/shape", "op": "Const", "attr": {"value": {"tensor": {"dtype": "DT_INT32", "tensorShape": {"dim": [{"size": "4"}]}}}, "dtype": {"type": "DT_INT32"}}}, {"name": "BoxPredictor_4/BoxEncodingPredictor/weights", "op": "Const", "attr": {"value": {"tensor": {"dtype": "DT_FLOAT", "tensorShape": {"dim": [{"size": "1"}, {"size": "1"}, {"size": "256"}, {"size": "24"}]}}}, "dtype": {"type": "DT_FLOAT"}}}, {"name": "BoxPredictor_4/BoxEncodingPredictor/biases", "op": "Const", "attr": {"value": {"tensor": {"dtype": "DT_FLOAT", "tensorShape": {"dim": [{"size": "24"}]}}}, "dtype": {"type": "DT_FLOAT"}}}, {"name": "BoxPredictor_4/Reshape/shape", "op": "Const", "attr": {"value": {"tensor": {"dtype": "DT_INT32", "tensorShape": {"dim": [{"size": "4"}]}}}, "dtype": {"type": "DT_INT32"}}}, {"name": "BoxPredictor_5/BoxEncodingPredictor/weights", "op": "Const", "attr": {"value": {"tensor": {"dtype": "DT_FLOAT", "tensorShape": {"dim": [{"size": "1"}, {"size": "1"}, {"size": "128"}, {"size": "24"}]}}}, "dtype": {"type": "DT_FLOAT"}}}, {"name": "BoxPredictor_5/BoxEncodingPredictor/biases", "op": "Const", "attr": {"value": {"tensor": {"dtype": "DT_FLOAT", "tensorShape": {"dim": [{"size": "24"}]}}}, "dtype": {"type": "DT_FLOAT"}}}, {"name": "BoxPredictor_5/Reshape/shape", "op": "Const", "attr": {"value": {"tensor": {"dtype": "DT_INT32", "tensorShape": {"dim": [{"size": "4"}]}}}, "dtype": {"type": "DT_INT32"}}}, {"name": "concat/axis", "op": "Const", "attr": {"value": {"tensor": {"dtype": "DT_INT32", "tensorShape": {}}}, "dtype": {"type": "DT_INT32"}}}, {"name": "Postprocessor/Reshape_1/shape", "op": "Const", "attr": {"value": {"tensor": {"dtype": "DT_INT32", "tensorShape": {"dim": [{"size": "2"}]}}}, "dtype": {"type": "DT_INT32"}}}, {"name": "Postprocessor/Decode/transpose/perm", "op": "Const", "attr": {"value": {"tensor": {"dtype": "DT_INT32", "tensorShape": {"dim": [{"size": "2"}]}}}, "dtype": {"type": "DT_INT32"}}}, {"name": "ConstantFolding/Postprocessor/Decode/truediv_3_recip", "op": "Const", "attr": {"value": {"tensor": {"dtype": "DT_FLOAT", "tensorShape": {}}}, "dtype": {"type": "DT_FLOAT"}}}, {"name": "Postprocessor/Decode/get_center_coordinates_and_sizes/sub", "op": "Const", "attr": {"value": {"tensor": {"dtype": "DT_FLOAT", "tensorShape": {"dim": [{"size": "2034"}]}}}, "dtype": {"type": "DT_FLOAT"}}}, {"name": "ConstantFolding/Postprocessor/Decode/truediv_7_recip", "op": "Const", "attr": {"value": {"tensor": {"dtype": "DT_FLOAT", "tensorShape": {}}}, "dtype": {"type": "DT_FLOAT"}}}, {"name": "Postprocessor/Decode/transpose_1/perm", "op": "Const", "attr": {"value": {"tensor": {"dtype": "DT_INT32", "tensorShape": {"dim": [{"size": "2"}]}}}, "dtype": {"type": "DT_INT32"}}}, {"name": "Postprocessor/stack", "op": "Const", "attr": {"value": {"tensor": {"dtype": "DT_INT32", "tensorShape": {"dim": [{"size": "3"}]}}}, "dtype": {"type": "DT_INT32"}}}, {"name": "Postprocessor/ExpandDims_1/dim", "op": "Const", "attr": {"value": {"tensor": {"dtype": "DT_INT32", "tensorShape": {}}}, "dtype": {"type": "DT_INT32"}}}, {"name": "BoxPredictor_0/ClassPredictor/weights", "op": "Const", "attr": {"value": {"tensor": {"dtype": "DT_FLOAT", "tensorShape": {"dim": [{"size": "1"}, {"size": "1"}, {"size": "72"}, {"size": "9"}]}}}, "dtype": {"type": "DT_FLOAT"}}}, {"name": "BoxPredictor_0/ClassPredictor/biases", "op": "Const", "attr": {"value": {"tensor": {"dtype": "DT_FLOAT", "tensorShape": {"dim": [{"size": "9"}]}}}, "dtype": {"type": "DT_FLOAT"}}}, {"name": "BoxPredictor_0/Reshape_1/shape", "op": "Const", "attr": {"value": {"tensor": {"dtype": "DT_INT32", "tensorShape": {"dim": [{"size": "3"}]}}}, "dtype": {"type": "DT_INT32"}}}, {"name": "BoxPredictor_1/ClassPredictor/weights", "op": "Const", "attr": {"value": {"tensor": {"dtype": "DT_FLOAT", "tensorShape": {"dim": [{"size": "1"}, {"size": "1"}, {"size": "144"}, {"size": "18"}]}}}, "dtype": {"type": "DT_FLOAT"}}}, {"name": "BoxPredictor_1/ClassPredictor/biases", "op": "Const", "attr": {"value": {"tensor": {"dtype": "DT_FLOAT", "tensorShape": {"dim": [{"size": "18"}]}}}, "dtype": {"type": "DT_FLOAT"}}}, {"name": "BoxPredictor_1/Reshape_1/shape", "op": "Const", "attr": {"value": {"tensor": {"dtype": "DT_INT32", "tensorShape": {"dim": [{"size": "3"}]}}}, "dtype": {"type": "DT_INT32"}}}, {"name": "BoxPredictor_2/ClassPredictor/weights", "op": "Const", "attr": {"value": {"tensor": {"dtype": "DT_FLOAT", "tensorShape": {"dim": [{"size": "1"}, {"size": "1"}, {"size": "512"}, {"size": "18"}]}}}, "dtype": {"type": "DT_FLOAT"}}}, {"name": "BoxPredictor_2/ClassPredictor/biases", "op": "Const", "attr": {"value": {"tensor": {"dtype": "DT_FLOAT", "tensorShape": {"dim": [{"size": "18"}]}}}, "dtype": {"type": "DT_FLOAT"}}}, {"name": "BoxPredictor_2/Reshape_1/shape", "op": "Const", "attr": {"value": {"tensor": {"dtype": "DT_INT32", "tensorShape": {"dim": [{"size": "3"}]}}}, "dtype": {"type": "DT_INT32"}}}, {"name": "BoxPredictor_3/ClassPredictor/weights", "op": "Const", "attr": {"value": {"tensor": {"dtype": "DT_FLOAT", "tensorShape": {"dim": [{"size": "1"}, {"size": "1"}, {"size": "256"}, {"size": "18"}]}}}, "dtype": {"type": "DT_FLOAT"}}}, {"name": "BoxPredictor_3/ClassPredictor/biases", "op": "Const", "attr": {"value": {"tensor": {"dtype": "DT_FLOAT", "tensorShape": {"dim": [{"size": "18"}]}}}, "dtype": {"type": "DT_FLOAT"}}}, {"name": "BoxPredictor_3/Reshape_1/shape", "op": "Const", "attr": {"value": {"tensor": {"dtype": "DT_INT32", "tensorShape": {"dim": [{"size": "3"}]}}}, "dtype": {"type": "DT_INT32"}}}, {"name": "BoxPredictor_4/ClassPredictor/weights", "op": "Const", "attr": {"value": {"tensor": {"dtype": "DT_FLOAT", "tensorShape": {"dim": [{"size": "1"}, {"size": "1"}, {"size": "256"}, {"size": "18"}]}}}, "dtype": {"type": "DT_FLOAT"}}}, {"name": "BoxPredictor_4/ClassPredictor/biases", "op": "Const", "attr": {"value": {"tensor": {"dtype": "DT_FLOAT", "tensorShape": {"dim": [{"size": "18"}]}}}, "dtype": {"type": "DT_FLOAT"}}}, {"name": "BoxPredictor_4/Reshape_1/shape", "op": "Const", "attr": {"value": {"tensor": {"dtype": "DT_INT32", "tensorShape": {"dim": [{"size": "3"}]}}}, "dtype": {"type": "DT_INT32"}}}, {"name": "FeatureExtractor/MobileDetCPU/IBN_17/SqueezeExcite/Conv/swish6/mul_1/y", "op": "Const", "attr": {"value": {"tensor": {"dtype": "DT_FLOAT", "tensorShape": {}}}, "dtype": {"type": "DT_FLOAT"}}}, {"name": "FeatureExtractor/MobileDetCPU/IBN_17/SqueezeExcite/Conv/weights", "op": "Const", "attr": {"value": {"tensor": {"dtype": "DT_FLOAT", "tensorShape": {"dim": [{"size": "1"}, {"size": "1"}, {"size": "832"}, {"size": "208"}]}}}, "dtype": {"type": "DT_FLOAT"}}}, {"name": "FeatureExtractor/MobileDetCPU/IBN_17/SqueezeExcite/Conv/biases", "op": "Const", "attr": {"value": {"tensor": {"dtype": "DT_FLOAT", "tensorShape": {"dim": [{"size": "208"}]}}}, "dtype": {"type": "DT_FLOAT"}}}, {"name": "FeatureExtractor/MobileDetCPU/IBN_17/SqueezeExcite/Conv/swish6/add/y", "op": "Const", "attr": {"value": {"tensor": {"dtype": "DT_FLOAT", "tensorShape": {}}}, "dtype": {"type": "DT_FLOAT"}}}, {"name": "FeatureExtractor/MobileDetCPU/IBN_17/SqueezeExcite/Conv_1/weights", "op": "Const", "attr": {"value": {"tensor": {"dtype": "DT_FLOAT", "tensorShape": {"dim": [{"size": "1"}, {"size": "1"}, {"size": "208"}, {"size": "832"}]}}}, "dtype": {"type": "DT_FLOAT"}}}, {"name": "FeatureExtractor/MobileDetCPU/IBN_17/SqueezeExcite/Conv_1/biases", "op": "Const", "attr": {"value": {"tensor": {"dtype": "DT_FLOAT", "tensorShape": {"dim": [{"size": "832"}]}}}, "dtype": {"type": "DT_FLOAT"}}}, {"name": "FeatureExtractor/MobileDetCPU/IBN_17/SeparableConv2d/swish6/mul_1/y", "op": "Const", "attr": {"value": {"tensor": {"dtype": "DT_FLOAT", "tensorShape": {}}}, "dtype": {"type": "DT_FLOAT"}}}, {"name": "FeatureExtractor/MobileDetCPU/IBN_17/Conv/swish6/mul_1/y", "op": "Const", "attr": {"value": {"tensor": {"dtype": "DT_FLOAT", "tensorShape": {}}}, "dtype": {"type": "DT_FLOAT"}}}, {"name": "FeatureExtractor/MobileDetCPU/IBN_16/SqueezeExcite/Conv/swish6/mul_1/y", "op": "Const", "attr": {"value": {"tensor": {"dtype": "DT_FLOAT", "tensorShape": {}}}, "dtype": {"type": "DT_FLOAT"}}}, {"name": "FeatureExtractor/MobileDetCPU/IBN_16/SqueezeExcite/Conv/weights", "op": "Const", "attr": {"value": {"tensor": {"dtype": "DT_FLOAT", "tensorShape": {"dim": [{"size": "1"}, {"size": "1"}, {"size": "416"}, {"size": "104"}]}}}, "dtype": {"type": "DT_FLOAT"}}}, {"name": "FeatureExtractor/MobileDetCPU/IBN_16/SqueezeExcite/Conv/biases", "op": "Const", "attr": {"value": {"tensor": {"dtype": "DT_FLOAT", "tensorShape": {"dim": [{"size": "104"}]}}}, "dtype": {"type": "DT_FLOAT"}}}, {"name": "FeatureExtractor/MobileDetCPU/IBN_16/SqueezeExcite/Conv/swish6/add/y", "op": "Const", "attr": {"value": {"tensor": {"dtype": "DT_FLOAT", "tensorShape": {}}}, "dtype": {"type": "DT_FLOAT"}}}, {"name": "FeatureExtractor/MobileDetCPU/IBN_16/SqueezeExcite/Conv_1/weights", "op": "Const", "attr": {"value": {"tensor": {"dtype": "DT_FLOAT", "tensorShape": {"dim": [{"size": "1"}, {"size": "1"}, {"size": "104"}, {"size": "416"}]}}}, "dtype": {"type": "DT_FLOAT"}}}, {"name": "FeatureExtractor/MobileDetCPU/IBN_16/SqueezeExcite/Conv_1/biases", "op": "Const", "attr": {"value": {"tensor": {"dtype": "DT_FLOAT", "tensorShape": {"dim": [{"size": "416"}]}}}, "dtype": {"type": "DT_FLOAT"}}}, {"name": "FeatureExtractor/MobileDetCPU/IBN_16/SeparableConv2d/swish6/mul_1/y", "op": "Const", "attr": {"value": {"tensor": {"dtype": "DT_FLOAT", "tensorShape": {}}}, "dtype": {"type": "DT_FLOAT"}}}, {"name": "FeatureExtractor/MobileDetCPU/IBN_16/Conv/swish6/mul_1/y", "op": "Const", "attr": {"value": {"tensor": {"dtype": "DT_FLOAT", "tensorShape": {}}}, "dtype": {"type": "DT_FLOAT"}}}, {"name": "FeatureExtractor/MobileDetCPU/IBN_16/Conv/swish6/add/y", "op": "Const", "attr": {"value": {"tensor": {"dtype": "DT_FLOAT", "tensorShape": {}}}, "dtype": {"type": "DT_FLOAT"}}}, {"name": "FeatureExtractor/MobileDetCPU/IBN_16/SeparableConv2d/swish6/add/y", "op": "Const", "attr": {"value": {"tensor": {"dtype": "DT_FLOAT", "tensorShape": {}}}, "dtype": {"type": "DT_FLOAT"}}}, {"name": "FeatureExtractor/MobileDetCPU/IBN_15/SqueezeExcite/Conv/swish6/mul_1/y", "op": "Const", "attr": {"value": {"tensor": {"dtype": "DT_FLOAT", "tensorShape": {}}}, "dtype": {"type": "DT_FLOAT"}}}, {"name": "FeatureExtractor/MobileDetCPU/IBN_15/SqueezeExcite/Conv/weights", "op": "Const", "attr": {"value": {"tensor": {"dtype": "DT_FLOAT", "tensorShape": {"dim": [{"size": "1"}, {"size": "1"}, {"size": "416"}, {"size": "104"}]}}}, "dtype": {"type": "DT_FLOAT"}}}, {"name": "FeatureExtractor/MobileDetCPU/IBN_15/SqueezeExcite/Conv/biases", "op": "Const", "attr": {"value": {"tensor": {"dtype": "DT_FLOAT", "tensorShape": {"dim": [{"size": "104"}]}}}, "dtype": {"type": "DT_FLOAT"}}}, {"name": "FeatureExtractor/MobileDetCPU/IBN_15/SqueezeExcite/Conv/swish6/add/y", "op": "Const", "attr": {"value": {"tensor": {"dtype": "DT_FLOAT", "tensorShape": {}}}, "dtype": {"type": "DT_FLOAT"}}}, {"name": "FeatureExtractor/MobileDetCPU/IBN_15/SqueezeExcite/Conv_1/weights", "op": "Const", "attr": {"value": {"tensor": {"dtype": "DT_FLOAT", "tensorShape": {"dim": [{"size": "1"}, {"size": "1"}, {"size": "104"}, {"size": "416"}]}}}, "dtype": {"type": "DT_FLOAT"}}}, {"name": "FeatureExtractor/MobileDetCPU/IBN_15/SqueezeExcite/Conv_1/biases", "op": "Const", "attr": {"value": {"tensor": {"dtype": "DT_FLOAT", "tensorShape": {"dim": [{"size": "416"}]}}}, "dtype": {"type": "DT_FLOAT"}}}, {"name": "FeatureExtractor/MobileDetCPU/IBN_15/SeparableConv2d/swish6/mul_1/y", "op": "Const", "attr": {"value": {"tensor": {"dtype": "DT_FLOAT", "tensorShape": {}}}, "dtype": {"type": "DT_FLOAT"}}}, {"name": "FeatureExtractor/MobileDetCPU/IBN_15/Conv/swish6/mul_1/y", "op": "Const", "attr": {"value": {"tensor": {"dtype": "DT_FLOAT", "tensorShape": {}}}, "dtype": {"type": "DT_FLOAT"}}}, {"name": "FeatureExtractor/MobileDetCPU/IBN_15/Conv/swish6/add/y", "op": "Const", "attr": {"value": {"tensor": {"dtype": "DT_FLOAT", "tensorShape": {}}}, "dtype": {"type": "DT_FLOAT"}}}, {"name": "FeatureExtractor/MobileDetCPU/IBN_15/SeparableConv2d/swish6/add/y", "op": "Const", "attr": {"value": {"tensor": {"dtype": "DT_FLOAT", "tensorShape": {}}}, "dtype": {"type": "DT_FLOAT"}}}, {"name": "FeatureExtractor/MobileDetCPU/IBN_14/SqueezeExcite/Conv/swish6/mul_1/y", "op": "Const", "attr": {"value": {"tensor": {"dtype": "DT_FLOAT", "tensorShape": {}}}, "dtype": {"type": "DT_FLOAT"}}}, {"name": "FeatureExtractor/MobileDetCPU/IBN_14/SqueezeExcite/Conv/weights", "op": "Const", "attr": {"value": {"tensor": {"dtype": "DT_FLOAT", "tensorShape": {"dim": [{"size": "1"}, {"size": "1"}, {"size": "416"}, {"size": "104"}]}}}, "dtype": {"type": "DT_FLOAT"}}}, {"name": "FeatureExtractor/MobileDetCPU/IBN_14/SqueezeExcite/Conv/biases", "op": "Const", "attr": {"value": {"tensor": {"dtype": "DT_FLOAT", "tensorShape": {"dim": [{"size": "104"}]}}}, "dtype": {"type": "DT_FLOAT"}}}, {"name": "FeatureExtractor/MobileDetCPU/IBN_14/SqueezeExcite/Conv/swish6/add/y", "op": "Const", "attr": {"value": {"tensor": {"dtype": "DT_FLOAT", "tensorShape": {}}}, "dtype": {"type": "DT_FLOAT"}}}, {"name": "FeatureExtractor/MobileDetCPU/IBN_14/SqueezeExcite/Conv_1/weights", "op": "Const", "attr": {"value": {"tensor": {"dtype": "DT_FLOAT", "tensorShape": {"dim": [{"size": "1"}, {"size": "1"}, {"size": "104"}, {"size": "416"}]}}}, "dtype": {"type": "DT_FLOAT"}}}, {"name": "FeatureExtractor/MobileDetCPU/IBN_14/SqueezeExcite/Conv_1/biases", "op": "Const", "attr": {"value": {"tensor": {"dtype": "DT_FLOAT", "tensorShape": {"dim": [{"size": "416"}]}}}, "dtype": {"type": "DT_FLOAT"}}}, {"name": "FeatureExtractor/MobileDetCPU/IBN_14/SeparableConv2d/swish6/mul_1/y", "op": "Const", "attr": {"value": {"tensor": {"dtype": "DT_FLOAT", "tensorShape": {}}}, "dtype": {"type": "DT_FLOAT"}}}, {"name": "FeatureExtractor/MobileDetCPU/IBN_14/Conv/swish6/mul_1/y", "op": "Const", "attr": {"value": {"tensor": {"dtype": "DT_FLOAT", "tensorShape": {}}}, "dtype": {"type": "DT_FLOAT"}}}, {"name": "FeatureExtractor/MobileDetCPU/IBN_14/Conv/swish6/add/y", "op": "Const", "attr": {"value": {"tensor": {"dtype": "DT_FLOAT", "tensorShape": {}}}, "dtype": {"type": "DT_FLOAT"}}}, {"name": "FeatureExtractor/MobileDetCPU/IBN_14/SeparableConv2d/swish6/add/y", "op": "Const", "attr": {"value": {"tensor": {"dtype": "DT_FLOAT", "tensorShape": {}}}, "dtype": {"type": "DT_FLOAT"}}}, {"name": "FeatureExtractor/MobileDetCPU/IBN_13/SqueezeExcite/Conv/swish6/mul_1/y", "op": "Const", "attr": {"value": {"tensor": {"dtype": "DT_FLOAT", "tensorShape": {}}}, "dtype": {"type": "DT_FLOAT"}}}, {"name": "FeatureExtractor/MobileDetCPU/IBN_13/SqueezeExcite/Conv/weights", "op": "Const", "attr": {"value": {"tensor": {"dtype": "DT_FLOAT", "tensorShape": {"dim": [{"size": "1"}, {"size": "1"}, {"size": "576"}, {"size": "144"}]}}}, "dtype": {"type": "DT_FLOAT"}}}, {"name": "FeatureExtractor/MobileDetCPU/IBN_13/SqueezeExcite/Conv/biases", "op": "Const", "attr": {"value": {"tensor": {"dtype": "DT_FLOAT", "tensorShape": {"dim": [{"size": "144"}]}}}, "dtype": {"type": "DT_FLOAT"}}}, {"name": "FeatureExtractor/MobileDetCPU/IBN_13/SqueezeExcite/Conv/swish6/add/y", "op": "Const", "attr": {"value": {"tensor": {"dtype": "DT_FLOAT", "tensorShape": {}}}, "dtype": {"type": "DT_FLOAT"}}}, {"name": "FeatureExtractor/MobileDetCPU/IBN_13/SqueezeExcite/Conv_1/weights", "op": "Const", "attr": {"value": {"tensor": {"dtype": "DT_FLOAT", "tensorShape": {"dim": [{"size": "1"}, {"size": "1"}, {"size": "144"}, {"size": "576"}]}}}, "dtype": {"type": "DT_FLOAT"}}}, {"name": "FeatureExtractor/MobileDetCPU/IBN_13/SqueezeExcite/Conv_1/biases", "op": "Const", "attr": {"value": {"tensor": {"dtype": "DT_FLOAT", "tensorShape": {"dim": [{"size": "576"}]}}}, "dtype": {"type": "DT_FLOAT"}}}, {"name": "FeatureExtractor/MobileDetCPU/IBN_13/SeparableConv2d/swish6/mul_1/y", "op": "Const", "attr": {"value": {"tensor": {"dtype": "DT_FLOAT", "tensorShape": {}}}, "dtype": {"type": "DT_FLOAT"}}}, {"name": "FeatureExtractor/MobileDetCPU/IBN_13/Conv/swish6/mul_1/y", "op": "Const", "attr": {"value": {"tensor": {"dtype": "DT_FLOAT", "tensorShape": {}}}, "dtype": {"type": "DT_FLOAT"}}}, {"name": "FeatureExtractor/MobileDetCPU/IBN_12/SqueezeExcite/Conv/swish6/mul_1/y", "op": "Const", "attr": {"value": {"tensor": {"dtype": "DT_FLOAT", "tensorShape": {}}}, "dtype": {"type": "DT_FLOAT"}}}, {"name": "FeatureExtractor/MobileDetCPU/IBN_12/SqueezeExcite/Conv/weights", "op": "Const", "attr": {"value": {"tensor": {"dtype": "DT_FLOAT", "tensorShape": {"dim": [{"size": "1"}, {"size": "1"}, {"size": "576"}, {"size": "144"}]}}}, "dtype": {"type": "DT_FLOAT"}}}, {"name": "FeatureExtractor/MobileDetCPU/IBN_12/SqueezeExcite/Conv/biases", "op": "Const", "attr": {"value": {"tensor": {"dtype": "DT_FLOAT", "tensorShape": {"dim": [{"size": "144"}]}}}, "dtype": {"type": "DT_FLOAT"}}}, {"name": "FeatureExtractor/MobileDetCPU/IBN_12/SqueezeExcite/Conv/swish6/add/y", "op": "Const", "attr": {"value": {"tensor": {"dtype": "DT_FLOAT", "tensorShape": {}}}, "dtype": {"type": "DT_FLOAT"}}}, {"name": "FeatureExtractor/MobileDetCPU/IBN_12/SqueezeExcite/Conv_1/weights", "op": "Const", "attr": {"value": {"tensor": {"dtype": "DT_FLOAT", "tensorShape": {"dim": [{"size": "1"}, {"size": "1"}, {"size": "144"}, {"size": "576"}]}}}, "dtype": {"type": "DT_FLOAT"}}}, {"name": "FeatureExtractor/MobileDetCPU/IBN_12/SqueezeExcite/Conv_1/biases", "op": "Const", "attr": {"value": {"tensor": {"dtype": "DT_FLOAT", "tensorShape": {"dim": [{"size": "576"}]}}}, "dtype": {"type": "DT_FLOAT"}}}, {"name": "FeatureExtractor/MobileDetCPU/IBN_12/SeparableConv2d/swish6/mul_1/y", "op": "Const", "attr": {"value": {"tensor": {"dtype": "DT_FLOAT", "tensorShape": {}}}, "dtype": {"type": "DT_FLOAT"}}}, {"name": "FeatureExtractor/MobileDetCPU/IBN_12/Conv/swish6/mul_1/y", "op": "Const", "attr": {"value": {"tensor": {"dtype": "DT_FLOAT", "tensorShape": {}}}, "dtype": {"type": "DT_FLOAT"}}}, {"name": "FeatureExtractor/MobileDetCPU/IBN_12/Conv/swish6/add/y", "op": "Const", "attr": {"value": {"tensor": {"dtype": "DT_FLOAT", "tensorShape": {}}}, "dtype": {"type": "DT_FLOAT"}}}, {"name": "FeatureExtractor/MobileDetCPU/IBN_12/SeparableConv2d/swish6/add/y", "op": "Const", "attr": {"value": {"tensor": {"dtype": "DT_FLOAT", "tensorShape": {}}}, "dtype": {"type": "DT_FLOAT"}}}, {"name": "FeatureExtractor/MobileDetCPU/IBN_11/SqueezeExcite/Conv/swish6/mul_1/y", "op": "Const", "attr": {"value": {"tensor": {"dtype": "DT_FLOAT", "tensorShape": {}}}, "dtype": {"type": "DT_FLOAT"}}}, {"name": "FeatureExtractor/MobileDetCPU/IBN_11/SqueezeExcite/Conv/weights", "op": "Const", "attr": {"value": {"tensor": {"dtype": "DT_FLOAT", "tensorShape": {"dim": [{"size": "1"}, {"size": "1"}, {"size": "576"}, {"size": "144"}]}}}, "dtype": {"type": "DT_FLOAT"}}}, {"name": "FeatureExtractor/MobileDetCPU/IBN_11/SqueezeExcite/Conv/biases", "op": "Const", "attr": {"value": {"tensor": {"dtype": "DT_FLOAT", "tensorShape": {"dim": [{"size": "144"}]}}}, "dtype": {"type": "DT_FLOAT"}}}, {"name": "FeatureExtractor/MobileDetCPU/IBN_11/SqueezeExcite/Conv/swish6/add/y", "op": "Const", "attr": {"value": {"tensor": {"dtype": "DT_FLOAT", "tensorShape": {}}}, "dtype": {"type": "DT_FLOAT"}}}, {"name": "FeatureExtractor/MobileDetCPU/IBN_11/SqueezeExcite/Conv_1/weights", "op": "Const", "attr": {"value": {"tensor": {"dtype": "DT_FLOAT", "tensorShape": {"dim": [{"size": "1"}, {"size": "1"}, {"size": "144"}, {"size": "576"}]}}}, "dtype": {"type": "DT_FLOAT"}}}, {"name": "FeatureExtractor/MobileDetCPU/IBN_11/SqueezeExcite/Conv_1/biases", "op": "Const", "attr": {"value": {"tensor": {"dtype": "DT_FLOAT", "tensorShape": {"dim": [{"size": "576"}]}}}, "dtype": {"type": "DT_FLOAT"}}}, {"name": "FeatureExtractor/MobileDetCPU/IBN_11/SeparableConv2d/swish6/mul_1/y", "op": "Const", "attr": {"value": {"tensor": {"dtype": "DT_FLOAT", "tensorShape": {}}}, "dtype": {"type": "DT_FLOAT"}}}, {"name": "FeatureExtractor/MobileDetCPU/IBN_11/Conv/swish6/mul_1/y", "op": "Const", "attr": {"value": {"tensor": {"dtype": "DT_FLOAT", "tensorShape": {}}}, "dtype": {"type": "DT_FLOAT"}}}, {"name": "FeatureExtractor/MobileDetCPU/IBN_11/Conv/swish6/add/y", "op": "Const", "attr": {"value": {"tensor": {"dtype": "DT_FLOAT", "tensorShape": {}}}, "dtype": {"type": "DT_FLOAT"}}}, {"name": "FeatureExtractor/MobileDetCPU/IBN_11/SeparableConv2d/swish6/add/y", "op": "Const", "attr": {"value": {"tensor": {"dtype": "DT_FLOAT", "tensorShape": {}}}, "dtype": {"type": "DT_FLOAT"}}}, {"name": "FeatureExtractor/MobileDetCPU/IBN_10/SqueezeExcite/Conv/swish6/mul_1/y", "op": "Const", "attr": {"value": {"tensor": {"dtype": "DT_FLOAT", "tensorShape": {}}}, "dtype": {"type": "DT_FLOAT"}}}, {"name": "FeatureExtractor/MobileDetCPU/IBN_10/SqueezeExcite/Conv/weights", "op": "Const", "attr": {"value": {"tensor": {"dtype": "DT_FLOAT", "tensorShape": {"dim": [{"size": "1"}, {"size": "1"}, {"size": "576"}, {"size": "144"}]}}}, "dtype": {"type": "DT_FLOAT"}}}, {"name": "FeatureExtractor/MobileDetCPU/IBN_10/SqueezeExcite/Conv/biases", "op": "Const", "attr": {"value": {"tensor": {"dtype": "DT_FLOAT", "tensorShape": {"dim": [{"size": "144"}]}}}, "dtype": {"type": "DT_FLOAT"}}}, {"name": "FeatureExtractor/MobileDetCPU/IBN_10/SqueezeExcite/Conv/swish6/add/y", "op": "Const", "attr": {"value": {"tensor": {"dtype": "DT_FLOAT", "tensorShape": {}}}, "dtype": {"type": "DT_FLOAT"}}}, {"name": "FeatureExtractor/MobileDetCPU/IBN_10/SqueezeExcite/Conv_1/weights", "op": "Const", "attr": {"value": {"tensor": {"dtype": "DT_FLOAT", "tensorShape": {"dim": [{"size": "1"}, {"size": "1"}, {"size": "144"}, {"size": "576"}]}}}, "dtype": {"type": "DT_FLOAT"}}}, {"name": "FeatureExtractor/MobileDetCPU/IBN_10/SqueezeExcite/Conv_1/biases", "op": "Const", "attr": {"value": {"tensor": {"dtype": "DT_FLOAT", "tensorShape": {"dim": [{"size": "576"}]}}}, "dtype": {"type": "DT_FLOAT"}}}, {"name": "FeatureExtractor/MobileDetCPU/IBN_10/SeparableConv2d/swish6/mul_1/y", "op": "Const", "attr": {"value": {"tensor": {"dtype": "DT_FLOAT", "tensorShape": {}}}, "dtype": {"type": "DT_FLOAT"}}}, {"name": "FeatureExtractor/MobileDetCPU/IBN_10/Conv/swish6/mul_1/y", "op": "Const", "attr": {"value": {"tensor": {"dtype": "DT_FLOAT", "tensorShape": {}}}, "dtype": {"type": "DT_FLOAT"}}}, {"name": "FeatureExtractor/MobileDetCPU/IBN_10/Conv/swish6/add/y", "op": "Const", "attr": {"value": {"tensor": {"dtype": "DT_FLOAT", "tensorShape": {}}}, "dtype": {"type": "DT_FLOAT"}}}, {"name": "FeatureExtractor/MobileDetCPU/IBN_10/SeparableConv2d/swish6/add/y", "op": "Const", "attr": {"value": {"tensor": {"dtype": "DT_FLOAT", "tensorShape": {}}}, "dtype": {"type": "DT_FLOAT"}}}, {"name": "FeatureExtractor/MobileDetCPU/IBN_9/SqueezeExcite/Conv/swish6/mul_1/y", "op": "Const", "attr": {"value": {"tensor": {"dtype": "DT_FLOAT", "tensorShape": {}}}, "dtype": {"type": "DT_FLOAT"}}}, {"name": "FeatureExtractor/MobileDetCPU/IBN_9/SqueezeExcite/Conv/weights", "op": "Const", "attr": {"value": {"tensor": {"dtype": "DT_FLOAT", "tensorShape": {"dim": [{"size": "1"}, {"size": "1"}, {"size": "576"}, {"size": "144"}]}}}, "dtype": {"type": "DT_FLOAT"}}}, {"name": "FeatureExtractor/MobileDetCPU/IBN_9/SqueezeExcite/Conv/biases", "op": "Const", "attr": {"value": {"tensor": {"dtype": "DT_FLOAT", "tensorShape": {"dim": [{"size": "144"}]}}}, "dtype": {"type": "DT_FLOAT"}}}, {"name": "FeatureExtractor/MobileDetCPU/IBN_9/SqueezeExcite/Conv/swish6/add/y", "op": "Const", "attr": {"value": {"tensor": {"dtype": "DT_FLOAT", "tensorShape": {}}}, "dtype": {"type": "DT_FLOAT"}}}, {"name": "FeatureExtractor/MobileDetCPU/IBN_9/SqueezeExcite/Conv_1/weights", "op": "Const", "attr": {"value": {"tensor": {"dtype": "DT_FLOAT", "tensorShape": {"dim": [{"size": "1"}, {"size": "1"}, {"size": "144"}, {"size": "576"}]}}}, "dtype": {"type": "DT_FLOAT"}}}, {"name": "FeatureExtractor/MobileDetCPU/IBN_9/SqueezeExcite/Conv_1/biases", "op": "Const", "attr": {"value": {"tensor": {"dtype": "DT_FLOAT", "tensorShape": {"dim": [{"size": "576"}]}}}, "dtype": {"type": "DT_FLOAT"}}}, {"name": "FeatureExtractor/MobileDetCPU/IBN_9/SeparableConv2d/swish6/mul_1/y", "op": "Const", "attr": {"value": {"tensor": {"dtype": "DT_FLOAT", "tensorShape": {}}}, "dtype": {"type": "DT_FLOAT"}}}, {"name": "FeatureExtractor/MobileDetCPU/IBN_9/Conv/swish6/mul_1/y", "op": "Const", "attr": {"value": {"tensor": {"dtype": "DT_FLOAT", "tensorShape": {}}}, "dtype": {"type": "DT_FLOAT"}}}, {"name": "FeatureExtractor/MobileDetCPU/IBN_8/SqueezeExcite/Conv/swish6/mul_1/y", "op": "Const", "attr": {"value": {"tensor": {"dtype": "DT_FLOAT", "tensorShape": {}}}, "dtype": {"type": "DT_FLOAT"}}}, {"name": "FeatureExtractor/MobileDetCPU/IBN_8/SqueezeExcite/Conv/weights", "op": "Const", "attr": {"value": {"tensor": {"dtype": "DT_FLOAT", "tensorShape": {"dim": [{"size": "1"}, {"size": "1"}, {"size": "288"}, {"size": "72"}]}}}, "dtype": {"type": "DT_FLOAT"}}}, {"name": "FeatureExtractor/MobileDetCPU/IBN_8/SqueezeExcite/Conv/biases", "op": "Const", "attr": {"value": {"tensor": {"dtype": "DT_FLOAT", "tensorShape": {"dim": [{"size": "72"}]}}}, "dtype": {"type": "DT_FLOAT"}}}, {"name": "FeatureExtractor/MobileDetCPU/IBN_8/SqueezeExcite/Conv/swish6/add/y", "op": "Const", "attr": {"value": {"tensor": {"dtype": "DT_FLOAT", "tensorShape": {}}}, "dtype": {"type": "DT_FLOAT"}}}, {"name": "FeatureExtractor/MobileDetCPU/IBN_8/SqueezeExcite/Conv_1/weights", "op": "Const", "attr": {"value": {"tensor": {"dtype": "DT_FLOAT", "tensorShape": {"dim": [{"size": "1"}, {"size": "1"}, {"size": "72"}, {"size": "288"}]}}}, "dtype": {"type": "DT_FLOAT"}}}, {"name": "FeatureExtractor/MobileDetCPU/IBN_8/SqueezeExcite/Conv_1/biases", "op": "Const", "attr": {"value": {"tensor": {"dtype": "DT_FLOAT", "tensorShape": {"dim": [{"size": "288"}]}}}, "dtype": {"type": "DT_FLOAT"}}}, {"name": "FeatureExtractor/MobileDetCPU/IBN_8/SeparableConv2d/swish6/mul_1/y", "op": "Const", "attr": {"value": {"tensor": {"dtype": "DT_FLOAT", "tensorShape": {}}}, "dtype": {"type": "DT_FLOAT"}}}, {"name": "FeatureExtractor/MobileDetCPU/IBN_8/Conv/swish6/mul_1/y", "op": "Const", "attr": {"value": {"tensor": {"dtype": "DT_FLOAT", "tensorShape": {}}}, "dtype": {"type": "DT_FLOAT"}}}, {"name": "FeatureExtractor/MobileDetCPU/IBN_8/Conv/swish6/add/y", "op": "Const", "attr": {"value": {"tensor": {"dtype": "DT_FLOAT", "tensorShape": {}}}, "dtype": {"type": "DT_FLOAT"}}}, {"name": "FeatureExtractor/MobileDetCPU/IBN_8/SeparableConv2d/swish6/add/y", "op": "Const", "attr": {"value": {"tensor": {"dtype": "DT_FLOAT", "tensorShape": {}}}, "dtype": {"type": "DT_FLOAT"}}}, {"name": "FeatureExtractor/MobileDetCPU/IBN_7/SqueezeExcite/Conv/swish6/mul_1/y", "op": "Const", "attr": {"value": {"tensor": {"dtype": "DT_FLOAT", "tensorShape": {}}}, "dtype": {"type": "DT_FLOAT"}}}, {"name": "FeatureExtractor/MobileDetCPU/IBN_7/SqueezeExcite/Conv/weights", "op": "Const", "attr": {"value": {"tensor": {"dtype": "DT_FLOAT", "tensorShape": {"dim": [{"size": "1"}, {"size": "1"}, {"size": "288"}, {"size": "72"}]}}}, "dtype": {"type": "DT_FLOAT"}}}, {"name": "FeatureExtractor/MobileDetCPU/IBN_7/SqueezeExcite/Conv/biases", "op": "Const", "attr": {"value": {"tensor": {"dtype": "DT_FLOAT", "tensorShape": {"dim": [{"size": "72"}]}}}, "dtype": {"type": "DT_FLOAT"}}}, {"name": "FeatureExtractor/MobileDetCPU/IBN_7/SqueezeExcite/Conv/swish6/add/y", "op": "Const", "attr": {"value": {"tensor": {"dtype": "DT_FLOAT", "tensorShape": {}}}, "dtype": {"type": "DT_FLOAT"}}}, {"name": "FeatureExtractor/MobileDetCPU/IBN_7/SqueezeExcite/Conv_1/weights", "op": "Const", "attr": {"value": {"tensor": {"dtype": "DT_FLOAT", "tensorShape": {"dim": [{"size": "1"}, {"size": "1"}, {"size": "72"}, {"size": "288"}]}}}, "dtype": {"type": "DT_FLOAT"}}}, {"name": "FeatureExtractor/MobileDetCPU/IBN_7/SqueezeExcite/Conv_1/biases", "op": "Const", "attr": {"value": {"tensor": {"dtype": "DT_FLOAT", "tensorShape": {"dim": [{"size": "288"}]}}}, "dtype": {"type": "DT_FLOAT"}}}, {"name": "FeatureExtractor/MobileDetCPU/IBN_7/SeparableConv2d/swish6/mul_1/y", "op": "Const", "attr": {"value": {"tensor": {"dtype": "DT_FLOAT", "tensorShape": {}}}, "dtype": {"type": "DT_FLOAT"}}}, {"name": "FeatureExtractor/MobileDetCPU/IBN_7/Conv/swish6/mul_1/y", "op": "Const", "attr": {"value": {"tensor": {"dtype": "DT_FLOAT", "tensorShape": {}}}, "dtype": {"type": "DT_FLOAT"}}}, {"name": "FeatureExtractor/MobileDetCPU/IBN_7/Conv/swish6/add/y", "op": "Const", "attr": {"value": {"tensor": {"dtype": "DT_FLOAT", "tensorShape": {}}}, "dtype": {"type": "DT_FLOAT"}}}, {"name": "FeatureExtractor/MobileDetCPU/IBN_7/SeparableConv2d/swish6/add/y", "op": "Const", "attr": {"value": {"tensor": {"dtype": "DT_FLOAT", "tensorShape": {}}}, "dtype": {"type": "DT_FLOAT"}}}, {"name": "FeatureExtractor/MobileDetCPU/IBN_6/SqueezeExcite/Conv/swish6/mul_1/y", "op": "Const", "attr": {"value": {"tensor": {"dtype": "DT_FLOAT", "tensorShape": {}}}, "dtype": {"type": "DT_FLOAT"}}}, {"name": "FeatureExtractor/MobileDetCPU/IBN_6/SqueezeExcite/Conv/weights", "op": "Const", "attr": {"value": {"tensor": {"dtype": "DT_FLOAT", "tensorShape": {"dim": [{"size": "1"}, {"size": "1"}, {"size": "576"}, {"size": "144"}]}}}, "dtype": {"type": "DT_FLOAT"}}}, {"name": "FeatureExtractor/MobileDetCPU/IBN_6/SqueezeExcite/Conv/biases", "op": "Const", "attr": {"value": {"tensor": {"dtype": "DT_FLOAT", "tensorShape": {"dim": [{"size": "144"}]}}}, "dtype": {"type": "DT_FLOAT"}}}, {"name": "FeatureExtractor/MobileDetCPU/IBN_6/SqueezeExcite/Conv/swish6/add/y", "op": "Const", "attr": {"value": {"tensor": {"dtype": "DT_FLOAT", "tensorShape": {}}}, "dtype": {"type": "DT_FLOAT"}}}, {"name": "FeatureExtractor/MobileDetCPU/IBN_6/SqueezeExcite/Conv_1/weights", "op": "Const", "attr": {"value": {"tensor": {"dtype": "DT_FLOAT", "tensorShape": {"dim": [{"size": "1"}, {"size": "1"}, {"size": "144"}, {"size": "576"}]}}}, "dtype": {"type": "DT_FLOAT"}}}, {"name": "FeatureExtractor/MobileDetCPU/IBN_6/SqueezeExcite/Conv_1/biases", "op": "Const", "attr": {"value": {"tensor": {"dtype": "DT_FLOAT", "tensorShape": {"dim": [{"size": "576"}]}}}, "dtype": {"type": "DT_FLOAT"}}}, {"name": "FeatureExtractor/MobileDetCPU/IBN_6/SeparableConv2d/swish6/mul_1/y", "op": "Const", "attr": {"value": {"tensor": {"dtype": "DT_FLOAT", "tensorShape": {}}}, "dtype": {"type": "DT_FLOAT"}}}, {"name": "FeatureExtractor/MobileDetCPU/IBN_6/Conv/swish6/mul_1/y", "op": "Const", "attr": {"value": {"tensor": {"dtype": "DT_FLOAT", "tensorShape": {}}}, "dtype": {"type": "DT_FLOAT"}}}, {"name": "FeatureExtractor/MobileDetCPU/IBN_6/Conv/swish6/add/y", "op": "Const", "attr": {"value": {"tensor": {"dtype": "DT_FLOAT", "tensorShape": {}}}, "dtype": {"type": "DT_FLOAT"}}}, {"name": "FeatureExtractor/MobileDetCPU/IBN_6/SeparableConv2d/swish6/add/y", "op": "Const", "attr": {"value": {"tensor": {"dtype": "DT_FLOAT", "tensorShape": {}}}, "dtype": {"type": "DT_FLOAT"}}}, {"name": "FeatureExtractor/MobileDetCPU/IBN_5/SqueezeExcite/Conv/swish6/mul_1/y", "op": "Const", "attr": {"value": {"tensor": {"dtype": "DT_FLOAT", "tensorShape": {}}}, "dtype": {"type": "DT_FLOAT"}}}, {"name": "FeatureExtractor/MobileDetCPU/IBN_5/SqueezeExcite/Conv/weights", "op": "Const", "attr": {"value": {"tensor": {"dtype": "DT_FLOAT", "tensorShape": {"dim": [{"size": "1"}, {"size": "1"}, {"size": "256"}, {"size": "64"}]}}}, "dtype": {"type": "DT_FLOAT"}}}, {"name": "FeatureExtractor/MobileDetCPU/IBN_5/SqueezeExcite/Conv/biases", "op": "Const", "attr": {"value": {"tensor": {"dtype": "DT_FLOAT", "tensorShape": {"dim": [{"size": "64"}]}}}, "dtype": {"type": "DT_FLOAT"}}}, {"name": "FeatureExtractor/MobileDetCPU/IBN_5/SqueezeExcite/Conv/swish6/add/y", "op": "Const", "attr": {"value": {"tensor": {"dtype": "DT_FLOAT", "tensorShape": {}}}, "dtype": {"type": "DT_FLOAT"}}}, {"name": "FeatureExtractor/MobileDetCPU/IBN_5/SqueezeExcite/Conv_1/weights", "op": "Const", "attr": {"value": {"tensor": {"dtype": "DT_FLOAT", "tensorShape": {"dim": [{"size": "1"}, {"size": "1"}, {"size": "64"}, {"size": "256"}]}}}, "dtype": {"type": "DT_FLOAT"}}}, {"name": "FeatureExtractor/MobileDetCPU/IBN_5/SqueezeExcite/Conv_1/biases", "op": "Const", "attr": {"value": {"tensor": {"dtype": "DT_FLOAT", "tensorShape": {"dim": [{"size": "256"}]}}}, "dtype": {"type": "DT_FLOAT"}}}, {"name": "FeatureExtractor/MobileDetCPU/IBN_5/SeparableConv2d/swish6/mul_1/y", "op": "Const", "attr": {"value": {"tensor": {"dtype": "DT_FLOAT", "tensorShape": {}}}, "dtype": {"type": "DT_FLOAT"}}}, {"name": "FeatureExtractor/MobileDetCPU/IBN_5/Conv/swish6/mul_1/y", "op": "Const", "attr": {"value": {"tensor": {"dtype": "DT_FLOAT", "tensorShape": {}}}, "dtype": {"type": "DT_FLOAT"}}}, {"name": "FeatureExtractor/MobileDetCPU/IBN_4/SqueezeExcite/Conv/swish6/mul_1/y", "op": "Const", "attr": {"value": {"tensor": {"dtype": "DT_FLOAT", "tensorShape": {}}}, "dtype": {"type": "DT_FLOAT"}}}, {"name": "FeatureExtractor/MobileDetCPU/IBN_4/SqueezeExcite/Conv/weights", "op": "Const", "attr": {"value": {"tensor": {"dtype": "DT_FLOAT", "tensorShape": {"dim": [{"size": "1"}, {"size": "1"}, {"size": "128"}, {"size": "32"}]}}}, "dtype": {"type": "DT_FLOAT"}}}, {"name": "FeatureExtractor/MobileDetCPU/IBN_4/SqueezeExcite/Conv/biases", "op": "Const", "attr": {"value": {"tensor": {"dtype": "DT_FLOAT", "tensorShape": {"dim": [{"size": "32"}]}}}, "dtype": {"type": "DT_FLOAT"}}}, {"name": "FeatureExtractor/MobileDetCPU/IBN_4/SqueezeExcite/Conv/swish6/add/y", "op": "Const", "attr": {"value": {"tensor": {"dtype": "DT_FLOAT", "tensorShape": {}}}, "dtype": {"type": "DT_FLOAT"}}}, {"name": "FeatureExtractor/MobileDetCPU/IBN_4/SqueezeExcite/Conv_1/weights", "op": "Const", "attr": {"value": {"tensor": {"dtype": "DT_FLOAT", "tensorShape": {"dim": [{"size": "1"}, {"size": "1"}, {"size": "32"}, {"size": "128"}]}}}, "dtype": {"type": "DT_FLOAT"}}}, {"name": "FeatureExtractor/MobileDetCPU/IBN_4/SqueezeExcite/Conv_1/biases", "op": "Const", "attr": {"value": {"tensor": {"dtype": "DT_FLOAT", "tensorShape": {"dim": [{"size": "128"}]}}}, "dtype": {"type": "DT_FLOAT"}}}, {"name": "FeatureExtractor/MobileDetCPU/IBN_4/SeparableConv2d/swish6/mul_1/y", "op": "Const", "attr": {"value": {"tensor": {"dtype": "DT_FLOAT", "tensorShape": {}}}, "dtype": {"type": "DT_FLOAT"}}}, {"name": "FeatureExtractor/MobileDetCPU/IBN_4/Conv/swish6/mul_1/y", "op": "Const", "attr": {"value": {"tensor": {"dtype": "DT_FLOAT", "tensorShape": {}}}, "dtype": {"type": "DT_FLOAT"}}}, {"name": "FeatureExtractor/MobileDetCPU/IBN_4/Conv/swish6/add/y", "op": "Const", "attr": {"value": {"tensor": {"dtype": "DT_FLOAT", "tensorShape": {}}}, "dtype": {"type": "DT_FLOAT"}}}, {"name": "FeatureExtractor/MobileDetCPU/IBN_4/SeparableConv2d/swish6/add/y", "op": "Const", "attr": {"value": {"tensor": {"dtype": "DT_FLOAT", "tensorShape": {}}}, "dtype": {"type": "DT_FLOAT"}}}, {"name": "FeatureExtractor/MobileDetCPU/IBN_3/SqueezeExcite/Conv/swish6/mul_1/y", "op": "Const", "attr": {"value": {"tensor": {"dtype": "DT_FLOAT", "tensorShape": {}}}, "dtype": {"type": "DT_FLOAT"}}}, {"name": "FeatureExtractor/MobileDetCPU/IBN_3/SqueezeExcite/Conv/weights", "op": "Const", "attr": {"value": {"tensor": {"dtype": "DT_FLOAT", "tensorShape": {"dim": [{"size": "1"}, {"size": "1"}, {"size": "128"}, {"size": "32"}]}}}, "dtype": {"type": "DT_FLOAT"}}}, {"name": "FeatureExtractor/MobileDetCPU/IBN_3/SqueezeExcite/Conv/biases", "op": "Const", "attr": {"value": {"tensor": {"dtype": "DT_FLOAT", "tensorShape": {"dim": [{"size": "32"}]}}}, "dtype": {"type": "DT_FLOAT"}}}, {"name": "FeatureExtractor/MobileDetCPU/IBN_3/SqueezeExcite/Conv/swish6/add/y", "op": "Const", "attr": {"value": {"tensor": {"dtype": "DT_FLOAT", "tensorShape": {}}}, "dtype": {"type": "DT_FLOAT"}}}, {"name": "FeatureExtractor/MobileDetCPU/IBN_3/SqueezeExcite/Conv_1/weights", "op": "Const", "attr": {"value": {"tensor": {"dtype": "DT_FLOAT", "tensorShape": {"dim": [{"size": "1"}, {"size": "1"}, {"size": "32"}, {"size": "128"}]}}}, "dtype": {"type": "DT_FLOAT"}}}, {"name": "FeatureExtractor/MobileDetCPU/IBN_3/SqueezeExcite/Conv_1/biases", "op": "Const", "attr": {"value": {"tensor": {"dtype": "DT_FLOAT", "tensorShape": {"dim": [{"size": "128"}]}}}, "dtype": {"type": "DT_FLOAT"}}}, {"name": "FeatureExtractor/MobileDetCPU/IBN_3/SeparableConv2d/swish6/mul_1/y", "op": "Const", "attr": {"value": {"tensor": {"dtype": "DT_FLOAT", "tensorShape": {}}}, "dtype": {"type": "DT_FLOAT"}}}, {"name": "FeatureExtractor/MobileDetCPU/IBN_3/Conv/swish6/mul_1/y", "op": "Const", "attr": {"value": {"tensor": {"dtype": "DT_FLOAT", "tensorShape": {}}}, "dtype": {"type": "DT_FLOAT"}}}, {"name": "FeatureExtractor/MobileDetCPU/IBN_3/Conv/swish6/add/y", "op": "Const", "attr": {"value": {"tensor": {"dtype": "DT_FLOAT", "tensorShape": {}}}, "dtype": {"type": "DT_FLOAT"}}}, {"name": "FeatureExtractor/MobileDetCPU/IBN_3/SeparableConv2d/swish6/add/y", "op": "Const", "attr": {"value": {"tensor": {"dtype": "DT_FLOAT", "tensorShape": {}}}, "dtype": {"type": "DT_FLOAT"}}}, {"name": "FeatureExtractor/MobileDetCPU/IBN_2/SqueezeExcite/Conv/swish6/mul_1/y", "op": "Const", "attr": {"value": {"tensor": {"dtype": "DT_FLOAT", "tensorShape": {}}}, "dtype": {"type": "DT_FLOAT"}}}, {"name": "FeatureExtractor/MobileDetCPU/IBN_2/SqueezeExcite/Conv/weights", "op": "Const", "attr": {"value": {"tensor": {"dtype": "DT_FLOAT", "tensorShape": {"dim": [{"size": "1"}, {"size": "1"}, {"size": "128"}, {"size": "32"}]}}}, "dtype": {"type": "DT_FLOAT"}}}, {"name": "FeatureExtractor/MobileDetCPU/IBN_2/SqueezeExcite/Conv/biases", "op": "Const", "attr": {"value": {"tensor": {"dtype": "DT_FLOAT", "tensorShape": {"dim": [{"size": "32"}]}}}, "dtype": {"type": "DT_FLOAT"}}}, {"name": "FeatureExtractor/MobileDetCPU/IBN_2/SqueezeExcite/Conv/swish6/add/y", "op": "Const", "attr": {"value": {"tensor": {"dtype": "DT_FLOAT", "tensorShape": {}}}, "dtype": {"type": "DT_FLOAT"}}}, {"name": "FeatureExtractor/MobileDetCPU/IBN_2/SqueezeExcite/Conv_1/weights", "op": "Const", "attr": {"value": {"tensor": {"dtype": "DT_FLOAT", "tensorShape": {"dim": [{"size": "1"}, {"size": "1"}, {"size": "32"}, {"size": "128"}]}}}, "dtype": {"type": "DT_FLOAT"}}}, {"name": "FeatureExtractor/MobileDetCPU/IBN_2/SqueezeExcite/Conv_1/biases", "op": "Const", "attr": {"value": {"tensor": {"dtype": "DT_FLOAT", "tensorShape": {"dim": [{"size": "128"}]}}}, "dtype": {"type": "DT_FLOAT"}}}, {"name": "FeatureExtractor/MobileDetCPU/IBN_2/SeparableConv2d/swish6/mul_1/y", "op": "Const", "attr": {"value": {"tensor": {"dtype": "DT_FLOAT", "tensorShape": {}}}, "dtype": {"type": "DT_FLOAT"}}}, {"name": "FeatureExtractor/MobileDetCPU/IBN_2/Conv/swish6/mul_1/y", "op": "Const", "attr": {"value": {"tensor": {"dtype": "DT_FLOAT", "tensorShape": {}}}, "dtype": {"type": "DT_FLOAT"}}}, {"name": "FeatureExtractor/MobileDetCPU/IBN_2/Conv/swish6/add/y", "op": "Const", "attr": {"value": {"tensor": {"dtype": "DT_FLOAT", "tensorShape": {}}}, "dtype": {"type": "DT_FLOAT"}}}, {"name": "FeatureExtractor/MobileDetCPU/IBN_2/SeparableConv2d/swish6/add/y", "op": "Const", "attr": {"value": {"tensor": {"dtype": "DT_FLOAT", "tensorShape": {}}}, "dtype": {"type": "DT_FLOAT"}}}, {"name": "FeatureExtractor/MobileDetCPU/IBN_1/SqueezeExcite/Conv/swish6/mul_1/y", "op": "Const", "attr": {"value": {"tensor": {"dtype": "DT_FLOAT", "tensorShape": {}}}, "dtype": {"type": "DT_FLOAT"}}}, {"name": "FeatureExtractor/MobileDetCPU/IBN_1/SqueezeExcite/Conv/weights", "op": "Const", "attr": {"value": {"tensor": {"dtype": "DT_FLOAT", "tensorShape": {"dim": [{"size": "1"}, {"size": "1"}, {"size": "128"}, {"size": "32"}]}}}, "dtype": {"type": "DT_FLOAT"}}}, {"name": "FeatureExtractor/MobileDetCPU/IBN_1/SqueezeExcite/Conv/biases", "op": "Const", "attr": {"value": {"tensor": {"dtype": "DT_FLOAT", "tensorShape": {"dim": [{"size": "32"}]}}}, "dtype": {"type": "DT_FLOAT"}}}, {"name": "FeatureExtractor/MobileDetCPU/IBN_1/SqueezeExcite/Conv/swish6/add/y", "op": "Const", "attr": {"value": {"tensor": {"dtype": "DT_FLOAT", "tensorShape": {}}}, "dtype": {"type": "DT_FLOAT"}}}, {"name": "FeatureExtractor/MobileDetCPU/IBN_1/SqueezeExcite/Conv_1/weights", "op": "Const", "attr": {"value": {"tensor": {"dtype": "DT_FLOAT", "tensorShape": {"dim": [{"size": "1"}, {"size": "1"}, {"size": "32"}, {"size": "128"}]}}}, "dtype": {"type": "DT_FLOAT"}}}, {"name": "FeatureExtractor/MobileDetCPU/IBN_1/SqueezeExcite/Conv_1/biases", "op": "Const", "attr": {"value": {"tensor": {"dtype": "DT_FLOAT", "tensorShape": {"dim": [{"size": "128"}]}}}, "dtype": {"type": "DT_FLOAT"}}}, {"name": "FeatureExtractor/MobileDetCPU/IBN_1/SeparableConv2d/swish6/mul_1/y", "op": "Const", "attr": {"value": {"tensor": {"dtype": "DT_FLOAT", "tensorShape": {}}}, "dtype": {"type": "DT_FLOAT"}}}, {"name": "FeatureExtractor/MobileDetCPU/IBN_1/Conv/swish6/mul_1/y", "op": "Const", "attr": {"value": {"tensor": {"dtype": "DT_FLOAT", "tensorShape": {}}}, "dtype": {"type": "DT_FLOAT"}}}, {"name": "FeatureExtractor/MobileDetCPU/IBN/SqueezeExcite/Conv/swish6/mul_1/y", "op": "Const", "attr": {"value": {"tensor": {"dtype": "DT_FLOAT", "tensorShape": {}}}, "dtype": {"type": "DT_FLOAT"}}}, {"name": "FeatureExtractor/MobileDetCPU/IBN/SqueezeExcite/Conv/weights", "op": "Const", "attr": {"value": {"tensor": {"dtype": "DT_FLOAT", "tensorShape": {"dim": [{"size": "1"}, {"size": "1"}, {"size": "32"}, {"size": "8"}]}}}, "dtype": {"type": "DT_FLOAT"}}}, {"name": "FeatureExtractor/MobileDetCPU/IBN/SqueezeExcite/Conv/biases", "op": "Const", "attr": {"value": {"tensor": {"dtype": "DT_FLOAT", "tensorShape": {"dim": [{"size": "8"}]}}}, "dtype": {"type": "DT_FLOAT"}}}, {"name": "FeatureExtractor/MobileDetCPU/IBN/SqueezeExcite/Conv/swish6/add/y", "op": "Const", "attr": {"value": {"tensor": {"dtype": "DT_FLOAT", "tensorShape": {}}}, "dtype": {"type": "DT_FLOAT"}}}, {"name": "FeatureExtractor/MobileDetCPU/IBN/SqueezeExcite/Conv_1/weights", "op": "Const", "attr": {"value": {"tensor": {"dtype": "DT_FLOAT", "tensorShape": {"dim": [{"size": "1"}, {"size": "1"}, {"size": "8"}, {"size": "32"}]}}}, "dtype": {"type": "DT_FLOAT"}}}, {"name": "FeatureExtractor/MobileDetCPU/IBN/SqueezeExcite/Conv_1/biases", "op": "Const", "attr": {"value": {"tensor": {"dtype": "DT_FLOAT", "tensorShape": {"dim": [{"size": "32"}]}}}, "dtype": {"type": "DT_FLOAT"}}}, {"name": "FeatureExtractor/MobileDetCPU/IBN/SeparableConv2d/swish6/mul_1/y", "op": "Const", "attr": {"value": {"tensor": {"dtype": "DT_FLOAT", "tensorShape": {}}}, "dtype": {"type": "DT_FLOAT"}}}, {"name": "FeatureExtractor/MobileDetCPU/IBN/Conv/swish6/mul_1/y", "op": "Const", "attr": {"value": {"tensor": {"dtype": "DT_FLOAT", "tensorShape": {}}}, "dtype": {"type": "DT_FLOAT"}}}, {"name": "FeatureExtractor/MobileDetCPU/IBNNoExpansion/SqueezeExcite/Conv/swish6/mul_1/y", "op": "Const", "attr": {"value": {"tensor": {"dtype": "DT_FLOAT", "tensorShape": {}}}, "dtype": {"type": "DT_FLOAT"}}}, {"name": "FeatureExtractor/MobileDetCPU/IBNNoExpansion/SqueezeExcite/Conv/weights", "op": "Const", "attr": {"value": {"tensor": {"dtype": "DT_FLOAT", "tensorShape": {"dim": [{"size": "1"}, {"size": "1"}, {"size": "16"}, {"size": "8"}]}}}, "dtype": {"type": "DT_FLOAT"}}}, {"name": "FeatureExtractor/MobileDetCPU/IBNNoExpansion/SqueezeExcite/Conv/biases", "op": "Const", "attr": {"value": {"tensor": {"dtype": "DT_FLOAT", "tensorShape": {"dim": [{"size": "8"}]}}}, "dtype": {"type": "DT_FLOAT"}}}, {"name": "FeatureExtractor/MobileDetCPU/IBNNoExpansion/SqueezeExcite/Conv/swish6/add/y", "op": "Const", "attr": {"value": {"tensor": {"dtype": "DT_FLOAT", "tensorShape": {}}}, "dtype": {"type": "DT_FLOAT"}}}, {"name": "FeatureExtractor/MobileDetCPU/IBNNoExpansion/SqueezeExcite/Conv_1/weights", "op": "Const", "attr": {"value": {"tensor": {"dtype": "DT_FLOAT", "tensorShape": {"dim": [{"size": "1"}, {"size": "1"}, {"size": "8"}, {"size": "16"}]}}}, "dtype": {"type": "DT_FLOAT"}}}, {"name": "FeatureExtractor/MobileDetCPU/IBNNoExpansion/SqueezeExcite/Conv_1/biases", "op": "Const", "attr": {"value": {"tensor": {"dtype": "DT_FLOAT", "tensorShape": {"dim": [{"size": "16"}]}}}, "dtype": {"type": "DT_FLOAT"}}}, {"name": "FeatureExtractor/MobileDetCPU/IBNNoExpansion/SeparableConv2d/swish6/mul_1/y", "op": "Const", "attr": {"value": {"tensor": {"dtype": "DT_FLOAT", "tensorShape": {}}}, "dtype": {"type": "DT_FLOAT"}}}, {"name": "FeatureExtractor/MobileDetCPU/Conv/swish6/mul_1/y", "op": "Const", "attr": {"value": {"tensor": {"dtype": "DT_FLOAT", "tensorShape": {}}}, "dtype": {"type": "DT_FLOAT"}}}, {"name": "Preprocessor/mul/x", "op": "Const", "attr": {"value": {"tensor": {"dtype": "DT_FLOAT", "tensorShape": {}}}, "dtype": {"type": "DT_FLOAT"}}}, {"name": "image_tensor", "op": "Placeholder", "attr": {"dtype": {"type": "DT_UINT8"}, "shape": {"shape": {"dim": [{"size": "1"}, {"size": "320"}, {"size": "320"}, {"size": "3"}]}}}}, {"name": "Preprocessor/ResizeImage/resize/ExpandDims/dim", "op": "Const", "attr": {"value": {"tensor": {"dtype": "DT_INT32", "tensorShape": {}}}, "dtype": {"type": "DT_INT32"}}}, {"name": "Preprocessor/sub/y", "op": "Const", "attr": {"value": {"tensor": {"dtype": "DT_FLOAT", "tensorShape": {}}}, "dtype": {"type": "DT_FLOAT"}}}, {"name": "FeatureExtractor/MobileDetCPU/Conv/swish6/add/y", "op": "Const", "attr": {"value": {"tensor": {"dtype": "DT_FLOAT", "tensorShape": {}}}, "dtype": {"type": "DT_FLOAT"}}}, {"name": "FeatureExtractor/MobileDetCPU/IBNNoExpansion/SeparableConv2d/swish6/add/y", "op": "Const", "attr": {"value": {"tensor": {"dtype": "DT_FLOAT", "tensorShape": {}}}, "dtype": {"type": "DT_FLOAT"}}}, {"name": "FeatureExtractor/MobileDetCPU/IBN/Conv/swish6/add/y", "op": "Const", "attr": {"value": {"tensor": {"dtype": "DT_FLOAT", "tensorShape": {}}}, "dtype": {"type": "DT_FLOAT"}}}, {"name": "FeatureExtractor/MobileDetCPU/IBN/SeparableConv2d/swish6/add/y", "op": "Const", "attr": {"value": {"tensor": {"dtype": "DT_FLOAT", "tensorShape": {}}}, "dtype": {"type": "DT_FLOAT"}}}, {"name": "FeatureExtractor/MobileDetCPU/IBN_1/Conv/swish6/add/y", "op": "Const", "attr": {"value": {"tensor": {"dtype": "DT_FLOAT", "tensorShape": {}}}, "dtype": {"type": "DT_FLOAT"}}}, {"name": "FeatureExtractor/MobileDetCPU/IBN_1/SeparableConv2d/swish6/add/y", "op": "Const", "attr": {"value": {"tensor": {"dtype": "DT_FLOAT", "tensorShape": {}}}, "dtype": {"type": "DT_FLOAT"}}}, {"name": "FeatureExtractor/MobileDetCPU/IBN_5/Conv/swish6/add/y", "op": "Const", "attr": {"value": {"tensor": {"dtype": "DT_FLOAT", "tensorShape": {}}}, "dtype": {"type": "DT_FLOAT"}}}, {"name": "FeatureExtractor/MobileDetCPU/IBN_5/SeparableConv2d/swish6/add/y", "op": "Const", "attr": {"value": {"tensor": {"dtype": "DT_FLOAT", "tensorShape": {}}}, "dtype": {"type": "DT_FLOAT"}}}, {"name": "FeatureExtractor/MobileDetCPU/IBN_9/Conv/swish6/add/y", "op": "Const", "attr": {"value": {"tensor": {"dtype": "DT_FLOAT", "tensorShape": {}}}, "dtype": {"type": "DT_FLOAT"}}}, {"name": "FeatureExtractor/MobileDetCPU/IBN_9/SeparableConv2d/swish6/add/y", "op": "Const", "attr": {"value": {"tensor": {"dtype": "DT_FLOAT", "tensorShape": {}}}, "dtype": {"type": "DT_FLOAT"}}}, {"name": "FeatureExtractor/MobileDetCPU/IBN_13/Conv/swish6/add/y", "op": "Const", "attr": {"value": {"tensor": {"dtype": "DT_FLOAT", "tensorShape": {}}}, "dtype": {"type": "DT_FLOAT"}}}, {"name": "FeatureExtractor/MobileDetCPU/IBN_13/SeparableConv2d/swish6/add/y", "op": "Const", "attr": {"value": {"tensor": {"dtype": "DT_FLOAT", "tensorShape": {}}}, "dtype": {"type": "DT_FLOAT"}}}, {"name": "FeatureExtractor/MobileDetCPU/IBN_17/Conv/swish6/add/y", "op": "Const", "attr": {"value": {"tensor": {"dtype": "DT_FLOAT", "tensorShape": {}}}, "dtype": {"type": "DT_FLOAT"}}}, {"name": "FeatureExtractor/MobileDetCPU/IBN_17/SeparableConv2d/swish6/add/y", "op": "Const", "attr": {"value": {"tensor": {"dtype": "DT_FLOAT", "tensorShape": {}}}, "dtype": {"type": "DT_FLOAT"}}}, {"name": "BoxPredictor_5/ClassPredictor/weights", "op": "Const", "attr": {"value": {"tensor": {"dtype": "DT_FLOAT", "tensorShape": {"dim": [{"size": "1"}, {"size": "1"}, {"size": "128"}, {"size": "18"}]}}}, "dtype": {"type": "DT_FLOAT"}}}, {"name": "BoxPredictor_5/ClassPredictor/biases", "op": "Const", "attr": {"value": {"tensor": {"dtype": "DT_FLOAT", "tensorShape": {"dim": [{"size": "18"}]}}}, "dtype": {"type": "DT_FLOAT"}}}, {"name": "BoxPredictor_5/Reshape_1/shape", "op": "Const", "attr": {"value": {"tensor": {"dtype": "DT_INT32", "tensorShape": {"dim": [{"size": "3"}]}}}, "dtype": {"type": "DT_INT32"}}}, {"name": "concat_1/axis", "op": "Const", "attr": {"value": {"tensor": {"dtype": "DT_INT32", "tensorShape": {}}}, "dtype": {"type": "DT_INT32"}}}, {"name": "FeatureExtractor/MobileDetCPU/Conv/Conv2D_weights", "op": "Const", "attr": {"value": {"tensor": {"dtype": "DT_FLOAT", "tensorShape": {"dim": [{"size": "3"}, {"size": "3"}, {"size": "3"}, {"size": "16"}]}}}, "dtype": {"type": "DT_FLOAT"}}}, {"name": "FeatureExtractor/MobileDetCPU/Conv/Conv2D_bn_offset", "op": "Const", "attr": {"value": {"tensor": {"dtype": "DT_FLOAT", "tensorShape": {"dim": [{"size": "16"}]}}}, "dtype": {"type": "DT_FLOAT"}}}, {"name": "FeatureExtractor/MobileDetCPU/IBNNoExpansion/SeparableConv2d/depthwise_weights", "op": "Const", "attr": {"value": {"tensor": {"dtype": "DT_FLOAT", "tensorShape": {"dim": [{"size": "3"}, {"size": "3"}, {"size": "16"}, {"size": "1"}]}}}, "dtype": {"type": "DT_FLOAT"}}}, {"name": "FeatureExtractor/MobileDetCPU/IBNNoExpansion/SeparableConv2d/depthwise_bn_offset", "op": "Const", "attr": {"value": {"tensor": {"dtype": "DT_FLOAT", "tensorShape": {"dim": [{"size": "16"}]}}}, "dtype": {"type": "DT_FLOAT"}}}, {"name": "FeatureExtractor/MobileDetCPU/IBNNoExpansion/Conv/Conv2D_weights", "op": "Const", "attr": {"value": {"tensor": {"dtype": "DT_FLOAT", "tensorShape": {"dim": [{"size": "1"}, {"size": "1"}, {"size": "16"}, {"size": "8"}]}}}, "dtype": {"type": "DT_FLOAT"}}}, {"name": "FeatureExtractor/MobileDetCPU/IBNNoExpansion/Conv/Conv2D_bn_offset", "op": "Const", "attr": {"value": {"tensor": {"dtype": "DT_FLOAT", "tensorShape": {"dim": [{"size": "8"}]}}}, "dtype": {"type": "DT_FLOAT"}}}, {"name": "FeatureExtractor/MobileDetCPU/IBN/Conv/Conv2D_weights", "op": "Const", "attr": {"value": {"tensor": {"dtype": "DT_FLOAT", "tensorShape": {"dim": [{"size": "1"}, {"size": "1"}, {"size": "8"}, {"size": "32"}]}}}, "dtype": {"type": "DT_FLOAT"}}}, {"name": "FeatureExtractor/MobileDetCPU/IBN/Conv/Conv2D_bn_offset", "op": "Const", "attr": {"value": {"tensor": {"dtype": "DT_FLOAT", "tensorShape": {"dim": [{"size": "32"}]}}}, "dtype": {"type": "DT_FLOAT"}}}, {"name": "FeatureExtractor/MobileDetCPU/IBN/SeparableConv2d/depthwise_weights", "op": "Const", "attr": {"value": {"tensor": {"dtype": "DT_FLOAT", "tensorShape": {"dim": [{"size": "3"}, {"size": "3"}, {"size": "32"}, {"size": "1"}]}}}, "dtype": {"type": "DT_FLOAT"}}}, {"name": "FeatureExtractor/MobileDetCPU/IBN/SeparableConv2d/depthwise_bn_offset", "op": "Const", "attr": {"value": {"tensor": {"dtype": "DT_FLOAT", "tensorShape": {"dim": [{"size": "32"}]}}}, "dtype": {"type": "DT_FLOAT"}}}, {"name": "FeatureExtractor/MobileDetCPU/IBN/Conv_1/Conv2D_weights", "op": "Const", "attr": {"value": {"tensor": {"dtype": "DT_FLOAT", "tensorShape": {"dim": [{"size": "1"}, {"size": "1"}, {"size": "32"}, {"size": "16"}]}}}, "dtype": {"type": "DT_FLOAT"}}}, {"name": "FeatureExtractor/MobileDetCPU/IBN/Conv_1/Conv2D_bn_offset", "op": "Const", "attr": {"value": {"tensor": {"dtype": "DT_FLOAT", "tensorShape": {"dim": [{"size": "16"}]}}}, "dtype": {"type": "DT_FLOAT"}}}, {"name": "FeatureExtractor/MobileDetCPU/IBN_1/Conv/Conv2D_weights", "op": "Const", "attr": {"value": {"tensor": {"dtype": "DT_FLOAT", "tensorShape": {"dim": [{"size": "1"}, {"size": "1"}, {"size": "16"}, {"size": "128"}]}}}, "dtype": {"type": "DT_FLOAT"}}}, {"name": "FeatureExtractor/MobileDetCPU/IBN_1/Conv/Conv2D_bn_offset", "op": "Const", "attr": {"value": {"tensor": {"dtype": "DT_FLOAT", "tensorShape": {"dim": [{"size": "128"}]}}}, "dtype": {"type": "DT_FLOAT"}}}, {"name": "FeatureExtractor/MobileDetCPU/IBN_1/SeparableConv2d/depthwise_weights", "op": "Const", "attr": {"value": {"tensor": {"dtype": "DT_FLOAT", "tensorShape": {"dim": [{"size": "3"}, {"size": "3"}, {"size": "128"}, {"size": "1"}]}}}, "dtype": {"type": "DT_FLOAT"}}}, {"name": "FeatureExtractor/MobileDetCPU/IBN_1/SeparableConv2d/depthwise_bn_offset", "op": "Const", "attr": {"value": {"tensor": {"dtype": "DT_FLOAT", "tensorShape": {"dim": [{"size": "128"}]}}}, "dtype": {"type": "DT_FLOAT"}}}, {"name": "FeatureExtractor/MobileDetCPU/IBN_1/Conv_1/Conv2D_weights", "op": "Const", "attr": {"value": {"tensor": {"dtype": "DT_FLOAT", "tensorShape": {"dim": [{"size": "1"}, {"size": "1"}, {"size": "128"}, {"size": "32"}]}}}, "dtype": {"type": "DT_FLOAT"}}}, {"name": "FeatureExtractor/MobileDetCPU/IBN_1/Conv_1/Conv2D_bn_offset", "op": "Const", "attr": {"value": {"tensor": {"dtype": "DT_FLOAT", "tensorShape": {"dim": [{"size": "32"}]}}}, "dtype": {"type": "DT_FLOAT"}}}, {"name": "FeatureExtractor/MobileDetCPU/IBN_2/Conv/Conv2D_weights", "op": "Const", "attr": {"value": {"tensor": {"dtype": "DT_FLOAT", "tensorShape": {"dim": [{"size": "1"}, {"size": "1"}, {"size": "32"}, {"size": "128"}]}}}, "dtype": {"type": "DT_FLOAT"}}}, {"name": "FeatureExtractor/MobileDetCPU/IBN_2/Conv/Conv2D_bn_offset", "op": "Const", "attr": {"value": {"tensor": {"dtype": "DT_FLOAT", "tensorShape": {"dim": [{"size": "128"}]}}}, "dtype": {"type": "DT_FLOAT"}}}, {"name": "FeatureExtractor/MobileDetCPU/IBN_2/SeparableConv2d/depthwise_weights", "op": "Const", "attr": {"value": {"tensor": {"dtype": "DT_FLOAT", "tensorShape": {"dim": [{"size": "3"}, {"size": "3"}, {"size": "128"}, {"size": "1"}]}}}, "dtype": {"type": "DT_FLOAT"}}}, {"name": "FeatureExtractor/MobileDetCPU/IBN_2/SeparableConv2d/depthwise_bn_offset", "op": "Const", "attr": {"value": {"tensor": {"dtype": "DT_FLOAT", "tensorShape": {"dim": [{"size": "128"}]}}}, "dtype": {"type": "DT_FLOAT"}}}, {"name": "FeatureExtractor/MobileDetCPU/IBN_2/Conv_1/Conv2D_weights", "op": "Const", "attr": {"value": {"tensor": {"dtype": "DT_FLOAT", "tensorShape": {"dim": [{"size": "1"}, {"size": "1"}, {"size": "128"}, {"size": "32"}]}}}, "dtype": {"type": "DT_FLOAT"}}}, {"name": "BoxPredictor_5/ClassPredictor_depthwise/depthwise_weights", "op": "Const", "attr": {"value": {"tensor": {"dtype": "DT_FLOAT", "tensorShape": {"dim": [{"size": "3"}, {"size": "3"}, {"size": "128"}, {"size": "1"}]}}}, "dtype": {"type": "DT_FLOAT"}}}, {"name": "FeatureExtractor/MobileDetCPU/IBN_2/Conv_1/Conv2D_bn_offset", "op": "Const", "attr": {"value": {"tensor": {"dtype": "DT_FLOAT", "tensorShape": {"dim": [{"size": "32"}]}}}, "dtype": {"type": "DT_FLOAT"}}}, {"name": "FeatureExtractor/MobileDetCPU/IBN_3/Conv/Conv2D_weights", "op": "Const", "attr": {"value": {"tensor": {"dtype": "DT_FLOAT", "tensorShape": {"dim": [{"size": "1"}, {"size": "1"}, {"size": "32"}, {"size": "128"}]}}}, "dtype": {"type": "DT_FLOAT"}}}, {"name": "FeatureExtractor/MobileDetCPU/IBN_3/Conv/Conv2D_bn_offset", "op": "Const", "attr": {"value": {"tensor": {"dtype": "DT_FLOAT", "tensorShape": {"dim": [{"size": "128"}]}}}, "dtype": {"type": "DT_FLOAT"}}}, {"name": "FeatureExtractor/MobileDetCPU/IBN_3/SeparableConv2d/depthwise_weights", "op": "Const", "attr": {"value": {"tensor": {"dtype": "DT_FLOAT", "tensorShape": {"dim": [{"size": "3"}, {"size": "3"}, {"size": "128"}, {"size": "1"}]}}}, "dtype": {"type": "DT_FLOAT"}}}, {"name": "FeatureExtractor/MobileDetCPU/IBN_3/SeparableConv2d/depthwise_bn_offset", "op": "Const", "attr": {"value": {"tensor": {"dtype": "DT_FLOAT", "tensorShape": {"dim": [{"size": "128"}]}}}, "dtype": {"type": "DT_FLOAT"}}}, {"name": "BoxPredictor_5/ClassPredictor_depthwise/depthwise_bn_offset", "op": "Const", "attr": {"value": {"tensor": {"dtype": "DT_FLOAT", "tensorShape": {"dim": [{"size": "128"}]}}}, "dtype": {"type": "DT_FLOAT"}}}, {"name": "FeatureExtractor/MobileDetCPU/IBN_3/Conv_1/Conv2D_weights", "op": "Const", "attr": {"value": {"tensor": {"dtype": "DT_FLOAT", "tensorShape": {"dim": [{"size": "1"}, {"size": "1"}, {"size": "128"}, {"size": "32"}]}}}, "dtype": {"type": "DT_FLOAT"}}}, {"name": "FeatureExtractor/MobileDetCPU/IBN_3/Conv_1/Conv2D_bn_offset", "op": "Const", "attr": {"value": {"tensor": {"dtype": "DT_FLOAT", "tensorShape": {"dim": [{"size": "32"}]}}}, "dtype": {"type": "DT_FLOAT"}}}, {"name": "FeatureExtractor/MobileDetCPU/IBN_4/Conv/Conv2D_weights", "op": "Const", "attr": {"value": {"tensor": {"dtype": "DT_FLOAT", "tensorShape": {"dim": [{"size": "1"}, {"size": "1"}, {"size": "32"}, {"size": "128"}]}}}, "dtype": {"type": "DT_FLOAT"}}}, {"name": "FeatureExtractor/MobileDetCPU/IBN_4/Conv/Conv2D_bn_offset", "op": "Const", "attr": {"value": {"tensor": {"dtype": "DT_FLOAT", "tensorShape": {"dim": [{"size": "128"}]}}}, "dtype": {"type": "DT_FLOAT"}}}, {"name": "FeatureExtractor/MobileDetCPU/IBN_4/SeparableConv2d/depthwise_weights", "op": "Const", "attr": {"value": {"tensor": {"dtype": "DT_FLOAT", "tensorShape": {"dim": [{"size": "3"}, {"size": "3"}, {"size": "128"}, {"size": "1"}]}}}, "dtype": {"type": "DT_FLOAT"}}}, {"name": "FeatureExtractor/MobileDetCPU/IBN_4/SeparableConv2d/depthwise_bn_offset", "op": "Const", "attr": {"value": {"tensor": {"dtype": "DT_FLOAT", "tensorShape": {"dim": [{"size": "128"}]}}}, "dtype": {"type": "DT_FLOAT"}}}, {"name": "FeatureExtractor/MobileDetCPU/IBN_4/Conv_1/Conv2D_weights", "op": "Const", "attr": {"value": {"tensor": {"dtype": "DT_FLOAT", "tensorShape": {"dim": [{"size": "1"}, {"size": "1"}, {"size": "128"}, {"size": "32"}]}}}, "dtype": {"type": "DT_FLOAT"}}}, {"name": "FeatureExtractor/MobileDetCPU/IBN_4/Conv_1/Conv2D_bn_offset", "op": "Const", "attr": {"value": {"tensor": {"dtype": "DT_FLOAT", "tensorShape": {"dim": [{"size": "32"}]}}}, "dtype": {"type": "DT_FLOAT"}}}, {"name": "FeatureExtractor/MobileDetCPU/IBN_5/Conv/Conv2D_weights", "op": "Const", "attr": {"value": {"tensor": {"dtype": "DT_FLOAT", "tensorShape": {"dim": [{"size": "1"}, {"size": "1"}, {"size": "32"}, {"size": "256"}]}}}, "dtype": {"type": "DT_FLOAT"}}}, {"name": "FeatureExtractor/MobileDetCPU/IBN_5/Conv/Conv2D_bn_offset", "op": "Const", "attr": {"value": {"tensor": {"dtype": "DT_FLOAT", "tensorShape": {"dim": [{"size": "256"}]}}}, "dtype": {"type": "DT_FLOAT"}}}, {"name": "FeatureExtractor/MobileDetCPU/IBN_5/SeparableConv2d/depthwise_weights", "op": "Const", "attr": {"value": {"tensor": {"dtype": "DT_FLOAT", "tensorShape": {"dim": [{"size": "5"}, {"size": "5"}, {"size": "256"}, {"size": "1"}]}}}, "dtype": {"type": "DT_FLOAT"}}}, {"name": "FeatureExtractor/MobileDetCPU/IBN_5/SeparableConv2d/depthwise_bn_offset", "op": "Const", "attr": {"value": {"tensor": {"dtype": "DT_FLOAT", "tensorShape": {"dim": [{"size": "256"}]}}}, "dtype": {"type": "DT_FLOAT"}}}, {"name": "FeatureExtractor/MobileDetCPU/IBN_5/Conv_1/Conv2D_weights", "op": "Const", "attr": {"value": {"tensor": {"dtype": "DT_FLOAT", "tensorShape": {"dim": [{"size": "1"}, {"size": "1"}, {"size": "256"}, {"size": "72"}]}}}, "dtype": {"type": "DT_FLOAT"}}}, {"name": "FeatureExtractor/MobileDetCPU/IBN_5/Conv_1/Conv2D_bn_offset", "op": "Const", "attr": {"value": {"tensor": {"dtype": "DT_FLOAT", "tensorShape": {"dim": [{"size": "72"}]}}}, "dtype": {"type": "DT_FLOAT"}}}, {"name": "FeatureExtractor/MobileDetCPU/IBN_6/Conv/Conv2D_weights", "op": "Const", "attr": {"value": {"tensor": {"dtype": "DT_FLOAT", "tensorShape": {"dim": [{"size": "1"}, {"size": "1"}, {"size": "72"}, {"size": "576"}]}}}, "dtype": {"type": "DT_FLOAT"}}}, {"name": "FeatureExtractor/MobileDetCPU/IBN_6/Conv/Conv2D_bn_offset", "op": "Const", "attr": {"value": {"tensor": {"dtype": "DT_FLOAT", "tensorShape": {"dim": [{"size": "576"}]}}}, "dtype": {"type": "DT_FLOAT"}}}, {"name": "FeatureExtractor/MobileDetCPU/IBN_6/SeparableConv2d/depthwise_weights", "op": "Const", "attr": {"value": {"tensor": {"dtype": "DT_FLOAT", "tensorShape": {"dim": [{"size": "3"}, {"size": "3"}, {"size": "576"}, {"size": "1"}]}}}, "dtype": {"type": "DT_FLOAT"}}}, {"name": "FeatureExtractor/MobileDetCPU/IBN_6/SeparableConv2d/depthwise_bn_offset", "op": "Const", "attr": {"value": {"tensor": {"dtype": "DT_FLOAT", "tensorShape": {"dim": [{"size": "576"}]}}}, "dtype": {"type": "DT_FLOAT"}}}, {"name": "FeatureExtractor/MobileDetCPU/IBN_6/Conv_1/Conv2D_weights", "op": "Const", "attr": {"value": {"tensor": {"dtype": "DT_FLOAT", "tensorShape": {"dim": [{"size": "1"}, {"size": "1"}, {"size": "576"}, {"size": "72"}]}}}, "dtype": {"type": "DT_FLOAT"}}}, {"name": "FeatureExtractor/MobileDetCPU/IBN_6/Conv_1/Conv2D_bn_offset", "op": "Const", "attr": {"value": {"tensor": {"dtype": "DT_FLOAT", "tensorShape": {"dim": [{"size": "72"}]}}}, "dtype": {"type": "DT_FLOAT"}}}, {"name": "FeatureExtractor/MobileDetCPU/IBN_7/Conv/Conv2D_weights", "op": "Const", "attr": {"value": {"tensor": {"dtype": "DT_FLOAT", "tensorShape": {"dim": [{"size": "1"}, {"size": "1"}, {"size": "72"}, {"size": "288"}]}}}, "dtype": {"type": "DT_FLOAT"}}}, {"name": "FeatureExtractor/MobileDetCPU/IBN_7/Conv/Conv2D_bn_offset", "op": "Const", "attr": {"value": {"tensor": {"dtype": "DT_FLOAT", "tensorShape": {"dim": [{"size": "288"}]}}}, "dtype": {"type": "DT_FLOAT"}}}, {"name": "FeatureExtractor/MobileDetCPU/IBN_7/SeparableConv2d/depthwise_weights", "op": "Const", "attr": {"value": {"tensor": {"dtype": "DT_FLOAT", "tensorShape": {"dim": [{"size": "5"}, {"size": "5"}, {"size": "288"}, {"size": "1"}]}}}, "dtype": {"type": "DT_FLOAT"}}}, {"name": "FeatureExtractor/MobileDetCPU/IBN_7/SeparableConv2d/depthwise_bn_offset", "op": "Const", "attr": {"value": {"tensor": {"dtype": "DT_FLOAT", "tensorShape": {"dim": [{"size": "288"}]}}}, "dtype": {"type": "DT_FLOAT"}}}, {"name": "FeatureExtractor/MobileDetCPU/IBN_7/Conv_1/Conv2D_weights", "op": "Const", "attr": {"value": {"tensor": {"dtype": "DT_FLOAT", "tensorShape": {"dim": [{"size": "1"}, {"size": "1"}, {"size": "288"}, {"size": "72"}]}}}, "dtype": {"type": "DT_FLOAT"}}}, {"name": "FeatureExtractor/MobileDetCPU/IBN_7/Conv_1/Conv2D_bn_offset", "op": "Const", "attr": {"value": {"tensor": {"dtype": "DT_FLOAT", "tensorShape": {"dim": [{"size": "72"}]}}}, "dtype": {"type": "DT_FLOAT"}}}, {"name": "FeatureExtractor/MobileDetCPU/IBN_8/Conv/Conv2D_weights", "op": "Const", "attr": {"value": {"tensor": {"dtype": "DT_FLOAT", "tensorShape": {"dim": [{"size": "1"}, {"size": "1"}, {"size": "72"}, {"size": "288"}]}}}, "dtype": {"type": "DT_FLOAT"}}}, {"name": "FeatureExtractor/MobileDetCPU/IBN_8/Conv/Conv2D_bn_offset", "op": "Const", "attr": {"value": {"tensor": {"dtype": "DT_FLOAT", "tensorShape": {"dim": [{"size": "288"}]}}}, "dtype": {"type": "DT_FLOAT"}}}, {"name": "FeatureExtractor/MobileDetCPU/IBN_8/SeparableConv2d/depthwise_weights", "op": "Const", "attr": {"value": {"tensor": {"dtype": "DT_FLOAT", "tensorShape": {"dim": [{"size": "3"}, {"size": "3"}, {"size": "288"}, {"size": "1"}]}}}, "dtype": {"type": "DT_FLOAT"}}}, {"name": "FeatureExtractor/MobileDetCPU/IBN_8/SeparableConv2d/depthwise_bn_offset", "op": "Const", "attr": {"value": {"tensor": {"dtype": "DT_FLOAT", "tensorShape": {"dim": [{"size": "288"}]}}}, "dtype": {"type": "DT_FLOAT"}}}, {"name": "FeatureExtractor/MobileDetCPU/IBN_8/Conv_1/Conv2D_weights", "op": "Const", "attr": {"value": {"tensor": {"dtype": "DT_FLOAT", "tensorShape": {"dim": [{"size": "1"}, {"size": "1"}, {"size": "288"}, {"size": "72"}]}}}, "dtype": {"type": "DT_FLOAT"}}}, {"name": "FeatureExtractor/MobileDetCPU/IBN_8/Conv_1/Conv2D_bn_offset", "op": "Const", "attr": {"value": {"tensor": {"dtype": "DT_FLOAT", "tensorShape": {"dim": [{"size": "72"}]}}}, "dtype": {"type": "DT_FLOAT"}}}, {"name": "FeatureExtractor/MobileDetCPU/IBN_9/Conv/Conv2D_weights", "op": "Const", "attr": {"value": {"tensor": {"dtype": "DT_FLOAT", "tensorShape": {"dim": [{"size": "1"}, {"size": "1"}, {"size": "72"}, {"size": "576"}]}}}, "dtype": {"type": "DT_FLOAT"}}}, {"name": "FeatureExtractor/MobileDetCPU/IBN_9/Conv/Conv2D_bn_offset", "op": "Const", "attr": {"value": {"tensor": {"dtype": "DT_FLOAT", "tensorShape": {"dim": [{"size": "576"}]}}}, "dtype": {"type": "DT_FLOAT"}}}, {"name": "FeatureExtractor/MobileDetCPU/IBN_9/SeparableConv2d/depthwise_weights", "op": "Const", "attr": {"value": {"tensor": {"dtype": "DT_FLOAT", "tensorShape": {"dim": [{"size": "3"}, {"size": "3"}, {"size": "576"}, {"size": "1"}]}}}, "dtype": {"type": "DT_FLOAT"}}}, {"name": "FeatureExtractor/MobileDetCPU/IBN_9/SeparableConv2d/depthwise_bn_offset", "op": "Const", "attr": {"value": {"tensor": {"dtype": "DT_FLOAT", "tensorShape": {"dim": [{"size": "576"}]}}}, "dtype": {"type": "DT_FLOAT"}}}, {"name": "FeatureExtractor/MobileDetCPU/IBN_9/Conv_1/Conv2D_weights", "op": "Const", "attr": {"value": {"tensor": {"dtype": "DT_FLOAT", "tensorShape": {"dim": [{"size": "1"}, {"size": "1"}, {"size": "576"}, {"size": "72"}]}}}, "dtype": {"type": "DT_FLOAT"}}}, {"name": "FeatureExtractor/MobileDetCPU/IBN_9/Conv_1/Conv2D_bn_offset", "op": "Const", "attr": {"value": {"tensor": {"dtype": "DT_FLOAT", "tensorShape": {"dim": [{"size": "72"}]}}}, "dtype": {"type": "DT_FLOAT"}}}, {"name": "FeatureExtractor/MobileDetCPU/IBN_10/Conv/Conv2D_weights", "op": "Const", "attr": {"value": {"tensor": {"dtype": "DT_FLOAT", "tensorShape": {"dim": [{"size": "1"}, {"size": "1"}, {"size": "72"}, {"size": "576"}]}}}, "dtype": {"type": "DT_FLOAT"}}}, {"name": "FeatureExtractor/MobileDetCPU/IBN_10/Conv/Conv2D_bn_offset", "op": "Const", "attr": {"value": {"tensor": {"dtype": "DT_FLOAT", "tensorShape": {"dim": [{"size": "576"}]}}}, "dtype": {"type": "DT_FLOAT"}}}, {"name": "FeatureExtractor/MobileDetCPU/IBN_10/SeparableConv2d/depthwise_weights", "op": "Const", "attr": {"value": {"tensor": {"dtype": "DT_FLOAT", "tensorShape": {"dim": [{"size": "3"}, {"size": "3"}, {"size": "576"}, {"size": "1"}]}}}, "dtype": {"type": "DT_FLOAT"}}}, {"name": "FeatureExtractor/MobileDetCPU/IBN_10/SeparableConv2d/depthwise_bn_offset", "op": "Const", "attr": {"value": {"tensor": {"dtype": "DT_FLOAT", "tensorShape": {"dim": [{"size": "576"}]}}}, "dtype": {"type": "DT_FLOAT"}}}, {"name": "FeatureExtractor/MobileDetCPU/IBN_10/Conv_1/Conv2D_weights", "op": "Const", "attr": {"value": {"tensor": {"dtype": "DT_FLOAT", "tensorShape": {"dim": [{"size": "1"}, {"size": "1"}, {"size": "576"}, {"size": "72"}]}}}, "dtype": {"type": "DT_FLOAT"}}}, {"name": "FeatureExtractor/MobileDetCPU/IBN_10/Conv_1/Conv2D_bn_offset", "op": "Const", "attr": {"value": {"tensor": {"dtype": "DT_FLOAT", "tensorShape": {"dim": [{"size": "72"}]}}}, "dtype": {"type": "DT_FLOAT"}}}, {"name": "FeatureExtractor/MobileDetCPU/IBN_11/Conv/Conv2D_weights", "op": "Const", "attr": {"value": {"tensor": {"dtype": "DT_FLOAT", "tensorShape": {"dim": [{"size": "1"}, {"size": "1"}, {"size": "72"}, {"size": "576"}]}}}, "dtype": {"type": "DT_FLOAT"}}}, {"name": "FeatureExtractor/MobileDetCPU/IBN_11/Conv/Conv2D_bn_offset", "op": "Const", "attr": {"value": {"tensor": {"dtype": "DT_FLOAT", "tensorShape": {"dim": [{"size": "576"}]}}}, "dtype": {"type": "DT_FLOAT"}}}, {"name": "FeatureExtractor/MobileDetCPU/IBN_11/SeparableConv2d/depthwise_weights", "op": "Const", "attr": {"value": {"tensor": {"dtype": "DT_FLOAT", "tensorShape": {"dim": [{"size": "3"}, {"size": "3"}, {"size": "576"}, {"size": "1"}]}}}, "dtype": {"type": "DT_FLOAT"}}}, {"name": "FeatureExtractor/MobileDetCPU/IBN_11/SeparableConv2d/depthwise_bn_offset", "op": "Const", "attr": {"value": {"tensor": {"dtype": "DT_FLOAT", "tensorShape": {"dim": [{"size": "576"}]}}}, "dtype": {"type": "DT_FLOAT"}}}, {"name": "FeatureExtractor/MobileDetCPU/IBN_11/Conv_1/Conv2D_weights", "op": "Const", "attr": {"value": {"tensor": {"dtype": "DT_FLOAT", "tensorShape": {"dim": [{"size": "1"}, {"size": "1"}, {"size": "576"}, {"size": "72"}]}}}, "dtype": {"type": "DT_FLOAT"}}}, {"name": "FeatureExtractor/MobileDetCPU/IBN_11/Conv_1/Conv2D_bn_offset", "op": "Const", "attr": {"value": {"tensor": {"dtype": "DT_FLOAT", "tensorShape": {"dim": [{"size": "72"}]}}}, "dtype": {"type": "DT_FLOAT"}}}, {"name": "FeatureExtractor/MobileDetCPU/IBN_12/Conv/Conv2D_weights", "op": "Const", "attr": {"value": {"tensor": {"dtype": "DT_FLOAT", "tensorShape": {"dim": [{"size": "1"}, {"size": "1"}, {"size": "72"}, {"size": "576"}]}}}, "dtype": {"type": "DT_FLOAT"}}}, {"name": "FeatureExtractor/MobileDetCPU/IBN_12/Conv/Conv2D_bn_offset", "op": "Const", "attr": {"value": {"tensor": {"dtype": "DT_FLOAT", "tensorShape": {"dim": [{"size": "576"}]}}}, "dtype": {"type": "DT_FLOAT"}}}, {"name": "FeatureExtractor/MobileDetCPU/IBN_12/SeparableConv2d/depthwise_weights", "op": "Const", "attr": {"value": {"tensor": {"dtype": "DT_FLOAT", "tensorShape": {"dim": [{"size": "3"}, {"size": "3"}, {"size": "576"}, {"size": "1"}]}}}, "dtype": {"type": "DT_FLOAT"}}}, {"name": "FeatureExtractor/MobileDetCPU/IBN_12/SeparableConv2d/depthwise_bn_offset", "op": "Const", "attr": {"value": {"tensor": {"dtype": "DT_FLOAT", "tensorShape": {"dim": [{"size": "576"}]}}}, "dtype": {"type": "DT_FLOAT"}}}, {"name": "FeatureExtractor/MobileDetCPU/IBN_12/Conv_1/Conv2D_weights", "op": "Const", "attr": {"value": {"tensor": {"dtype": "DT_FLOAT", "tensorShape": {"dim": [{"size": "1"}, {"size": "1"}, {"size": "576"}, {"size": "72"}]}}}, "dtype": {"type": "DT_FLOAT"}}}, {"name": "FeatureExtractor/MobileDetCPU/IBN_12/Conv_1/Conv2D_bn_offset", "op": "Const", "attr": {"value": {"tensor": {"dtype": "DT_FLOAT", "tensorShape": {"dim": [{"size": "72"}]}}}, "dtype": {"type": "DT_FLOAT"}}}, {"name": "BoxPredictor_0/BoxEncodingPredictor_depthwise/depthwise_weights", "op": "Const", "attr": {"value": {"tensor": {"dtype": "DT_FLOAT", "tensorShape": {"dim": [{"size": "3"}, {"size": "3"}, {"size": "72"}, {"size": "1"}]}}}, "dtype": {"type": "DT_FLOAT"}}}, {"name": "BoxPredictor_0/BoxEncodingPredictor_depthwise/depthwise_bn_offset", "op": "Const", "attr": {"value": {"tensor": {"dtype": "DT_FLOAT", "tensorShape": {"dim": [{"size": "72"}]}}}, "dtype": {"type": "DT_FLOAT"}}}, {"name": "BoxPredictor_0/ClassPredictor_depthwise/depthwise_weights", "op": "Const", "attr": {"value": {"tensor": {"dtype": "DT_FLOAT", "tensorShape": {"dim": [{"size": "3"}, {"size": "3"}, {"size": "72"}, {"size": "1"}]}}}, "dtype": {"type": "DT_FLOAT"}}}, {"name": "BoxPredictor_0/ClassPredictor_depthwise/depthwise_bn_offset", "op": "Const", "attr": {"value": {"tensor": {"dtype": "DT_FLOAT", "tensorShape": {"dim": [{"size": "72"}]}}}, "dtype": {"type": "DT_FLOAT"}}}, {"name": "FeatureExtractor/MobileDetCPU/IBN_13/Conv/Conv2D_weights", "op": "Const", "attr": {"value": {"tensor": {"dtype": "DT_FLOAT", "tensorShape": {"dim": [{"size": "1"}, {"size": "1"}, {"size": "72"}, {"size": "576"}]}}}, "dtype": {"type": "DT_FLOAT"}}}, {"name": "FeatureExtractor/MobileDetCPU/IBN_13/Conv/Conv2D_bn_offset", "op": "Const", "attr": {"value": {"tensor": {"dtype": "DT_FLOAT", "tensorShape": {"dim": [{"size": "576"}]}}}, "dtype": {"type": "DT_FLOAT"}}}, {"name": "FeatureExtractor/MobileDetCPU/IBN_13/SeparableConv2d/depthwise_weights", "op": "Const", "attr": {"value": {"tensor": {"dtype": "DT_FLOAT", "tensorShape": {"dim": [{"size": "5"}, {"size": "5"}, {"size": "576"}, {"size": "1"}]}}}, "dtype": {"type": "DT_FLOAT"}}}, {"name": "FeatureExtractor/MobileDetCPU/IBN_13/SeparableConv2d/depthwise_bn_offset", "op": "Const", "attr": {"value": {"tensor": {"dtype": "DT_FLOAT", "tensorShape": {"dim": [{"size": "576"}]}}}, "dtype": {"type": "DT_FLOAT"}}}, {"name": "FeatureExtractor/MobileDetCPU/IBN_13/Conv_1/Conv2D_weights", "op": "Const", "attr": {"value": {"tensor": {"dtype": "DT_FLOAT", "tensorShape": {"dim": [{"size": "1"}, {"size": "1"}, {"size": "576"}, {"size": "104"}]}}}, "dtype": {"type": "DT_FLOAT"}}}, {"name": "FeatureExtractor/MobileDetCPU/IBN_13/Conv_1/Conv2D_bn_offset", "op": "Const", "attr": {"value": {"tensor": {"dtype": "DT_FLOAT", "tensorShape": {"dim": [{"size": "104"}]}}}, "dtype": {"type": "DT_FLOAT"}}}, {"name": "FeatureExtractor/MobileDetCPU/IBN_14/Conv/Conv2D_weights", "op": "Const", "attr": {"value": {"tensor": {"dtype": "DT_FLOAT", "tensorShape": {"dim": [{"size": "1"}, {"size": "1"}, {"size": "104"}, {"size": "416"}]}}}, "dtype": {"type": "DT_FLOAT"}}}, {"name": "FeatureExtractor/MobileDetCPU/IBN_14/Conv/Conv2D_bn_offset", "op": "Const", "attr": {"value": {"tensor": {"dtype": "DT_FLOAT", "tensorShape": {"dim": [{"size": "416"}]}}}, "dtype": {"type": "DT_FLOAT"}}}, {"name": "FeatureExtractor/MobileDetCPU/IBN_14/SeparableConv2d/depthwise_weights", "op": "Const", "attr": {"value": {"tensor": {"dtype": "DT_FLOAT", "tensorShape": {"dim": [{"size": "5"}, {"size": "5"}, {"size": "416"}, {"size": "1"}]}}}, "dtype": {"type": "DT_FLOAT"}}}, {"name": "FeatureExtractor/MobileDetCPU/IBN_14/SeparableConv2d/depthwise_bn_offset", "op": "Const", "attr": {"value": {"tensor": {"dtype": "DT_FLOAT", "tensorShape": {"dim": [{"size": "416"}]}}}, "dtype": {"type": "DT_FLOAT"}}}, {"name": "FeatureExtractor/MobileDetCPU/IBN_14/Conv_1/Conv2D_weights", "op": "Const", "attr": {"value": {"tensor": {"dtype": "DT_FLOAT", "tensorShape": {"dim": [{"size": "1"}, {"size": "1"}, {"size": "416"}, {"size": "104"}]}}}, "dtype": {"type": "DT_FLOAT"}}}, {"name": "FeatureExtractor/MobileDetCPU/IBN_14/Conv_1/Conv2D_bn_offset", "op": "Const", "attr": {"value": {"tensor": {"dtype": "DT_FLOAT", "tensorShape": {"dim": [{"size": "104"}]}}}, "dtype": {"type": "DT_FLOAT"}}}, {"name": "FeatureExtractor/MobileDetCPU/IBN_15/Conv/Conv2D_weights", "op": "Const", "attr": {"value": {"tensor": {"dtype": "DT_FLOAT", "tensorShape": {"dim": [{"size": "1"}, {"size": "1"}, {"size": "104"}, {"size": "416"}]}}}, "dtype": {"type": "DT_FLOAT"}}}, {"name": "FeatureExtractor/MobileDetCPU/IBN_15/Conv/Conv2D_bn_offset", "op": "Const", "attr": {"value": {"tensor": {"dtype": "DT_FLOAT", "tensorShape": {"dim": [{"size": "416"}]}}}, "dtype": {"type": "DT_FLOAT"}}}, {"name": "FeatureExtractor/MobileDetCPU/IBN_15/SeparableConv2d/depthwise_weights", "op": "Const", "attr": {"value": {"tensor": {"dtype": "DT_FLOAT", "tensorShape": {"dim": [{"size": "5"}, {"size": "5"}, {"size": "416"}, {"size": "1"}]}}}, "dtype": {"type": "DT_FLOAT"}}}, {"name": "FeatureExtractor/MobileDetCPU/IBN_15/SeparableConv2d/depthwise_bn_offset", "op": "Const", "attr": {"value": {"tensor": {"dtype": "DT_FLOAT", "tensorShape": {"dim": [{"size": "416"}]}}}, "dtype": {"type": "DT_FLOAT"}}}, {"name": "FeatureExtractor/MobileDetCPU/IBN_15/Conv_1/Conv2D_weights", "op": "Const", "attr": {"value": {"tensor": {"dtype": "DT_FLOAT", "tensorShape": {"dim": [{"size": "1"}, {"size": "1"}, {"size": "416"}, {"size": "104"}]}}}, "dtype": {"type": "DT_FLOAT"}}}, {"name": "FeatureExtractor/MobileDetCPU/IBN_15/Conv_1/Conv2D_bn_offset", "op": "Const", "attr": {"value": {"tensor": {"dtype": "DT_FLOAT", "tensorShape": {"dim": [{"size": "104"}]}}}, "dtype": {"type": "DT_FLOAT"}}}, {"name": "FeatureExtractor/MobileDetCPU/IBN_16/Conv/Conv2D_weights", "op": "Const", "attr": {"value": {"tensor": {"dtype": "DT_FLOAT", "tensorShape": {"dim": [{"size": "1"}, {"size": "1"}, {"size": "104"}, {"size": "416"}]}}}, "dtype": {"type": "DT_FLOAT"}}}, {"name": "FeatureExtractor/MobileDetCPU/IBN_16/Conv/Conv2D_bn_offset", "op": "Const", "attr": {"value": {"tensor": {"dtype": "DT_FLOAT", "tensorShape": {"dim": [{"size": "416"}]}}}, "dtype": {"type": "DT_FLOAT"}}}, {"name": "FeatureExtractor/MobileDetCPU/IBN_16/SeparableConv2d/depthwise_weights", "op": "Const", "attr": {"value": {"tensor": {"dtype": "DT_FLOAT", "tensorShape": {"dim": [{"size": "3"}, {"size": "3"}, {"size": "416"}, {"size": "1"}]}}}, "dtype": {"type": "DT_FLOAT"}}}, {"name": "FeatureExtractor/MobileDetCPU/IBN_16/SeparableConv2d/depthwise_bn_offset", "op": "Const", "attr": {"value": {"tensor": {"dtype": "DT_FLOAT", "tensorShape": {"dim": [{"size": "416"}]}}}, "dtype": {"type": "DT_FLOAT"}}}, {"name": "FeatureExtractor/MobileDetCPU/IBN_16/Conv_1/Conv2D_weights", "op": "Const", "attr": {"value": {"tensor": {"dtype": "DT_FLOAT", "tensorShape": {"dim": [{"size": "1"}, {"size": "1"}, {"size": "416"}, {"size": "104"}]}}}, "dtype": {"type": "DT_FLOAT"}}}, {"name": "FeatureExtractor/MobileDetCPU/IBN_16/Conv_1/Conv2D_bn_offset", "op": "Const", "attr": {"value": {"tensor": {"dtype": "DT_FLOAT", "tensorShape": {"dim": [{"size": "104"}]}}}, "dtype": {"type": "DT_FLOAT"}}}, {"name": "FeatureExtractor/MobileDetCPU/IBN_17/Conv/Conv2D_weights", "op": "Const", "attr": {"value": {"tensor": {"dtype": "DT_FLOAT", "tensorShape": {"dim": [{"size": "1"}, {"size": "1"}, {"size": "104"}, {"size": "832"}]}}}, "dtype": {"type": "DT_FLOAT"}}}, {"name": "FeatureExtractor/MobileDetCPU/IBN_17/Conv/Conv2D_bn_offset", "op": "Const", "attr": {"value": {"tensor": {"dtype": "DT_FLOAT", "tensorShape": {"dim": [{"size": "832"}]}}}, "dtype": {"type": "DT_FLOAT"}}}, {"name": "FeatureExtractor/MobileDetCPU/IBN_17/SeparableConv2d/depthwise_weights", "op": "Const", "attr": {"value": {"tensor": {"dtype": "DT_FLOAT", "tensorShape": {"dim": [{"size": "3"}, {"size": "3"}, {"size": "832"}, {"size": "1"}]}}}, "dtype": {"type": "DT_FLOAT"}}}, {"name": "FeatureExtractor/MobileDetCPU/IBN_17/SeparableConv2d/depthwise_bn_offset", "op": "Const", "attr": {"value": {"tensor": {"dtype": "DT_FLOAT", "tensorShape": {"dim": [{"size": "832"}]}}}, "dtype": {"type": "DT_FLOAT"}}}, {"name": "FeatureExtractor/MobileDetCPU/IBN_17/Conv_1/Conv2D_weights", "op": "Const", "attr": {"value": {"tensor": {"dtype": "DT_FLOAT", "tensorShape": {"dim": [{"size": "1"}, {"size": "1"}, {"size": "832"}, {"size": "144"}]}}}, "dtype": {"type": "DT_FLOAT"}}}, {"name": "FeatureExtractor/MobileDetCPU/IBN_17/Conv_1/Conv2D_bn_offset", "op": "Const", "attr": {"value": {"tensor": {"dtype": "DT_FLOAT", "tensorShape": {"dim": [{"size": "144"}]}}}, "dtype": {"type": "DT_FLOAT"}}}, {"name": "BoxPredictor_1/BoxEncodingPredictor_depthwise/depthwise_weights", "op": "Const", "attr": {"value": {"tensor": {"dtype": "DT_FLOAT", "tensorShape": {"dim": [{"size": "3"}, {"size": "3"}, {"size": "144"}, {"size": "1"}]}}}, "dtype": {"type": "DT_FLOAT"}}}, {"name": "BoxPredictor_1/BoxEncodingPredictor_depthwise/depthwise_bn_offset", "op": "Const", "attr": {"value": {"tensor": {"dtype": "DT_FLOAT", "tensorShape": {"dim": [{"size": "144"}]}}}, "dtype": {"type": "DT_FLOAT"}}}, {"name": "BoxPredictor_1/ClassPredictor_depthwise/depthwise_weights", "op": "Const", "attr": {"value": {"tensor": {"dtype": "DT_FLOAT", "tensorShape": {"dim": [{"size": "3"}, {"size": "3"}, {"size": "144"}, {"size": "1"}]}}}, "dtype": {"type": "DT_FLOAT"}}}, {"name": "BoxPredictor_1/ClassPredictor_depthwise/depthwise_bn_offset", "op": "Const", "attr": {"value": {"tensor": {"dtype": "DT_FLOAT", "tensorShape": {"dim": [{"size": "144"}]}}}, "dtype": {"type": "DT_FLOAT"}}}, {"name": "FeatureExtractor/MobileDetCPU/C5_1_Conv2d_2_1x1_256/Conv2D_weights", "op": "Const", "attr": {"value": {"tensor": {"dtype": "DT_FLOAT", "tensorShape": {"dim": [{"size": "1"}, {"size": "1"}, {"size": "144"}, {"size": "256"}]}}}, "dtype": {"type": "DT_FLOAT"}}}, {"name": "FeatureExtractor/MobileDetCPU/C5_1_Conv2d_2_1x1_256/Conv2D_bn_offset", "op": "Const", "attr": {"value": {"tensor": {"dtype": "DT_FLOAT", "tensorShape": {"dim": [{"size": "256"}]}}}, "dtype": {"type": "DT_FLOAT"}}}, {"name": "FeatureExtractor/MobileDetCPU/C5_2_Conv2d_2_3x3_s2_512_depthwise/depthwise_weights", "op": "Const", "attr": {"value": {"tensor": {"dtype": "DT_FLOAT", "tensorShape": {"dim": [{"size": "3"}, {"size": "3"}, {"size": "256"}, {"size": "1"}]}}}, "dtype": {"type": "DT_FLOAT"}}}, {"name": "FeatureExtractor/MobileDetCPU/C5_2_Conv2d_2_3x3_s2_512_depthwise/depthwise_bn_offset", "op": "Const", "attr": {"value": {"tensor": {"dtype": "DT_FLOAT", "tensorShape": {"dim": [{"size": "256"}]}}}, "dtype": {"type": "DT_FLOAT"}}}, {"name": "FeatureExtractor/MobileDetCPU/C5_2_Conv2d_2_3x3_s2_512/Conv2D_weights", "op": "Const", "attr": {"value": {"tensor": {"dtype": "DT_FLOAT", "tensorShape": {"dim": [{"size": "1"}, {"size": "1"}, {"size": "256"}, {"size": "512"}]}}}, "dtype": {"type": "DT_FLOAT"}}}, {"name": "FeatureExtractor/MobileDetCPU/C5_2_Conv2d_2_3x3_s2_512/Conv2D_bn_offset", "op": "Const", "attr": {"value": {"tensor": {"dtype": "DT_FLOAT", "tensorShape": {"dim": [{"size": "512"}]}}}, "dtype": {"type": "DT_FLOAT"}}}, {"name": "BoxPredictor_2/BoxEncodingPredictor_depthwise/depthwise_weights", "op": "Const", "attr": {"value": {"tensor": {"dtype": "DT_FLOAT", "tensorShape": {"dim": [{"size": "3"}, {"size": "3"}, {"size": "512"}, {"size": "1"}]}}}, "dtype": {"type": "DT_FLOAT"}}}, {"name": "BoxPredictor_2/BoxEncodingPredictor_depthwise/depthwise_bn_offset", "op": "Const", "attr": {"value": {"tensor": {"dtype": "DT_FLOAT", "tensorShape": {"dim": [{"size": "512"}]}}}, "dtype": {"type": "DT_FLOAT"}}}, {"name": "BoxPredictor_2/ClassPredictor_depthwise/depthwise_weights", "op": "Const", "attr": {"value": {"tensor": {"dtype": "DT_FLOAT", "tensorShape": {"dim": [{"size": "3"}, {"size": "3"}, {"size": "512"}, {"size": "1"}]}}}, "dtype": {"type": "DT_FLOAT"}}}, {"name": "BoxPredictor_2/ClassPredictor_depthwise/depthwise_bn_offset", "op": "Const", "attr": {"value": {"tensor": {"dtype": "DT_FLOAT", "tensorShape": {"dim": [{"size": "512"}]}}}, "dtype": {"type": "DT_FLOAT"}}}, {"name": "FeatureExtractor/MobileDetCPU/C5_1_Conv2d_3_1x1_128/Conv2D_weights", "op": "Const", "attr": {"value": {"tensor": {"dtype": "DT_FLOAT", "tensorShape": {"dim": [{"size": "1"}, {"size": "1"}, {"size": "512"}, {"size": "128"}]}}}, "dtype": {"type": "DT_FLOAT"}}}, {"name": "FeatureExtractor/MobileDetCPU/C5_1_Conv2d_3_1x1_128/Conv2D_bn_offset", "op": "Const", "attr": {"value": {"tensor": {"dtype": "DT_FLOAT", "tensorShape": {"dim": [{"size": "128"}]}}}, "dtype": {"type": "DT_FLOAT"}}}, {"name": "FeatureExtractor/MobileDetCPU/C5_2_Conv2d_3_3x3_s2_256_depthwise/depthwise_weights", "op": "Const", "attr": {"value": {"tensor": {"dtype": "DT_FLOAT", "tensorShape": {"dim": [{"size": "3"}, {"size": "3"}, {"size": "128"}, {"size": "1"}]}}}, "dtype": {"type": "DT_FLOAT"}}}, {"name": "FeatureExtractor/MobileDetCPU/C5_2_Conv2d_3_3x3_s2_256_depthwise/depthwise_bn_offset", "op": "Const", "attr": {"value": {"tensor": {"dtype": "DT_FLOAT", "tensorShape": {"dim": [{"size": "128"}]}}}, "dtype": {"type": "DT_FLOAT"}}}, {"name": "FeatureExtractor/MobileDetCPU/C5_2_Conv2d_3_3x3_s2_256/Conv2D_weights", "op": "Const", "attr": {"value": {"tensor": {"dtype": "DT_FLOAT", "tensorShape": {"dim": [{"size": "1"}, {"size": "1"}, {"size": "128"}, {"size": "256"}]}}}, "dtype": {"type": "DT_FLOAT"}}}, {"name": "FeatureExtractor/MobileDetCPU/C5_2_Conv2d_3_3x3_s2_256/Conv2D_bn_offset", "op": "Const", "attr": {"value": {"tensor": {"dtype": "DT_FLOAT", "tensorShape": {"dim": [{"size": "256"}]}}}, "dtype": {"type": "DT_FLOAT"}}}, {"name": "BoxPredictor_3/BoxEncodingPredictor_depthwise/depthwise_weights", "op": "Const", "attr": {"value": {"tensor": {"dtype": "DT_FLOAT", "tensorShape": {"dim": [{"size": "3"}, {"size": "3"}, {"size": "256"}, {"size": "1"}]}}}, "dtype": {"type": "DT_FLOAT"}}}, {"name": "BoxPredictor_3/BoxEncodingPredictor_depthwise/depthwise_bn_offset", "op": "Const", "attr": {"value": {"tensor": {"dtype": "DT_FLOAT", "tensorShape": {"dim": [{"size": "256"}]}}}, "dtype": {"type": "DT_FLOAT"}}}, {"name": "BoxPredictor_3/ClassPredictor_depthwise/depthwise_weights", "op": "Const", "attr": {"value": {"tensor": {"dtype": "DT_FLOAT", "tensorShape": {"dim": [{"size": "3"}, {"size": "3"}, {"size": "256"}, {"size": "1"}]}}}, "dtype": {"type": "DT_FLOAT"}}}, {"name": "BoxPredictor_3/ClassPredictor_depthwise/depthwise_bn_offset", "op": "Const", "attr": {"value": {"tensor": {"dtype": "DT_FLOAT", "tensorShape": {"dim": [{"size": "256"}]}}}, "dtype": {"type": "DT_FLOAT"}}}, {"name": "FeatureExtractor/MobileDetCPU/C5_1_Conv2d_4_1x1_128/Conv2D_weights", "op": "Const", "attr": {"value": {"tensor": {"dtype": "DT_FLOAT", "tensorShape": {"dim": [{"size": "1"}, {"size": "1"}, {"size": "256"}, {"size": "128"}]}}}, "dtype": {"type": "DT_FLOAT"}}}, {"name": "FeatureExtractor/MobileDetCPU/C5_1_Conv2d_4_1x1_128/Conv2D_bn_offset", "op": "Const", "attr": {"value": {"tensor": {"dtype": "DT_FLOAT", "tensorShape": {"dim": [{"size": "128"}]}}}, "dtype": {"type": "DT_FLOAT"}}}, {"name": "FeatureExtractor/MobileDetCPU/C5_2_Conv2d_4_3x3_s2_256_depthwise/depthwise_weights", "op": "Const", "attr": {"value": {"tensor": {"dtype": "DT_FLOAT", "tensorShape": {"dim": [{"size": "3"}, {"size": "3"}, {"size": "128"}, {"size": "1"}]}}}, "dtype": {"type": "DT_FLOAT"}}}, {"name": "FeatureExtractor/MobileDetCPU/C5_2_Conv2d_4_3x3_s2_256_depthwise/depthwise_bn_offset", "op": "Const", "attr": {"value": {"tensor": {"dtype": "DT_FLOAT", "tensorShape": {"dim": [{"size": "128"}]}}}, "dtype": {"type": "DT_FLOAT"}}}, {"name": "FeatureExtractor/MobileDetCPU/C5_2_Conv2d_4_3x3_s2_256/Conv2D_weights", "op": "Const", "attr": {"value": {"tensor": {"dtype": "DT_FLOAT", "tensorShape": {"dim": [{"size": "1"}, {"size": "1"}, {"size": "128"}, {"size": "256"}]}}}, "dtype": {"type": "DT_FLOAT"}}}, {"name": "FeatureExtractor/MobileDetCPU/C5_2_Conv2d_4_3x3_s2_256/Conv2D_bn_offset", "op": "Const", "attr": {"value": {"tensor": {"dtype": "DT_FLOAT", "tensorShape": {"dim": [{"size": "256"}]}}}, "dtype": {"type": "DT_FLOAT"}}}, {"name": "BoxPredictor_4/BoxEncodingPredictor_depthwise/depthwise_weights", "op": "Const", "attr": {"value": {"tensor": {"dtype": "DT_FLOAT", "tensorShape": {"dim": [{"size": "3"}, {"size": "3"}, {"size": "256"}, {"size": "1"}]}}}, "dtype": {"type": "DT_FLOAT"}}}, {"name": "BoxPredictor_4/BoxEncodingPredictor_depthwise/depthwise_bn_offset", "op": "Const", "attr": {"value": {"tensor": {"dtype": "DT_FLOAT", "tensorShape": {"dim": [{"size": "256"}]}}}, "dtype": {"type": "DT_FLOAT"}}}, {"name": "BoxPredictor_4/ClassPredictor_depthwise/depthwise_weights", "op": "Const", "attr": {"value": {"tensor": {"dtype": "DT_FLOAT", "tensorShape": {"dim": [{"size": "3"}, {"size": "3"}, {"size": "256"}, {"size": "1"}]}}}, "dtype": {"type": "DT_FLOAT"}}}, {"name": "BoxPredictor_4/ClassPredictor_depthwise/depthwise_bn_offset", "op": "Const", "attr": {"value": {"tensor": {"dtype": "DT_FLOAT", "tensorShape": {"dim": [{"size": "256"}]}}}, "dtype": {"type": "DT_FLOAT"}}}, {"name": "FeatureExtractor/MobileDetCPU/C5_1_Conv2d_5_1x1_64/Conv2D_weights", "op": "Const", "attr": {"value": {"tensor": {"dtype": "DT_FLOAT", "tensorShape": {"dim": [{"size": "1"}, {"size": "1"}, {"size": "256"}, {"size": "64"}]}}}, "dtype": {"type": "DT_FLOAT"}}}, {"name": "FeatureExtractor/MobileDetCPU/C5_1_Conv2d_5_1x1_64/Conv2D_bn_offset", "op": "Const", "attr": {"value": {"tensor": {"dtype": "DT_FLOAT", "tensorShape": {"dim": [{"size": "64"}]}}}, "dtype": {"type": "DT_FLOAT"}}}, {"name": "FeatureExtractor/MobileDetCPU/C5_2_Conv2d_5_3x3_s2_128_depthwise/depthwise_weights", "op": "Const", "attr": {"value": {"tensor": {"dtype": "DT_FLOAT", "tensorShape": {"dim": [{"size": "3"}, {"size": "3"}, {"size": "64"}, {"size": "1"}]}}}, "dtype": {"type": "DT_FLOAT"}}}, {"name": "FeatureExtractor/MobileDetCPU/C5_2_Conv2d_5_3x3_s2_128_depthwise/depthwise_bn_offset", "op": "Const", "attr": {"value": {"tensor": {"dtype": "DT_FLOAT", "tensorShape": {"dim": [{"size": "64"}]}}}, "dtype": {"type": "DT_FLOAT"}}}, {"name": "FeatureExtractor/MobileDetCPU/C5_2_Conv2d_5_3x3_s2_128/Conv2D_weights", "op": "Const", "attr": {"value": {"tensor": {"dtype": "DT_FLOAT", "tensorShape": {"dim": [{"size": "1"}, {"size": "1"}, {"size": "64"}, {"size": "128"}]}}}, "dtype": {"type": "DT_FLOAT"}}}, {"name": "FeatureExtractor/MobileDetCPU/C5_2_Conv2d_5_3x3_s2_128/Conv2D_bn_offset", "op": "Const", "attr": {"value": {"tensor": {"dtype": "DT_FLOAT", "tensorShape": {"dim": [{"size": "128"}]}}}, "dtype": {"type": "DT_FLOAT"}}}, {"name": "BoxPredictor_5/BoxEncodingPredictor_depthwise/depthwise_weights", "op": "Const", "attr": {"value": {"tensor": {"dtype": "DT_FLOAT", "tensorShape": {"dim": [{"size": "3"}, {"size": "3"}, {"size": "128"}, {"size": "1"}]}}}, "dtype": {"type": "DT_FLOAT"}}}, {"name": "BoxPredictor_5/BoxEncodingPredictor_depthwise/depthwise_bn_offset", "op": "Const", "attr": {"value": {"tensor": {"dtype": "DT_FLOAT", "tensorShape": {"dim": [{"size": "128"}]}}}, "dtype": {"type": "DT_FLOAT"}}}, {"name": "Cast", "op": "Cast", "input": ["image_tensor"], "attr": {"SrcT": {"type": "DT_UINT8"}, "Truncate": {"b": false}, "DstT": {"type": "DT_FLOAT"}}}, {"name": "Preprocessor/unstack", "op": "Unpack", "input": ["Cast"], "attr": {"num": {"i": "1"}, "T": {"type": "DT_FLOAT"}, "axis": {"i": "0"}}}, {"name": "Preprocessor/ResizeImage/resize/ExpandDims", "op": "ExpandDims", "input": ["Preprocessor/unstack", "Preprocessor/ResizeImage/resize/ExpandDims/dim"], "attr": {"Tdim": {"type": "DT_INT32"}, "T": {"type": "DT_FLOAT"}}}, {"name": "Preprocessor/ResizeImage/resize/Squeeze", "op": "Squeeze", "input": ["Preprocessor/ResizeImage/resize/ExpandDims"], "attr": {"squeeze_dims": {"list": {"i": ["0"]}}, "T": {"type": "DT_FLOAT"}}}, {"name": "ConstantFolding/Preprocessor/stack_const_axis", "op": "Const", "input": ["^Preprocessor/ResizeImage/resize/Squeeze"], "attr": {"value": {"tensor": {"dtype": "DT_INT32", "tensorShape": {}}}, "dtype": {"type": "DT_INT32"}}}, {"name": "Preprocessor/stack", "op": "ExpandDims", "input": ["Preprocessor/ResizeImage/resize/Squeeze", "ConstantFolding/Preprocessor/stack_const_axis"], "attr": {"Tdim": {"type": "DT_INT32"}, "T": {"type": "DT_FLOAT"}}}, {"name": "Preprocessor/mul", "op": "Mul", "input": ["Preprocessor/mul/x", "Preprocessor/stack"], "attr": {"T": {"type": "DT_FLOAT"}}}, {"name": "Preprocessor/sub", "op": "Sub", "input": ["Preprocessor/mul", "Preprocessor/sub/y"], "attr": {"T": {"type": "DT_FLOAT"}}}, {"name": "FeatureExtractor/MobileDetCPU/Conv/BatchNorm/FusedBatchNormV3", "op": "_FusedConv2D", "input": ["Preprocessor/sub", "FeatureExtractor/MobileDetCPU/Conv/Conv2D_weights", "FeatureExtractor/MobileDetCPU/Conv/Conv2D_bn_offset"], "device": "/device:CPU:0", "attr": {"dilations": {"list": {"i": ["1", "1", "1", "1"]}}, "T": {"type": "DT_FLOAT"}, "data_format": {"s": "TkhXQw=="}, "strides": {"list": {"i": ["1", "2", "2", "1"]}}, "use_cudnn_on_gpu": {"b": true}, "explicit_paddings": {"list": {}}, "num_args": {"i": "1"}, "epsilon": {"f": 0.0}, "padding": {"s": "U0FNRQ=="}, "fused_ops": {"list": {"s": ["Qmlhc0FkZA=="]}}}}, {"name": "FeatureExtractor/MobileDetCPU/Conv/swish6/mul", "op": "Mul", "input": ["FeatureExtractor/MobileDetCPU/Conv/swish6/mul_1/y", "FeatureExtractor/MobileDetCPU/Conv/BatchNorm/FusedBatchNormV3"], "attr": {"_grappler_ArithmeticOptimizer_MinimizeBroadcasts": {"b": true}, "T": {"type": "DT_FLOAT"}}}, {"name": "FeatureExtractor/MobileDetCPU/Conv/swish6/add", "op": "AddV2", "input": ["FeatureExtractor/MobileDetCPU/Conv/BatchNorm/FusedBatchNormV3", "FeatureExtractor/MobileDetCPU/Conv/swish6/add/y"], "attr": {"T": {"type": "DT_FLOAT"}}}, {"name": "FeatureExtractor/MobileDetCPU/Conv/swish6/Relu6", "op": "Relu6", "input": ["FeatureExtractor/MobileDetCPU/Conv/swish6/add"], "attr": {"T": {"type": "DT_FLOAT"}}}, {"name": "FeatureExtractor/MobileDetCPU/Conv/swish6/mul_1", "op": "Mul", "input": ["FeatureExtractor/MobileDetCPU/Conv/swish6/mul", "FeatureExtractor/MobileDetCPU/Conv/swish6/Relu6"], "attr": {"T": {"type": "DT_FLOAT"}, "_grappler_ArithmeticOptimizer_MinimizeBroadcasts": {"b": true}}}, {"name": "FeatureExtractor/MobileDetCPU/IBNNoExpansion/SeparableConv2d/depthwise", "op": "FusedDepthwiseConv2dNative", "input": ["FeatureExtractor/MobileDetCPU/Conv/swish6/mul_1", "FeatureExtractor/MobileDetCPU/IBNNoExpansion/SeparableConv2d/depthwise_weights", "FeatureExtractor/MobileDetCPU/IBNNoExpansion/SeparableConv2d/depthwise_bn_offset"], "attr": {"num_args": {"i": "1"}, "padding": {"s": "U0FNRQ=="}, "fused_ops": {"list": {"s": ["Qmlhc0FkZA=="]}}, "dilations": {"list": {"i": ["1", "1", "1", "1"]}}, "T": {"type": "DT_FLOAT"}, "strides": {"list": {"i": ["1", "1", "1", "1"]}}, "data_format": {"s": "TkhXQw=="}, "explicit_paddings": {"list": {}}}}, {"name": "FeatureExtractor/MobileDetCPU/IBNNoExpansion/SeparableConv2d/swish6/mul", "op": "Mul", "input": ["FeatureExtractor/MobileDetCPU/IBNNoExpansion/SeparableConv2d/swish6/mul_1/y", "FeatureExtractor/MobileDetCPU/IBNNoExpansion/SeparableConv2d/depthwise"], "attr": {"T": {"type": "DT_FLOAT"}, "_grappler_ArithmeticOptimizer_MinimizeBroadcasts": {"b": true}}}, {"name": "FeatureExtractor/MobileDetCPU/IBNNoExpansion/SeparableConv2d/swish6/add", "op": "AddV2", "input": ["FeatureExtractor/MobileDetCPU/IBNNoExpansion/SeparableConv2d/depthwise", "FeatureExtractor/MobileDetCPU/IBNNoExpansion/SeparableConv2d/swish6/add/y"], "attr": {"T": {"type": "DT_FLOAT"}}}, {"name": "FeatureExtractor/MobileDetCPU/IBNNoExpansion/SeparableConv2d/swish6/Relu6", "op": "Relu6", "input": ["FeatureExtractor/MobileDetCPU/IBNNoExpansion/SeparableConv2d/swish6/add"], "attr": {"T": {"type": "DT_FLOAT"}}}, {"name": "FeatureExtractor/MobileDetCPU/IBNNoExpansion/SeparableConv2d/swish6/mul_1", "op": "Mul", "input": ["FeatureExtractor/MobileDetCPU/IBNNoExpansion/SeparableConv2d/swish6/mul", "FeatureExtractor/MobileDetCPU/IBNNoExpansion/SeparableConv2d/swish6/Relu6"], "attr": {"_grappler_ArithmeticOptimizer_MinimizeBroadcasts": {"b": true}, "T": {"type": "DT_FLOAT"}}}, {"name": "FeatureExtractor/MobileDetCPU/IBNNoExpansion/SqueezeExcite/AvgPool2D/AvgPool", "op": "AvgPool", "input": ["FeatureExtractor/MobileDetCPU/IBNNoExpansion/SeparableConv2d/swish6/mul_1"], "attr": {"T": {"type": "DT_FLOAT"}, "strides": {"list": {"i": ["1", "1", "1", "1"]}}, "data_format": {"s": "TkhXQw=="}, "ksize": {"list": {"i": ["1", "160", "160", "1"]}}, "padding": {"s": "VkFMSUQ="}}}, {"name": "FeatureExtractor/MobileDetCPU/IBNNoExpansion/SqueezeExcite/Conv/BiasAdd", "op": "_FusedConv2D", "input": ["FeatureExtractor/MobileDetCPU/IBNNoExpansion/SqueezeExcite/AvgPool2D/AvgPool", "FeatureExtractor/MobileDetCPU/IBNNoExpansion/SqueezeExcite/Conv/weights", "FeatureExtractor/MobileDetCPU/IBNNoExpansion/SqueezeExcite/Conv/biases"], "device": "/device:CPU:0", "attr": {"T": {"type": "DT_FLOAT"}, "strides": {"list": {"i": ["1", "1", "1", "1"]}}, "data_format": {"s": "TkhXQw=="}, "explicit_paddings": {"list": {}}, "use_cudnn_on_gpu": {"b": true}, "num_args": {"i": "1"}, "epsilon": {"f": 0.0}, "padding": {"s": "U0FNRQ=="}, "fused_ops": {"list": {"s": ["Qmlhc0FkZA=="]}}, "dilations": {"list": {"i": ["1", "1", "1", "1"]}}}}, {"name": "FeatureExtractor/MobileDetCPU/IBNNoExpansion/SqueezeExcite/Conv/swish6/mul", "op": "Mul", "input": ["FeatureExtractor/MobileDetCPU/IBNNoExpansion/SqueezeExcite/Conv/swish6/mul_1/y", "FeatureExtractor/MobileDetCPU/IBNNoExpansion/SqueezeExcite/Conv/BiasAdd"], "attr": {"T": {"type": "DT_FLOAT"}, "_grappler_ArithmeticOptimizer_MinimizeBroadcasts": {"b": true}}}, {"name": "FeatureExtractor/MobileDetCPU/IBNNoExpansion/SqueezeExcite/Conv/swish6/add", "op": "AddV2", "input": ["FeatureExtractor/MobileDetCPU/IBNNoExpansion/SqueezeExcite/Conv/BiasAdd", "FeatureExtractor/MobileDetCPU/IBNNoExpansion/SqueezeExcite/Conv/swish6/add/y"], "attr": {"T": {"type": "DT_FLOAT"}}}, {"name": "FeatureExtractor/MobileDetCPU/IBNNoExpansion/SqueezeExcite/Conv/swish6/Relu6", "op": "Relu6", "input": ["FeatureExtractor/MobileDetCPU/IBNNoExpansion/SqueezeExcite/Conv/swish6/add"], "attr": {"T": {"type": "DT_FLOAT"}}}, {"name": "FeatureExtractor/MobileDetCPU/IBNNoExpansion/SqueezeExcite/Conv/swish6/mul_1", "op": "Mul", "input": ["FeatureExtractor/MobileDetCPU/IBNNoExpansion/SqueezeExcite/Conv/swish6/mul", "FeatureExtractor/MobileDetCPU/IBNNoExpansion/SqueezeExcite/Conv/swish6/Relu6"], "attr": {"_grappler_ArithmeticOptimizer_MinimizeBroadcasts": {"b": true}, "T": {"type": "DT_FLOAT"}}}, {"name": "FeatureExtractor/MobileDetCPU/IBNNoExpansion/SqueezeExcite/Conv_1/BiasAdd", "op": "_FusedConv2D", "input": ["FeatureExtractor/MobileDetCPU/IBNNoExpansion/SqueezeExcite/Conv/swish6/mul_1", "FeatureExtractor/MobileDetCPU/IBNNoExpansion/SqueezeExcite/Conv_1/weights", "FeatureExtractor/MobileDetCPU/IBNNoExpansion/SqueezeExcite/Conv_1/biases"], "device": "/device:CPU:0", "attr": {"num_args": {"i": "1"}, "epsilon": {"f": 0.0}, "padding": {"s": "U0FNRQ=="}, "fused_ops": {"list": {"s": ["Qmlhc0FkZA=="]}}, "dilations": {"list": {"i": ["1", "1", "1", "1"]}}, "T": {"type": "DT_FLOAT"}, "strides": {"list": {"i": ["1", "1", "1", "1"]}}, "data_format": {"s": "TkhXQw=="}, "explicit_paddings": {"list": {}}, "use_cudnn_on_gpu": {"b": true}}}, {"name": "FeatureExtractor/MobileDetCPU/IBNNoExpansion/SqueezeExcite/Conv_1/Sigmoid", "op": "Sigmoid", "input": ["FeatureExtractor/MobileDetCPU/IBNNoExpansion/SqueezeExcite/Conv_1/BiasAdd"], "attr": {"T": {"type": "DT_FLOAT"}}}, {"name": "FeatureExtractor/MobileDetCPU/IBNNoExpansion/SqueezeExcite/mul", "op": "Mul", "input": ["FeatureExtractor/MobileDetCPU/IBNNoExpansion/SqueezeExcite/Conv_1/Sigmoid", "FeatureExtractor/MobileDetCPU/IBNNoExpansion/SeparableConv2d/swish6/mul_1"], "attr": {"T": {"type": "DT_FLOAT"}}}, {"name": "FeatureExtractor/MobileDetCPU/IBNNoExpansion/Conv/BatchNorm/FusedBatchNormV3", "op": "_FusedConv2D", "input": ["FeatureExtractor/MobileDetCPU/IBNNoExpansion/SqueezeExcite/mul", "FeatureExtractor/MobileDetCPU/IBNNoExpansion/Conv/Conv2D_weights", "FeatureExtractor/MobileDetCPU/IBNNoExpansion/Conv/Conv2D_bn_offset"], "device": "/device:CPU:0", "attr": {"fused_ops": {"list": {"s": ["Qmlhc0FkZA=="]}}, "dilations": {"list": {"i": ["1", "1", "1", "1"]}}, "T": {"type": "DT_FLOAT"}, "data_format": {"s": "TkhXQw=="}, "strides": {"list": {"i": ["1", "1", "1", "1"]}}, "use_cudnn_on_gpu": {"b": true}, "explicit_paddings": {"list": {}}, "num_args": {"i": "1"}, "epsilon": {"f": 0.0}, "padding": {"s": "U0FNRQ=="}}}, {"name": "FeatureExtractor/MobileDetCPU/IBN/Conv/BatchNorm/FusedBatchNormV3", "op": "_FusedConv2D", "input": ["FeatureExtractor/MobileDetCPU/IBNNoExpansion/Conv/BatchNorm/FusedBatchNormV3", "FeatureExtractor/MobileDetCPU/IBN/Conv/Conv2D_weights", "FeatureExtractor/MobileDetCPU/IBN/Conv/Conv2D_bn_offset"], "device": "/device:CPU:0", "attr": {"T": {"type": "DT_FLOAT"}, "strides": {"list": {"i": ["1", "1", "1", "1"]}}, "data_format": {"s": "TkhXQw=="}, "explicit_paddings": {"list": {}}, "use_cudnn_on_gpu": {"b": true}, "num_args": {"i": "1"}, "epsilon": {"f": 0.0}, "padding": {"s": "U0FNRQ=="}, "fused_ops": {"list": {"s": ["Qmlhc0FkZA=="]}}, "dilations": {"list": {"i": ["1", "1", "1", "1"]}}}}, {"name": "FeatureExtractor/MobileDetCPU/IBN/Conv/swish6/mul", "op": "Mul", "input": ["FeatureExtractor/MobileDetCPU/IBN/Conv/swish6/mul_1/y", "FeatureExtractor/MobileDetCPU/IBN/Conv/BatchNorm/FusedBatchNormV3"], "attr": {"T": {"type": "DT_FLOAT"}, "_grappler_ArithmeticOptimizer_MinimizeBroadcasts": {"b": true}}}, {"name": "FeatureExtractor/MobileDetCPU/IBN/Conv/swish6/add", "op": "AddV2", "input": ["FeatureExtractor/MobileDetCPU/IBN/Conv/BatchNorm/FusedBatchNormV3", "FeatureExtractor/MobileDetCPU/IBN/Conv/swish6/add/y"], "attr": {"T": {"type": "DT_FLOAT"}}}, {"name": "FeatureExtractor/MobileDetCPU/IBN/Conv/swish6/Relu6", "op": "Relu6", "input": ["FeatureExtractor/MobileDetCPU/IBN/Conv/swish6/add"], "attr": {"T": {"type": "DT_FLOAT"}}}, {"name": "FeatureExtractor/MobileDetCPU/IBN/Conv/swish6/mul_1", "op": "Mul", "input": ["FeatureExtractor/MobileDetCPU/IBN/Conv/swish6/mul", "FeatureExtractor/MobileDetCPU/IBN/Conv/swish6/Relu6"], "attr": {"_grappler_ArithmeticOptimizer_MinimizeBroadcasts": {"b": true}, "T": {"type": "DT_FLOAT"}}}, {"name": "FeatureExtractor/MobileDetCPU/IBN/SeparableConv2d/depthwise", "op": "FusedDepthwiseConv2dNative", "input": ["FeatureExtractor/MobileDetCPU/IBN/Conv/swish6/mul_1", "FeatureExtractor/MobileDetCPU/IBN/SeparableConv2d/depthwise_weights", "FeatureExtractor/MobileDetCPU/IBN/SeparableConv2d/depthwise_bn_offset"], "attr": {"T": {"type": "DT_FLOAT"}, "data_format": {"s": "TkhXQw=="}, "strides": {"list": {"i": ["1", "2", "2", "1"]}}, "explicit_paddings": {"list": {}}, "num_args": {"i": "1"}, "padding": {"s": "U0FNRQ=="}, "fused_ops": {"list": {"s": ["Qmlhc0FkZA=="]}}, "dilations": {"list": {"i": ["1", "1", "1", "1"]}}}}, {"name": "FeatureExtractor/MobileDetCPU/IBN/SeparableConv2d/swish6/mul", "op": "Mul", "input": ["FeatureExtractor/MobileDetCPU/IBN/SeparableConv2d/swish6/mul_1/y", "FeatureExtractor/MobileDetCPU/IBN/SeparableConv2d/depthwise"], "attr": {"T": {"type": "DT_FLOAT"}, "_grappler_ArithmeticOptimizer_MinimizeBroadcasts": {"b": true}}}, {"name": "FeatureExtractor/MobileDetCPU/IBN/SeparableConv2d/swish6/add", "op": "AddV2", "input": ["FeatureExtractor/MobileDetCPU/IBN/SeparableConv2d/depthwise", "FeatureExtractor/MobileDetCPU/IBN/SeparableConv2d/swish6/add/y"], "attr": {"T": {"type": "DT_FLOAT"}}}, {"name": "FeatureExtractor/MobileDetCPU/IBN/SeparableConv2d/swish6/Relu6", "op": "Relu6", "input": ["FeatureExtractor/MobileDetCPU/IBN/SeparableConv2d/swish6/add"], "attr": {"T": {"type": "DT_FLOAT"}}}, {"name": "FeatureExtractor/MobileDetCPU/IBN/SeparableConv2d/swish6/mul_1", "op": "Mul", "input": ["FeatureExtractor/MobileDetCPU/IBN/SeparableConv2d/swish6/mul", "FeatureExtractor/MobileDetCPU/IBN/SeparableConv2d/swish6/Relu6"], "attr": {"_grappler_ArithmeticOptimizer_MinimizeBroadcasts": {"b": true}, "T": {"type": "DT_FLOAT"}}}, {"name": "FeatureExtractor/MobileDetCPU/IBN/SqueezeExcite/AvgPool2D/AvgPool", "op": "AvgPool", "input": ["FeatureExtractor/MobileDetCPU/IBN/SeparableConv2d/swish6/mul_1"], "attr": {"T": {"type": "DT_FLOAT"}, "strides": {"list": {"i": ["1", "1", "1", "1"]}}, "data_format": {"s": "TkhXQw=="}, "ksize": {"list": {"i": ["1", "80", "80", "1"]}}, "padding": {"s": "VkFMSUQ="}}}, {"name": "FeatureExtractor/MobileDetCPU/IBN/SqueezeExcite/Conv/BiasAdd", "op": "_FusedConv2D", "input": ["FeatureExtractor/MobileDetCPU/IBN/SqueezeExcite/AvgPool2D/AvgPool", "FeatureExtractor/MobileDetCPU/IBN/SqueezeExcite/Conv/weights", "FeatureExtractor/MobileDetCPU/IBN/SqueezeExcite/Conv/biases"], "device": "/device:CPU:0", "attr": {"T": {"type": "DT_FLOAT"}, "data_format": {"s": "TkhXQw=="}, "strides": {"list": {"i": ["1", "1", "1", "1"]}}, "use_cudnn_on_gpu": {"b": true}, "explicit_paddings": {"list": {}}, "num_args": {"i": "1"}, "epsilon": {"f": 0.0}, "padding": {"s": "U0FNRQ=="}, "fused_ops": {"list": {"s": ["Qmlhc0FkZA=="]}}, "dilations": {"list": {"i": ["1", "1", "1", "1"]}}}}, {"name": "FeatureExtractor/MobileDetCPU/IBN/SqueezeExcite/Conv/swish6/mul", "op": "Mul", "input": ["FeatureExtractor/MobileDetCPU/IBN/SqueezeExcite/Conv/swish6/mul_1/y", "FeatureExtractor/MobileDetCPU/IBN/SqueezeExcite/Conv/BiasAdd"], "attr": {"T": {"type": "DT_FLOAT"}, "_grappler_ArithmeticOptimizer_MinimizeBroadcasts": {"b": true}}}, {"name": "FeatureExtractor/MobileDetCPU/IBN/SqueezeExcite/Conv/swish6/add", "op": "AddV2", "input": ["FeatureExtractor/MobileDetCPU/IBN/SqueezeExcite/Conv/BiasAdd", "FeatureExtractor/MobileDetCPU/IBN/SqueezeExcite/Conv/swish6/add/y"], "attr": {"T": {"type": "DT_FLOAT"}}}, {"name": "FeatureExtractor/MobileDetCPU/IBN/SqueezeExcite/Conv/swish6/Relu6", "op": "Relu6", "input": ["FeatureExtractor/MobileDetCPU/IBN/SqueezeExcite/Conv/swish6/add"], "attr": {"T": {"type": "DT_FLOAT"}}}, {"name": "FeatureExtractor/MobileDetCPU/IBN/SqueezeExcite/Conv/swish6/mul_1", "op": "Mul", "input": ["FeatureExtractor/MobileDetCPU/IBN/SqueezeExcite/Conv/swish6/mul", "FeatureExtractor/MobileDetCPU/IBN/SqueezeExcite/Conv/swish6/Relu6"], "attr": {"_grappler_ArithmeticOptimizer_MinimizeBroadcasts": {"b": true}, "T": {"type": "DT_FLOAT"}}}, {"name": "FeatureExtractor/MobileDetCPU/IBN/SqueezeExcite/Conv_1/BiasAdd", "op": "_FusedConv2D", "input": ["FeatureExtractor/MobileDetCPU/IBN/SqueezeExcite/Conv/swish6/mul_1", "FeatureExtractor/MobileDetCPU/IBN/SqueezeExcite/Conv_1/weights", "FeatureExtractor/MobileDetCPU/IBN/SqueezeExcite/Conv_1/biases"], "device": "/device:CPU:0", "attr": {"T": {"type": "DT_FLOAT"}, "strides": {"list": {"i": ["1", "1", "1", "1"]}}, "data_format": {"s": "TkhXQw=="}, "use_cudnn_on_gpu": {"b": true}, "explicit_paddings": {"list": {}}, "num_args": {"i": "1"}, "epsilon": {"f": 0.0}, "padding": {"s": "U0FNRQ=="}, "fused_ops": {"list": {"s": ["Qmlhc0FkZA=="]}}, "dilations": {"list": {"i": ["1", "1", "1", "1"]}}}}, {"name": "FeatureExtractor/MobileDetCPU/IBN/SqueezeExcite/Conv_1/Sigmoid", "op": "Sigmoid", "input": ["FeatureExtractor/MobileDetCPU/IBN/SqueezeExcite/Conv_1/BiasAdd"], "attr": {"T": {"type": "DT_FLOAT"}}}, {"name": "FeatureExtractor/MobileDetCPU/IBN/SqueezeExcite/mul", "op": "Mul", "input": ["FeatureExtractor/MobileDetCPU/IBN/SqueezeExcite/Conv_1/Sigmoid", "FeatureExtractor/MobileDetCPU/IBN/SeparableConv2d/swish6/mul_1"], "attr": {"T": {"type": "DT_FLOAT"}}}, {"name": "FeatureExtractor/MobileDetCPU/IBN/Conv_1/BatchNorm/FusedBatchNormV3", "op": "_FusedConv2D", "input": ["FeatureExtractor/MobileDetCPU/IBN/SqueezeExcite/mul", "FeatureExtractor/MobileDetCPU/IBN/Conv_1/Conv2D_weights", "FeatureExtractor/MobileDetCPU/IBN/Conv_1/Conv2D_bn_offset"], "device": "/device:CPU:0", "attr": {"fused_ops": {"list": {"s": ["Qmlhc0FkZA=="]}}, "dilations": {"list": {"i": ["1", "1", "1", "1"]}}, "T": {"type": "DT_FLOAT"}, "data_format": {"s": "TkhXQw=="}, "strides": {"list": {"i": ["1", "1", "1", "1"]}}, "use_cudnn_on_gpu": {"b": true}, "explicit_paddings": {"list": {}}, "num_args": {"i": "1"}, "epsilon": {"f": 0.0}, "padding": {"s": "U0FNRQ=="}}}, {"name": "FeatureExtractor/MobileDetCPU/IBN_1/Conv/BatchNorm/FusedBatchNormV3", "op": "_FusedConv2D", "input": ["FeatureExtractor/MobileDetCPU/IBN/Conv_1/BatchNorm/FusedBatchNormV3", "FeatureExtractor/MobileDetCPU/IBN_1/Conv/Conv2D_weights", "FeatureExtractor/MobileDetCPU/IBN_1/Conv/Conv2D_bn_offset"], "device": "/device:CPU:0", "attr": {"T": {"type": "DT_FLOAT"}, "strides": {"list": {"i": ["1", "1", "1", "1"]}}, "data_format": {"s": "TkhXQw=="}, "explicit_paddings": {"list": {}}, "use_cudnn_on_gpu": {"b": true}, "num_args": {"i": "1"}, "epsilon": {"f": 0.0}, "padding": {"s": "U0FNRQ=="}, "fused_ops": {"list": {"s": ["Qmlhc0FkZA=="]}}, "dilations": {"list": {"i": ["1", "1", "1", "1"]}}}}, {"name": "FeatureExtractor/MobileDetCPU/IBN_1/Conv/swish6/mul", "op": "Mul", "input": ["FeatureExtractor/MobileDetCPU/IBN_1/Conv/swish6/mul_1/y", "FeatureExtractor/MobileDetCPU/IBN_1/Conv/BatchNorm/FusedBatchNormV3"], "attr": {"_grappler_ArithmeticOptimizer_MinimizeBroadcasts": {"b": true}, "T": {"type": "DT_FLOAT"}}}, {"name": "FeatureExtractor/MobileDetCPU/IBN_1/Conv/swish6/add", "op": "AddV2", "input": ["FeatureExtractor/MobileDetCPU/IBN_1/Conv/BatchNorm/FusedBatchNormV3", "FeatureExtractor/MobileDetCPU/IBN_1/Conv/swish6/add/y"], "attr": {"T": {"type": "DT_FLOAT"}}}, {"name": "FeatureExtractor/MobileDetCPU/IBN_1/Conv/swish6/Relu6", "op": "Relu6", "input": ["FeatureExtractor/MobileDetCPU/IBN_1/Conv/swish6/add"], "attr": {"T": {"type": "DT_FLOAT"}}}, {"name": "FeatureExtractor/MobileDetCPU/IBN_1/Conv/swish6/mul_1", "op": "Mul", "input": ["FeatureExtractor/MobileDetCPU/IBN_1/Conv/swish6/mul", "FeatureExtractor/MobileDetCPU/IBN_1/Conv/swish6/Relu6"], "attr": {"T": {"type": "DT_FLOAT"}, "_grappler_ArithmeticOptimizer_MinimizeBroadcasts": {"b": true}}}, {"name": "FeatureExtractor/MobileDetCPU/IBN_1/SeparableConv2d/depthwise", "op": "FusedDepthwiseConv2dNative", "input": ["FeatureExtractor/MobileDetCPU/IBN_1/Conv/swish6/mul_1", "FeatureExtractor/MobileDetCPU/IBN_1/SeparableConv2d/depthwise_weights", "FeatureExtractor/MobileDetCPU/IBN_1/SeparableConv2d/depthwise_bn_offset"], "attr": {"dilations": {"list": {"i": ["1", "1", "1", "1"]}}, "T": {"type": "DT_FLOAT"}, "data_format": {"s": "TkhXQw=="}, "strides": {"list": {"i": ["1", "2", "2", "1"]}}, "explicit_paddings": {"list": {}}, "num_args": {"i": "1"}, "padding": {"s": "U0FNRQ=="}, "fused_ops": {"list": {"s": ["Qmlhc0FkZA=="]}}}}, {"name": "FeatureExtractor/MobileDetCPU/IBN_1/SeparableConv2d/swish6/mul", "op": "Mul", "input": ["FeatureExtractor/MobileDetCPU/IBN_1/SeparableConv2d/swish6/mul_1/y", "FeatureExtractor/MobileDetCPU/IBN_1/SeparableConv2d/depthwise"], "attr": {"T": {"type": "DT_FLOAT"}, "_grappler_ArithmeticOptimizer_MinimizeBroadcasts": {"b": true}}}, {"name": "FeatureExtractor/MobileDetCPU/IBN_1/SeparableConv2d/swish6/add", "op": "AddV2", "input": ["FeatureExtractor/MobileDetCPU/IBN_1/SeparableConv2d/depthwise", "FeatureExtractor/MobileDetCPU/IBN_1/SeparableConv2d/swish6/add/y"], "attr": {"T": {"type": "DT_FLOAT"}}}, {"name": "FeatureExtractor/MobileDetCPU/IBN_1/SeparableConv2d/swish6/Relu6", "op": "Relu6", "input": ["FeatureExtractor/MobileDetCPU/IBN_1/SeparableConv2d/swish6/add"], "attr": {"T": {"type": "DT_FLOAT"}}}, {"name": "FeatureExtractor/MobileDetCPU/IBN_1/SeparableConv2d/swish6/mul_1", "op": "Mul", "input": ["FeatureExtractor/MobileDetCPU/IBN_1/SeparableConv2d/swish6/mul", "FeatureExtractor/MobileDetCPU/IBN_1/SeparableConv2d/swish6/Relu6"], "attr": {"T": {"type": "DT_FLOAT"}, "_grappler_ArithmeticOptimizer_MinimizeBroadcasts": {"b": true}}}, {"name": "FeatureExtractor/MobileDetCPU/IBN_1/SqueezeExcite/AvgPool2D/AvgPool", "op": "AvgPool", "input": ["FeatureExtractor/MobileDetCPU/IBN_1/SeparableConv2d/swish6/mul_1"], "attr": {"ksize": {"list": {"i": ["1", "40", "40", "1"]}}, "padding": {"s": "VkFMSUQ="}, "T": {"type": "DT_FLOAT"}, "data_format": {"s": "TkhXQw=="}, "strides": {"list": {"i": ["1", "1", "1", "1"]}}}}, {"name": "FeatureExtractor/MobileDetCPU/IBN_1/SqueezeExcite/Conv/BiasAdd", "op": "_FusedConv2D", "input": ["FeatureExtractor/MobileDetCPU/IBN_1/SqueezeExcite/AvgPool2D/AvgPool", "FeatureExtractor/MobileDetCPU/IBN_1/SqueezeExcite/Conv/weights", "FeatureExtractor/MobileDetCPU/IBN_1/SqueezeExcite/Conv/biases"], "device": "/device:CPU:0", "attr": {"num_args": {"i": "1"}, "epsilon": {"f": 0.0}, "padding": {"s": "U0FNRQ=="}, "fused_ops": {"list": {"s": ["Qmlhc0FkZA=="]}}, "dilations": {"list": {"i": ["1", "1", "1", "1"]}}, "T": {"type": "DT_FLOAT"}, "strides": {"list": {"i": ["1", "1", "1", "1"]}}, "data_format": {"s": "TkhXQw=="}, "use_cudnn_on_gpu": {"b": true}, "explicit_paddings": {"list": {}}}}, {"name": "FeatureExtractor/MobileDetCPU/IBN_1/SqueezeExcite/Conv/swish6/mul", "op": "Mul", "input": ["FeatureExtractor/MobileDetCPU/IBN_1/SqueezeExcite/Conv/swish6/mul_1/y", "FeatureExtractor/MobileDetCPU/IBN_1/SqueezeExcite/Conv/BiasAdd"], "attr": {"_grappler_ArithmeticOptimizer_MinimizeBroadcasts": {"b": true}, "T": {"type": "DT_FLOAT"}}}, {"name": "FeatureExtractor/MobileDetCPU/IBN_1/SqueezeExcite/Conv/swish6/add", "op": "AddV2", "input": ["FeatureExtractor/MobileDetCPU/IBN_1/SqueezeExcite/Conv/BiasAdd", "FeatureExtractor/MobileDetCPU/IBN_1/SqueezeExcite/Conv/swish6/add/y"], "attr": {"T": {"type": "DT_FLOAT"}}}, {"name": "FeatureExtractor/MobileDetCPU/IBN_1/SqueezeExcite/Conv/swish6/Relu6", "op": "Relu6", "input": ["FeatureExtractor/MobileDetCPU/IBN_1/SqueezeExcite/Conv/swish6/add"], "attr": {"T": {"type": "DT_FLOAT"}}}, {"name": "FeatureExtractor/MobileDetCPU/IBN_1/SqueezeExcite/Conv/swish6/mul_1", "op": "Mul", "input": ["FeatureExtractor/MobileDetCPU/IBN_1/SqueezeExcite/Conv/swish6/mul", "FeatureExtractor/MobileDetCPU/IBN_1/SqueezeExcite/Conv/swish6/Relu6"], "attr": {"T": {"type": "DT_FLOAT"}, "_grappler_ArithmeticOptimizer_MinimizeBroadcasts": {"b": true}}}, {"name": "FeatureExtractor/MobileDetCPU/IBN_1/SqueezeExcite/Conv_1/BiasAdd", "op": "_FusedConv2D", "input": ["FeatureExtractor/MobileDetCPU/IBN_1/SqueezeExcite/Conv/swish6/mul_1", "FeatureExtractor/MobileDetCPU/IBN_1/SqueezeExcite/Conv_1/weights", "FeatureExtractor/MobileDetCPU/IBN_1/SqueezeExcite/Conv_1/biases"], "device": "/device:CPU:0", "attr": {"fused_ops": {"list": {"s": ["Qmlhc0FkZA=="]}}, "dilations": {"list": {"i": ["1", "1", "1", "1"]}}, "T": {"type": "DT_FLOAT"}, "data_format": {"s": "TkhXQw=="}, "strides": {"list": {"i": ["1", "1", "1", "1"]}}, "use_cudnn_on_gpu": {"b": true}, "explicit_paddings": {"list": {}}, "num_args": {"i": "1"}, "epsilon": {"f": 0.0}, "padding": {"s": "U0FNRQ=="}}}, {"name": "FeatureExtractor/MobileDetCPU/IBN_1/SqueezeExcite/Conv_1/Sigmoid", "op": "Sigmoid", "input": ["FeatureExtractor/MobileDetCPU/IBN_1/SqueezeExcite/Conv_1/BiasAdd"], "attr": {"T": {"type": "DT_FLOAT"}}}, {"name": "FeatureExtractor/MobileDetCPU/IBN_1/SqueezeExcite/mul", "op": "Mul", "input": ["FeatureExtractor/MobileDetCPU/IBN_1/SqueezeExcite/Conv_1/Sigmoid", "FeatureExtractor/MobileDetCPU/IBN_1/SeparableConv2d/swish6/mul_1"], "attr": {"T": {"type": "DT_FLOAT"}}}, {"name": "FeatureExtractor/MobileDetCPU/IBN_1/Conv_1/BatchNorm/FusedBatchNormV3", "op": "_FusedConv2D", "input": ["FeatureExtractor/MobileDetCPU/IBN_1/SqueezeExcite/mul", "FeatureExtractor/MobileDetCPU/IBN_1/Conv_1/Conv2D_weights", "FeatureExtractor/MobileDetCPU/IBN_1/Conv_1/Conv2D_bn_offset"], "device": "/device:CPU:0", "attr": {"fused_ops": {"list": {"s": ["Qmlhc0FkZA=="]}}, "dilations": {"list": {"i": ["1", "1", "1", "1"]}}, "T": {"type": "DT_FLOAT"}, "data_format": {"s": "TkhXQw=="}, "strides": {"list": {"i": ["1", "1", "1", "1"]}}, "explicit_paddings": {"list": {}}, "use_cudnn_on_gpu": {"b": true}, "num_args": {"i": "1"}, "epsilon": {"f": 0.0}, "padding": {"s": "U0FNRQ=="}}}, {"name": "FeatureExtractor/MobileDetCPU/IBN_2/Conv/BatchNorm/FusedBatchNormV3", "op": "_FusedConv2D", "input": ["FeatureExtractor/MobileDetCPU/IBN_1/Conv_1/BatchNorm/FusedBatchNormV3", "FeatureExtractor/MobileDetCPU/IBN_2/Conv/Conv2D_weights", "FeatureExtractor/MobileDetCPU/IBN_2/Conv/Conv2D_bn_offset"], "device": "/device:CPU:0", "attr": {"T": {"type": "DT_FLOAT"}, "data_format": {"s": "TkhXQw=="}, "strides": {"list": {"i": ["1", "1", "1", "1"]}}, "use_cudnn_on_gpu": {"b": true}, "explicit_paddings": {"list": {}}, "num_args": {"i": "1"}, "epsilon": {"f": 0.0}, "padding": {"s": "U0FNRQ=="}, "fused_ops": {"list": {"s": ["Qmlhc0FkZA=="]}}, "dilations": {"list": {"i": ["1", "1", "1", "1"]}}}}, {"name": "FeatureExtractor/MobileDetCPU/IBN_2/Conv/swish6/mul", "op": "Mul", "input": ["FeatureExtractor/MobileDetCPU/IBN_2/Conv/swish6/mul_1/y", "FeatureExtractor/MobileDetCPU/IBN_2/Conv/BatchNorm/FusedBatchNormV3"], "attr": {"_grappler_ArithmeticOptimizer_MinimizeBroadcasts": {"b": true}, "T": {"type": "DT_FLOAT"}}}, {"name": "FeatureExtractor/MobileDetCPU/IBN_2/Conv/swish6/add", "op": "AddV2", "input": ["FeatureExtractor/MobileDetCPU/IBN_2/Conv/BatchNorm/FusedBatchNormV3", "FeatureExtractor/MobileDetCPU/IBN_2/Conv/swish6/add/y"], "attr": {"T": {"type": "DT_FLOAT"}}}, {"name": "FeatureExtractor/MobileDetCPU/IBN_2/Conv/swish6/Relu6", "op": "Relu6", "input": ["FeatureExtractor/MobileDetCPU/IBN_2/Conv/swish6/add"], "attr": {"T": {"type": "DT_FLOAT"}}}, {"name": "FeatureExtractor/MobileDetCPU/IBN_2/Conv/swish6/mul_1", "op": "Mul", "input": ["FeatureExtractor/MobileDetCPU/IBN_2/Conv/swish6/mul", "FeatureExtractor/MobileDetCPU/IBN_2/Conv/swish6/Relu6"], "attr": {"_grappler_ArithmeticOptimizer_MinimizeBroadcasts": {"b": true}, "T": {"type": "DT_FLOAT"}}}, {"name": "FeatureExtractor/MobileDetCPU/IBN_2/SeparableConv2d/depthwise", "op": "FusedDepthwiseConv2dNative", "input": ["FeatureExtractor/MobileDetCPU/IBN_2/Conv/swish6/mul_1", "FeatureExtractor/MobileDetCPU/IBN_2/SeparableConv2d/depthwise_weights", "FeatureExtractor/MobileDetCPU/IBN_2/SeparableConv2d/depthwise_bn_offset"], "attr": {"fused_ops": {"list": {"s": ["Qmlhc0FkZA=="]}}, "dilations": {"list": {"i": ["1", "1", "1", "1"]}}, "T": {"type": "DT_FLOAT"}, "strides": {"list": {"i": ["1", "1", "1", "1"]}}, "data_format": {"s": "TkhXQw=="}, "explicit_paddings": {"list": {}}, "num_args": {"i": "1"}, "padding": {"s": "U0FNRQ=="}}}, {"name": "FeatureExtractor/MobileDetCPU/IBN_2/SeparableConv2d/swish6/mul", "op": "Mul", "input": ["FeatureExtractor/MobileDetCPU/IBN_2/SeparableConv2d/swish6/mul_1/y", "FeatureExtractor/MobileDetCPU/IBN_2/SeparableConv2d/depthwise"], "attr": {"_grappler_ArithmeticOptimizer_MinimizeBroadcasts": {"b": true}, "T": {"type": "DT_FLOAT"}}}, {"name": "FeatureExtractor/MobileDetCPU/IBN_2/SeparableConv2d/swish6/add", "op": "AddV2", "input": ["FeatureExtractor/MobileDetCPU/IBN_2/SeparableConv2d/depthwise", "FeatureExtractor/MobileDetCPU/IBN_2/SeparableConv2d/swish6/add/y"], "attr": {"T": {"type": "DT_FLOAT"}}}, {"name": "FeatureExtractor/MobileDetCPU/IBN_2/SeparableConv2d/swish6/Relu6", "op": "Relu6", "input": ["FeatureExtractor/MobileDetCPU/IBN_2/SeparableConv2d/swish6/add"], "attr": {"T": {"type": "DT_FLOAT"}}}, {"name": "FeatureExtractor/MobileDetCPU/IBN_2/SeparableConv2d/swish6/mul_1", "op": "Mul", "input": ["FeatureExtractor/MobileDetCPU/IBN_2/SeparableConv2d/swish6/mul", "FeatureExtractor/MobileDetCPU/IBN_2/SeparableConv2d/swish6/Relu6"], "attr": {"T": {"type": "DT_FLOAT"}, "_grappler_ArithmeticOptimizer_MinimizeBroadcasts": {"b": true}}}, {"name": "FeatureExtractor/MobileDetCPU/IBN_2/SqueezeExcite/AvgPool2D/AvgPool", "op": "AvgPool", "input": ["FeatureExtractor/MobileDetCPU/IBN_2/SeparableConv2d/swish6/mul_1"], "attr": {"T": {"type": "DT_FLOAT"}, "strides": {"list": {"i": ["1", "1", "1", "1"]}}, "data_format": {"s": "TkhXQw=="}, "ksize": {"list": {"i": ["1", "40", "40", "1"]}}, "padding": {"s": "VkFMSUQ="}}}, {"name": "FeatureExtractor/MobileDetCPU/IBN_2/SqueezeExcite/Conv/BiasAdd", "op": "_FusedConv2D", "input": ["FeatureExtractor/MobileDetCPU/IBN_2/SqueezeExcite/AvgPool2D/AvgPool", "FeatureExtractor/MobileDetCPU/IBN_2/SqueezeExcite/Conv/weights", "FeatureExtractor/MobileDetCPU/IBN_2/SqueezeExcite/Conv/biases"], "device": "/device:CPU:0", "attr": {"dilations": {"list": {"i": ["1", "1", "1", "1"]}}, "T": {"type": "DT_FLOAT"}, "data_format": {"s": "TkhXQw=="}, "strides": {"list": {"i": ["1", "1", "1", "1"]}}, "use_cudnn_on_gpu": {"b": true}, "explicit_paddings": {"list": {}}, "num_args": {"i": "1"}, "epsilon": {"f": 0.0}, "padding": {"s": "U0FNRQ=="}, "fused_ops": {"list": {"s": ["Qmlhc0FkZA=="]}}}}, {"name": "FeatureExtractor/MobileDetCPU/IBN_2/SqueezeExcite/Conv/swish6/mul", "op": "Mul", "input": ["FeatureExtractor/MobileDetCPU/IBN_2/SqueezeExcite/Conv/swish6/mul_1/y", "FeatureExtractor/MobileDetCPU/IBN_2/SqueezeExcite/Conv/BiasAdd"], "attr": {"T": {"type": "DT_FLOAT"}, "_grappler_ArithmeticOptimizer_MinimizeBroadcasts": {"b": true}}}, {"name": "FeatureExtractor/MobileDetCPU/IBN_2/SqueezeExcite/Conv/swish6/add", "op": "AddV2", "input": ["FeatureExtractor/MobileDetCPU/IBN_2/SqueezeExcite/Conv/BiasAdd", "FeatureExtractor/MobileDetCPU/IBN_2/SqueezeExcite/Conv/swish6/add/y"], "attr": {"T": {"type": "DT_FLOAT"}}}, {"name": "FeatureExtractor/MobileDetCPU/IBN_2/SqueezeExcite/Conv/swish6/Relu6", "op": "Relu6", "input": ["FeatureExtractor/MobileDetCPU/IBN_2/SqueezeExcite/Conv/swish6/add"], "attr": {"T": {"type": "DT_FLOAT"}}}, {"name": "FeatureExtractor/MobileDetCPU/IBN_2/SqueezeExcite/Conv/swish6/mul_1", "op": "Mul", "input": ["FeatureExtractor/MobileDetCPU/IBN_2/SqueezeExcite/Conv/swish6/mul", "FeatureExtractor/MobileDetCPU/IBN_2/SqueezeExcite/Conv/swish6/Relu6"], "attr": {"T": {"type": "DT_FLOAT"}, "_grappler_ArithmeticOptimizer_MinimizeBroadcasts": {"b": true}}}, {"name": "FeatureExtractor/MobileDetCPU/IBN_2/SqueezeExcite/Conv_1/BiasAdd", "op": "_FusedConv2D", "input": ["FeatureExtractor/MobileDetCPU/IBN_2/SqueezeExcite/Conv/swish6/mul_1", "FeatureExtractor/MobileDetCPU/IBN_2/SqueezeExcite/Conv_1/weights", "FeatureExtractor/MobileDetCPU/IBN_2/SqueezeExcite/Conv_1/biases"], "device": "/device:CPU:0", "attr": {"T": {"type": "DT_FLOAT"}, "data_format": {"s": "TkhXQw=="}, "strides": {"list": {"i": ["1", "1", "1", "1"]}}, "use_cudnn_on_gpu": {"b": true}, "explicit_paddings": {"list": {}}, "num_args": {"i": "1"}, "epsilon": {"f": 0.0}, "padding": {"s": "U0FNRQ=="}, "fused_ops": {"list": {"s": ["Qmlhc0FkZA=="]}}, "dilations": {"list": {"i": ["1", "1", "1", "1"]}}}}, {"name": "FeatureExtractor/MobileDetCPU/IBN_2/SqueezeExcite/Conv_1/Sigmoid", "op": "Sigmoid", "input": ["FeatureExtractor/MobileDetCPU/IBN_2/SqueezeExcite/Conv_1/BiasAdd"], "attr": {"T": {"type": "DT_FLOAT"}}}, {"name": "FeatureExtractor/MobileDetCPU/IBN_2/SqueezeExcite/mul", "op": "Mul", "input": ["FeatureExtractor/MobileDetCPU/IBN_2/SqueezeExcite/Conv_1/Sigmoid", "FeatureExtractor/MobileDetCPU/IBN_2/SeparableConv2d/swish6/mul_1"], "attr": {"T": {"type": "DT_FLOAT"}}}, {"name": "FeatureExtractor/MobileDetCPU/IBN_2/Conv_1/BatchNorm/FusedBatchNormV3", "op": "_FusedConv2D", "input": ["FeatureExtractor/MobileDetCPU/IBN_2/SqueezeExcite/mul", "FeatureExtractor/MobileDetCPU/IBN_2/Conv_1/Conv2D_weights", "FeatureExtractor/MobileDetCPU/IBN_2/Conv_1/Conv2D_bn_offset"], "device": "/device:CPU:0", "attr": {"num_args": {"i": "1"}, "epsilon": {"f": 0.0}, "padding": {"s": "U0FNRQ=="}, "fused_ops": {"list": {"s": ["Qmlhc0FkZA=="]}}, "dilations": {"list": {"i": ["1", "1", "1", "1"]}}, "T": {"type": "DT_FLOAT"}, "strides": {"list": {"i": ["1", "1", "1", "1"]}}, "data_format": {"s": "TkhXQw=="}, "use_cudnn_on_gpu": {"b": true}, "explicit_paddings": {"list": {}}}}, {"name": "FeatureExtractor/MobileDetCPU/IBN_2/add", "op": "AddV2", "input": ["FeatureExtractor/MobileDetCPU/IBN_2/Conv_1/BatchNorm/FusedBatchNormV3", "FeatureExtractor/MobileDetCPU/IBN_1/Conv_1/BatchNorm/FusedBatchNormV3"], "attr": {"T": {"type": "DT_FLOAT"}}}, {"name": "FeatureExtractor/MobileDetCPU/IBN_3/Conv/BatchNorm/FusedBatchNormV3", "op": "_FusedConv2D", "input": ["FeatureExtractor/MobileDetCPU/IBN_2/add", "FeatureExtractor/MobileDetCPU/IBN_3/Conv/Conv2D_weights", "FeatureExtractor/MobileDetCPU/IBN_3/Conv/Conv2D_bn_offset"], "device": "/device:CPU:0", "attr": {"dilations": {"list": {"i": ["1", "1", "1", "1"]}}, "T": {"type": "DT_FLOAT"}, "data_format": {"s": "TkhXQw=="}, "strides": {"list": {"i": ["1", "1", "1", "1"]}}, "use_cudnn_on_gpu": {"b": true}, "explicit_paddings": {"list": {}}, "num_args": {"i": "1"}, "epsilon": {"f": 0.0}, "padding": {"s": "U0FNRQ=="}, "fused_ops": {"list": {"s": ["Qmlhc0FkZA=="]}}}}, {"name": "FeatureExtractor/MobileDetCPU/IBN_3/Conv/swish6/mul", "op": "Mul", "input": ["FeatureExtractor/MobileDetCPU/IBN_3/Conv/swish6/mul_1/y", "FeatureExtractor/MobileDetCPU/IBN_3/Conv/BatchNorm/FusedBatchNormV3"], "attr": {"T": {"type": "DT_FLOAT"}, "_grappler_ArithmeticOptimizer_MinimizeBroadcasts": {"b": true}}}, {"name": "FeatureExtractor/MobileDetCPU/IBN_3/Conv/swish6/add", "op": "AddV2", "input": ["FeatureExtractor/MobileDetCPU/IBN_3/Conv/BatchNorm/FusedBatchNormV3", "FeatureExtractor/MobileDetCPU/IBN_3/Conv/swish6/add/y"], "attr": {"T": {"type": "DT_FLOAT"}}}, {"name": "FeatureExtractor/MobileDetCPU/IBN_3/Conv/swish6/Relu6", "op": "Relu6", "input": ["FeatureExtractor/MobileDetCPU/IBN_3/Conv/swish6/add"], "attr": {"T": {"type": "DT_FLOAT"}}}, {"name": "FeatureExtractor/MobileDetCPU/IBN_3/Conv/swish6/mul_1", "op": "Mul", "input": ["FeatureExtractor/MobileDetCPU/IBN_3/Conv/swish6/mul", "FeatureExtractor/MobileDetCPU/IBN_3/Conv/swish6/Relu6"], "attr": {"T": {"type": "DT_FLOAT"}, "_grappler_ArithmeticOptimizer_MinimizeBroadcasts": {"b": true}}}, {"name": "FeatureExtractor/MobileDetCPU/IBN_3/SeparableConv2d/depthwise", "op": "FusedDepthwiseConv2dNative", "input": ["FeatureExtractor/MobileDetCPU/IBN_3/Conv/swish6/mul_1", "FeatureExtractor/MobileDetCPU/IBN_3/SeparableConv2d/depthwise_weights", "FeatureExtractor/MobileDetCPU/IBN_3/SeparableConv2d/depthwise_bn_offset"], "attr": {"dilations": {"list": {"i": ["1", "1", "1", "1"]}}, "T": {"type": "DT_FLOAT"}, "strides": {"list": {"i": ["1", "1", "1", "1"]}}, "data_format": {"s": "TkhXQw=="}, "explicit_paddings": {"list": {}}, "num_args": {"i": "1"}, "padding": {"s": "U0FNRQ=="}, "fused_ops": {"list": {"s": ["Qmlhc0FkZA=="]}}}}, {"name": "FeatureExtractor/MobileDetCPU/IBN_3/SeparableConv2d/swish6/mul", "op": "Mul", "input": ["FeatureExtractor/MobileDetCPU/IBN_3/SeparableConv2d/swish6/mul_1/y", "FeatureExtractor/MobileDetCPU/IBN_3/SeparableConv2d/depthwise"], "attr": {"T": {"type": "DT_FLOAT"}, "_grappler_ArithmeticOptimizer_MinimizeBroadcasts": {"b": true}}}, {"name": "FeatureExtractor/MobileDetCPU/IBN_3/SeparableConv2d/swish6/add", "op": "AddV2", "input": ["FeatureExtractor/MobileDetCPU/IBN_3/SeparableConv2d/depthwise", "FeatureExtractor/MobileDetCPU/IBN_3/SeparableConv2d/swish6/add/y"], "attr": {"T": {"type": "DT_FLOAT"}}}, {"name": "FeatureExtractor/MobileDetCPU/IBN_3/SeparableConv2d/swish6/Relu6", "op": "Relu6", "input": ["FeatureExtractor/MobileDetCPU/IBN_3/SeparableConv2d/swish6/add"], "attr": {"T": {"type": "DT_FLOAT"}}}, {"name": "FeatureExtractor/MobileDetCPU/IBN_3/SeparableConv2d/swish6/mul_1", "op": "Mul", "input": ["FeatureExtractor/MobileDetCPU/IBN_3/SeparableConv2d/swish6/mul", "FeatureExtractor/MobileDetCPU/IBN_3/SeparableConv2d/swish6/Relu6"], "attr": {"T": {"type": "DT_FLOAT"}, "_grappler_ArithmeticOptimizer_MinimizeBroadcasts": {"b": true}}}, {"name": "FeatureExtractor/MobileDetCPU/IBN_3/SqueezeExcite/AvgPool2D/AvgPool", "op": "AvgPool", "input": ["FeatureExtractor/MobileDetCPU/IBN_3/SeparableConv2d/swish6/mul_1"], "attr": {"ksize": {"list": {"i": ["1", "40", "40", "1"]}}, "padding": {"s": "VkFMSUQ="}, "T": {"type": "DT_FLOAT"}, "data_format": {"s": "TkhXQw=="}, "strides": {"list": {"i": ["1", "1", "1", "1"]}}}}, {"name": "FeatureExtractor/MobileDetCPU/IBN_3/SqueezeExcite/Conv/BiasAdd", "op": "_FusedConv2D", "input": ["FeatureExtractor/MobileDetCPU/IBN_3/SqueezeExcite/AvgPool2D/AvgPool", "FeatureExtractor/MobileDetCPU/IBN_3/SqueezeExcite/Conv/weights", "FeatureExtractor/MobileDetCPU/IBN_3/SqueezeExcite/Conv/biases"], "device": "/device:CPU:0", "attr": {"dilations": {"list": {"i": ["1", "1", "1", "1"]}}, "T": {"type": "DT_FLOAT"}, "data_format": {"s": "TkhXQw=="}, "strides": {"list": {"i": ["1", "1", "1", "1"]}}, "use_cudnn_on_gpu": {"b": true}, "explicit_paddings": {"list": {}}, "num_args": {"i": "1"}, "epsilon": {"f": 0.0}, "padding": {"s": "U0FNRQ=="}, "fused_ops": {"list": {"s": ["Qmlhc0FkZA=="]}}}}, {"name": "FeatureExtractor/MobileDetCPU/IBN_3/SqueezeExcite/Conv/swish6/mul", "op": "Mul", "input": ["FeatureExtractor/MobileDetCPU/IBN_3/SqueezeExcite/Conv/swish6/mul_1/y", "FeatureExtractor/MobileDetCPU/IBN_3/SqueezeExcite/Conv/BiasAdd"], "attr": {"_grappler_ArithmeticOptimizer_MinimizeBroadcasts": {"b": true}, "T": {"type": "DT_FLOAT"}}}, {"name": "FeatureExtractor/MobileDetCPU/IBN_3/SqueezeExcite/Conv/swish6/add", "op": "AddV2", "input": ["FeatureExtractor/MobileDetCPU/IBN_3/SqueezeExcite/Conv/BiasAdd", "FeatureExtractor/MobileDetCPU/IBN_3/SqueezeExcite/Conv/swish6/add/y"], "attr": {"T": {"type": "DT_FLOAT"}}}, {"name": "FeatureExtractor/MobileDetCPU/IBN_3/SqueezeExcite/Conv/swish6/Relu6", "op": "Relu6", "input": ["FeatureExtractor/MobileDetCPU/IBN_3/SqueezeExcite/Conv/swish6/add"], "attr": {"T": {"type": "DT_FLOAT"}}}, {"name": "FeatureExtractor/MobileDetCPU/IBN_3/SqueezeExcite/Conv/swish6/mul_1", "op": "Mul", "input": ["FeatureExtractor/MobileDetCPU/IBN_3/SqueezeExcite/Conv/swish6/mul", "FeatureExtractor/MobileDetCPU/IBN_3/SqueezeExcite/Conv/swish6/Relu6"], "attr": {"T": {"type": "DT_FLOAT"}, "_grappler_ArithmeticOptimizer_MinimizeBroadcasts": {"b": true}}}, {"name": "FeatureExtractor/MobileDetCPU/IBN_3/SqueezeExcite/Conv_1/BiasAdd", "op": "_FusedConv2D", "input": ["FeatureExtractor/MobileDetCPU/IBN_3/SqueezeExcite/Conv/swish6/mul_1", "FeatureExtractor/MobileDetCPU/IBN_3/SqueezeExcite/Conv_1/weights", "FeatureExtractor/MobileDetCPU/IBN_3/SqueezeExcite/Conv_1/biases"], "device": "/device:CPU:0", "attr": {"T": {"type": "DT_FLOAT"}, "data_format": {"s": "TkhXQw=="}, "strides": {"list": {"i": ["1", "1", "1", "1"]}}, "use_cudnn_on_gpu": {"b": true}, "explicit_paddings": {"list": {}}, "num_args": {"i": "1"}, "epsilon": {"f": 0.0}, "padding": {"s": "U0FNRQ=="}, "fused_ops": {"list": {"s": ["Qmlhc0FkZA=="]}}, "dilations": {"list": {"i": ["1", "1", "1", "1"]}}}}, {"name": "FeatureExtractor/MobileDetCPU/IBN_3/SqueezeExcite/Conv_1/Sigmoid", "op": "Sigmoid", "input": ["FeatureExtractor/MobileDetCPU/IBN_3/SqueezeExcite/Conv_1/BiasAdd"], "attr": {"T": {"type": "DT_FLOAT"}}}, {"name": "FeatureExtractor/MobileDetCPU/IBN_3/SqueezeExcite/mul", "op": "Mul", "input": ["FeatureExtractor/MobileDetCPU/IBN_3/SqueezeExcite/Conv_1/Sigmoid", "FeatureExtractor/MobileDetCPU/IBN_3/SeparableConv2d/swish6/mul_1"], "attr": {"T": {"type": "DT_FLOAT"}}}, {"name": "FeatureExtractor/MobileDetCPU/IBN_3/Conv_1/BatchNorm/FusedBatchNormV3", "op": "_FusedConv2D", "input": ["FeatureExtractor/MobileDetCPU/IBN_3/SqueezeExcite/mul", "FeatureExtractor/MobileDetCPU/IBN_3/Conv_1/Conv2D_weights", "FeatureExtractor/MobileDetCPU/IBN_3/Conv_1/Conv2D_bn_offset"], "device": "/device:CPU:0", "attr": {"num_args": {"i": "1"}, "epsilon": {"f": 0.0}, "padding": {"s": "U0FNRQ=="}, "fused_ops": {"list": {"s": ["Qmlhc0FkZA=="]}}, "dilations": {"list": {"i": ["1", "1", "1", "1"]}}, "T": {"type": "DT_FLOAT"}, "data_format": {"s": "TkhXQw=="}, "strides": {"list": {"i": ["1", "1", "1", "1"]}}, "use_cudnn_on_gpu": {"b": true}, "explicit_paddings": {"list": {}}}}, {"name": "FeatureExtractor/MobileDetCPU/IBN_3/add", "op": "AddV2", "input": ["FeatureExtractor/MobileDetCPU/IBN_3/Conv_1/BatchNorm/FusedBatchNormV3", "FeatureExtractor/MobileDetCPU/IBN_2/add"], "attr": {"T": {"type": "DT_FLOAT"}}}, {"name": "FeatureExtractor/MobileDetCPU/IBN_4/Conv/BatchNorm/FusedBatchNormV3", "op": "_FusedConv2D", "input": ["FeatureExtractor/MobileDetCPU/IBN_3/add", "FeatureExtractor/MobileDetCPU/IBN_4/Conv/Conv2D_weights", "FeatureExtractor/MobileDetCPU/IBN_4/Conv/Conv2D_bn_offset"], "device": "/device:CPU:0", "attr": {"fused_ops": {"list": {"s": ["Qmlhc0FkZA=="]}}, "dilations": {"list": {"i": ["1", "1", "1", "1"]}}, "T": {"type": "DT_FLOAT"}, "strides": {"list": {"i": ["1", "1", "1", "1"]}}, "data_format": {"s": "TkhXQw=="}, "use_cudnn_on_gpu": {"b": true}, "explicit_paddings": {"list": {}}, "num_args": {"i": "1"}, "epsilon": {"f": 0.0}, "padding": {"s": "U0FNRQ=="}}}, {"name": "FeatureExtractor/MobileDetCPU/IBN_4/Conv/swish6/mul", "op": "Mul", "input": ["FeatureExtractor/MobileDetCPU/IBN_4/Conv/swish6/mul_1/y", "FeatureExtractor/MobileDetCPU/IBN_4/Conv/BatchNorm/FusedBatchNormV3"], "attr": {"T": {"type": "DT_FLOAT"}, "_grappler_ArithmeticOptimizer_MinimizeBroadcasts": {"b": true}}}, {"name": "FeatureExtractor/MobileDetCPU/IBN_4/Conv/swish6/add", "op": "AddV2", "input": ["FeatureExtractor/MobileDetCPU/IBN_4/Conv/BatchNorm/FusedBatchNormV3", "FeatureExtractor/MobileDetCPU/IBN_4/Conv/swish6/add/y"], "attr": {"T": {"type": "DT_FLOAT"}}}, {"name": "FeatureExtractor/MobileDetCPU/IBN_4/Conv/swish6/Relu6", "op": "Relu6", "input": ["FeatureExtractor/MobileDetCPU/IBN_4/Conv/swish6/add"], "attr": {"T": {"type": "DT_FLOAT"}}}, {"name": "FeatureExtractor/MobileDetCPU/IBN_4/Conv/swish6/mul_1", "op": "Mul", "input": ["FeatureExtractor/MobileDetCPU/IBN_4/Conv/swish6/mul", "FeatureExtractor/MobileDetCPU/IBN_4/Conv/swish6/Relu6"], "attr": {"T": {"type": "DT_FLOAT"}, "_grappler_ArithmeticOptimizer_MinimizeBroadcasts": {"b": true}}}, {"name": "FeatureExtractor/MobileDetCPU/IBN_4/SeparableConv2d/depthwise", "op": "FusedDepthwiseConv2dNative", "input": ["FeatureExtractor/MobileDetCPU/IBN_4/Conv/swish6/mul_1", "FeatureExtractor/MobileDetCPU/IBN_4/SeparableConv2d/depthwise_weights", "FeatureExtractor/MobileDetCPU/IBN_4/SeparableConv2d/depthwise_bn_offset"], "attr": {"num_args": {"i": "1"}, "padding": {"s": "U0FNRQ=="}, "fused_ops": {"list": {"s": ["Qmlhc0FkZA=="]}}, "dilations": {"list": {"i": ["1", "1", "1", "1"]}}, "T": {"type": "DT_FLOAT"}, "strides": {"list": {"i": ["1", "1", "1", "1"]}}, "data_format": {"s": "TkhXQw=="}, "explicit_paddings": {"lis…
Suppression/stack", "shape": [2], "dtype": "int32"}, {"name": "Postprocessor/BatchMultiClassNonMaxSuppression/MultiClassNonMaxSuppression/Reshape/shape", "shape": [1], "dtype": "int32"}, {"name": "Postprocessor/BatchMultiClassNonMaxSuppression/MultiClassNonMaxSuppression/non_max_suppression_padded/NonMaxSuppressionV4/max_output_size", "shape": [], "dtype": "int32"}, {"name": "Postprocessor/BatchMultiClassNonMaxSuppression/MultiClassNonMaxSuppression/non_max_suppression_padded/iou_threshold", "shape": [], "dtype": "float32"}, {"name": "Postprocessor/BatchMultiClassNonMaxSuppression/MultiClassNonMaxSuppression/non_max_suppression_padded/score_threshold", "shape": [], "dtype": "float32"}, {"name": "Postprocessor/BatchMultiClassNonMaxSuppression/MultiClassNonMaxSuppression/Gather/GatherV2_1/axis", "shape": [], "dtype": "int32"}, {"name": "Postprocessor/BatchMultiClassNonMaxSuppression/MultiClassNonMaxSuppression/mul", "shape": [5], "dtype": "float32"}, {"name": "Postprocessor/BatchMultiClassNonMaxSuppression/MultiClassNonMaxSuppression/range_1", "shape": [5], "dtype": "int32"}, {"name": "Postprocessor/BatchMultiClassNonMaxSuppression/Less", "shape": [2034], "dtype": "bool"}, {"name": "Postprocessor/Slice/begin", "shape": [3], "dtype": "int32"}, {"name": "Postprocessor/Slice/size", "shape": [3], "dtype": "int32"}, {"name": "Postprocessor/BatchMultiClassNonMaxSuppression/Fill", "shape": [2034, 2], "dtype": "float32"}, {"name": "Postprocessor/BatchMultiClassNonMaxSuppression/MultiClassNonMaxSuppression/Slice_1/begin", "shape": [2], "dtype": "int32"}, {"name": "Postprocessor/BatchMultiClassNonMaxSuppression/MultiClassNonMaxSuppression/stack_1", "shape": [2], "dtype": "int32"}, {"name": "Postprocessor/BatchMultiClassNonMaxSuppression/MultiClassNonMaxSuppression/Reshape_1/shape", "shape": [1], "dtype": "int32"}, {"name": "Postprocessor/BatchMultiClassNonMaxSuppression/MultiClassNonMaxSuppression/non_max_suppression_padded_1/NonMaxSuppressionV4/max_output_size", "shape": [], "dtype": "int32"}, {"name": "Postprocessor/BatchMultiClassNonMaxSuppression/MultiClassNonMaxSuppression/non_max_suppression_padded_1/iou_threshold", "shape": [], "dtype": "float32"}, {"name": "Postprocessor/BatchMultiClassNonMaxSuppression/MultiClassNonMaxSuppression/non_max_suppression_padded_1/score_threshold", "shape": [], "dtype": "float32"}, {"name": "Postprocessor/BatchMultiClassNonMaxSuppression/MultiClassNonMaxSuppression/Gather_1/GatherV2_1/axis", "shape": [], "dtype": "int32"}, {"name": "Postprocessor/BatchMultiClassNonMaxSuppression/MultiClassNonMaxSuppression/mul_1", "shape": [5], "dtype": "float32"}, {"name": "Postprocessor/BatchMultiClassNonMaxSuppression/MultiClassNonMaxSuppression/Concatenate/concat_1/axis", "shape": [], "dtype": "int32"}, {"name": "Postprocessor/BatchMultiClassNonMaxSuppression/MultiClassNonMaxSuppression/SortByField/strided_slice", "shape": [], "dtype": "int32"}, {"name": "Postprocessor/BatchMultiClassNonMaxSuppression/MultiClassNonMaxSuppression/SortByField/Gather/GatherV2_1/axis", "shape": [], "dtype": "int32"}, {"name": "Postprocessor/BatchMultiClassNonMaxSuppression/MultiClassNonMaxSuppression/mul_2", "shape": [10], "dtype": "float32"}, {"name": "Postprocessor/BatchMultiClassNonMaxSuppression/MultiClassNonMaxSuppression/GreaterEqual/y", "shape": [], "dtype": "float32"}, {"name": "Postprocessor/BatchMultiClassNonMaxSuppression/MultiClassNonMaxSuppression/Const_1", "shape": [1], "dtype": "int32"}, {"name": "Postprocessor/BatchMultiClassNonMaxSuppression/MultiClassNonMaxSuppression/Minimum", "shape": [], "dtype": "int32"}, {"name": "ConstantFolding/Postprocessor/Decode/truediv_4_recip", "shape": [], "dtype": "float32"}, {"name": "ConstantFolding/Postprocessor/Decode/truediv_5_recip", "shape": [], "dtype": "float32"}, {"name": "Postprocessor/Decode/truediv", "shape": [2034], "dtype": "float32"}, {"name": "Postprocessor/Decode/get_center_coordinates_and_sizes/add", "shape": [2034], "dtype": "float32"}, {"name": "ConstantFolding/Postprocessor/Decode/truediv_2_recip", "shape": [], "dtype": "float32"}, {"name": "Postprocessor/Decode/get_center_coordinates_and_sizes/sub_1", "shape": [2034], "dtype": "float32"}, {"name": "ConstantFolding/Postprocessor/Decode/truediv_6_recip", "shape": [], "dtype": "float32"}, {"name": "Postprocessor/Decode/truediv_1", "shape": [2034], "dtype": "float32"}, {"name": "Postprocessor/Decode/get_center_coordinates_and_sizes/add_1", "shape": [2034], "dtype": "float32"}, {"name": "BoxPredictor_0/BoxEncodingPredictor/weights", "shape": [1, 1, 72, 12], "dtype": "float32"}, {"name": "BoxPredictor_0/BoxEncodingPredictor/biases", "shape": [12], "dtype": "float32"}, {"name": "BoxPredictor_0/Reshape/shape", "shape": [4], "dtype": "int32"}, {"name": "BoxPredictor_1/BoxEncodingPredictor/weights", "shape": [1, 1, 144, 24], "dtype": "float32"}, {"name": "BoxPredictor_1/BoxEncodingPredictor/biases", "shape": [24], "dtype": "float32"}, {"name": "BoxPredictor_1/Reshape/shape", "shape": [4], "dtype": "int32"}, {"name": "BoxPredictor_2/BoxEncodingPredictor/weights", "shape": [1, 1, 512, 24], "dtype": "float32"}, {"name": "BoxPredictor_2/BoxEncodingPredictor/biases", "shape": [24], "dtype": "float32"}, {"name": "BoxPredictor_2/Reshape/shape", "shape": [4], "dtype": "int32"}, {"name": "BoxPredictor_3/BoxEncodingPredictor/weights", "shape": [1, 1, 256, 24], "dtype": "float32"}, {"name": "BoxPredictor_3/BoxEncodingPredictor/biases", "shape": [24], "dtype": "float32"}, {"name": "BoxPredictor_3/Reshape/shape", "shape": [4], "dtype": "int32"}, {"name": "BoxPredictor_4/BoxEncodingPredictor/weights", "shape": [1, 1, 256, 24], "dtype": "float32"}, {"name": "BoxPredictor_4/BoxEncodingPredictor/biases", "shape": [24], "dtype": "float32"}, {"name": "BoxPredictor_4/Reshape/shape", "shape": [4], "dtype": "int32"}, {"name": "BoxPredictor_5/BoxEncodingPredictor/weights", "shape": [1, 1, 128, 24], "dtype": "float32"}, {"name": "BoxPredictor_5/BoxEncodingPredictor/biases", "shape": [24], "dtype": "float32"}, {"name": "BoxPredictor_5/Reshape/shape", "shape": [4], "dtype": "int32"}, {"name": "concat/axis", "shape": [], "dtype": "int32"}, {"name": "Postprocessor/Reshape_1/shape", "shape": [2], "dtype": "int32"}, {"name": "Postprocessor/Decode/transpose/perm", "shape": [2], "dtype": "int32"}, {"name": "ConstantFolding/Postprocessor/Decode/truediv_3_recip", "shape": [], "dtype": "float32"}, {"name": "Postprocessor/Decode/get_center_coordinates_and_sizes/sub", "shape": [2034], "dtype": "float32"}, {"name": "ConstantFolding/Postprocessor/Decode/truediv_7_recip", "shape": [], "dtype": "float32"}, {"name": "Postprocessor/Decode/transpose_1/perm", "shape": [2], "dtype": "int32"}, {"name": "Postprocessor/stack", "shape": [3], "dtype": "int32"}, {"name": "Postprocessor/ExpandDims_1/dim", "shape": [], "dtype": "int32"}, {"name": "BoxPredictor_0/ClassPredictor/weights", "shape": [1, 1, 72, 9], "dtype": "float32"}, {"name": "BoxPredictor_0/ClassPredictor/biases", "shape": [9], "dtype": "float32"}, {"name": "BoxPredictor_0/Reshape_1/shape", "shape": [3], "dtype": "int32"}, {"name": "BoxPredictor_1/ClassPredictor/weights", "shape": [1, 1, 144, 18], "dtype": "float32"}, {"name": "BoxPredictor_1/ClassPredictor/biases", "shape": [18], "dtype": "float32"}, {"name": "BoxPredictor_1/Reshape_1/shape", "shape": [3], "dtype": "int32"}, {"name": "BoxPredictor_2/ClassPredictor/weights", "shape": [1, 1, 512, 18], "dtype": "float32"}, {"name": "BoxPredictor_2/ClassPredictor/biases", "shape": [18], "dtype": "float32"}, {"name": "BoxPredictor_2/Reshape_1/shape", "shape": [3], "dtype": "int32"}, {"name": "BoxPredictor_3/ClassPredictor/weights", "shape": [1, 1, 256, 18], "dtype": "float32"}, {"name": "BoxPredictor_3/ClassPredictor/biases", "shape": [18], "dtype": "float32"}, {"name": "BoxPredictor_3/Reshape_1/shape", "shape": [3], "dtype": "int32"}, {"name": "BoxPredictor_4/ClassPredictor/weights", "shape": [1, 1, 256, 18], "dtype": "float32"}, {"name": "BoxPredictor_4/ClassPredictor/biases", "shape": [18], "dtype": "float32"}, {"name": "BoxPredictor_4/Reshape_1/shape", "shape": [3], "dtype": "int32"}, {"name": "FeatureExtractor/MobileDetCPU/IBN_17/SqueezeExcite/Conv/swish6/mul_1/y", "shape": [], "dtype": "float32"}, {"name": "FeatureExtractor/MobileDetCPU/IBN_17/SqueezeExcite/Conv/weights", "shape": [1, 1, 832, 208], "dtype": "float32"}, {"name": "FeatureExtractor/MobileDetCPU/IBN_17/SqueezeExcite/Conv/biases", "shape": [208], "dtype": "float32"}, {"name": "FeatureExtractor/MobileDetCPU/IBN_17/SqueezeExcite/Conv/swish6/add/y", "shape": [], "dtype": "float32"}, {"name": "FeatureExtractor/MobileDetCPU/IBN_17/SqueezeExcite/Conv_1/weights", "shape": [1, 1, 208, 832], "dtype": "float32"}, {"name": "FeatureExtractor/MobileDetCPU/IBN_17/SqueezeExcite/Conv_1/biases", "shape": [832], "dtype": "float32"}, {"name": "FeatureExtractor/MobileDetCPU/IBN_17/SeparableConv2d/swish6/mul_1/y", "shape": [], "dtype": "float32"}, {"name": "FeatureExtractor/MobileDetCPU/IBN_17/Conv/swish6/mul_1/y", "shape": [], "dtype": "float32"}, {"name": "FeatureExtractor/MobileDetCPU/IBN_16/SqueezeExcite/Conv/swish6/mul_1/y", "shape": [], "dtype": "float32"}, {"name": "FeatureExtractor/MobileDetCPU/IBN_16/SqueezeExcite/Conv/weights", "shape": [1, 1, 416, 104], "dtype": "float32"}, {"name": "FeatureExtractor/MobileDetCPU/IBN_16/SqueezeExcite/Conv/biases", "shape": [104], "dtype": "float32"}, {"name": "FeatureExtractor/MobileDetCPU/IBN_16/SqueezeExcite/Conv/swish6/add/y", "shape": [], "dtype": "float32"}, {"name": "FeatureExtractor/MobileDetCPU/IBN_16/SqueezeExcite/Conv_1/weights", "shape": [1, 1, 104, 416], "dtype": "float32"}, {"name": "FeatureExtractor/MobileDetCPU/IBN_16/SqueezeExcite/Conv_1/biases", "shape": [416], "dtype": "float32"}, {"name": "FeatureExtractor/MobileDetCPU/IBN_16/SeparableConv2d/swish6/mul_1/y", "shape": [], "dtype": "float32"}, {"name": "FeatureExtractor/MobileDetCPU/IBN_16/Conv/swish6/mul_1/y", "shape": [], "dtype": "float32"}, {"name": "FeatureExtractor/MobileDetCPU/IBN_16/Conv/swish6/add/y", "shape": [], "dtype": "float32"}, {"name": "FeatureExtractor/MobileDetCPU/IBN_16/SeparableConv2d/swish6/add/y", "shape": [], "dtype": "float32"}, {"name": "FeatureExtractor/MobileDetCPU/IBN_15/SqueezeExcite/Conv/swish6/mul_1/y", "shape": [], "dtype": "float32"}, {"name": "FeatureExtractor/MobileDetCPU/IBN_15/SqueezeExcite/Conv/weights", "shape": [1, 1, 416, 104], "dtype": "float32"}, {"name": "FeatureExtractor/MobileDetCPU/IBN_15/SqueezeExcite/Conv/biases", "shape": [104], "dtype": "float32"}, {"name": "FeatureExtractor/MobileDetCPU/IBN_15/SqueezeExcite/Conv/swish6/add/y", "shape": [], "dtype": "float32"}, {"name": "FeatureExtractor/MobileDetCPU/IBN_15/SqueezeExcite/Conv_1/weights", "shape": [1, 1, 104, 416], "dtype": "float32"}, {"name": "FeatureExtractor/MobileDetCPU/IBN_15/SqueezeExcite/Conv_1/biases", "shape": [416], "dtype": "float32"}, {"name": "FeatureExtractor/MobileDetCPU/IBN_15/SeparableConv2d/swish6/mul_1/y", "shape": [], "dtype": "float32"}, {"name": "FeatureExtractor/MobileDetCPU/IBN_15/Conv/swish6/mul_1/y", "shape": [], "dtype": "float32"}, {"name": "FeatureExtractor/MobileDetCPU/IBN_15/Conv/swish6/add/y", "shape": [], "dtype": "float32"}, {"name": "FeatureExtractor/MobileDetCPU/IBN_15/SeparableConv2d/swish6/add/y", "shape": [], "dtype": "float32"}, {"name": "FeatureExtractor/MobileDetCPU/IBN_14/SqueezeExcite/Conv/swish6/mul_1/y", "shape": [], "dtype": "float32"}, {"name": "FeatureExtractor/MobileDetCPU/IBN_14/SqueezeExcite/Conv/weights", "shape": [1, 1, 416, 104], "dtype": "float32"}, {"name": "FeatureExtractor/MobileDetCPU/IBN_14/SqueezeExcite/Conv/biases", "shape": [104], "dtype": "float32"}, {"name": "FeatureExtractor/MobileDetCPU/IBN_14/SqueezeExcite/Conv/swish6/add/y", "shape": [], "dtype": "float32"}, {"name": "FeatureExtractor/MobileDetCPU/IBN_14/SqueezeExcite/Conv_1/weights", "shape": [1, 1, 104, 416], "dtype": "float32"}, {"name": "FeatureExtractor/MobileDetCPU/IBN_14/SqueezeExcite/Conv_1/biases", "shape": [416], "dtype": "float32"}, {"name": "FeatureExtractor/MobileDetCPU/IBN_14/SeparableConv2d/swish6/mul_1/y", "shape": [], "dtype": "float32"}, {"name": "FeatureExtractor/MobileDetCPU/IBN_14/Conv/swish6/mul_1/y", "shape": [], "dtype": "float32"}, {"name": "FeatureExtractor/MobileDetCPU/IBN_14/Conv/swish6/add/y", "shape": [], "dtype": "float32"}, {"name": "FeatureExtractor/MobileDetCPU/IBN_14/SeparableConv2d/swish6/add/y", "shape": [], "dtype": "float32"}, {"name": "FeatureExtractor/MobileDetCPU/IBN_13/SqueezeExcite/Conv/swish6/mul_1/y", "shape": [], "dtype": "float32"}, {"name": "FeatureExtractor/MobileDetCPU/IBN_13/SqueezeExcite/Conv/weights", "shape": [1, 1, 576, 144], "dtype": "float32"}, {"name": "FeatureExtractor/MobileDetCPU/IBN_13/SqueezeExcite/Conv/biases", "shape": [144], "dtype": "float32"}, {"name": "FeatureExtractor/MobileDetCPU/IBN_13/SqueezeExcite/Conv/swish6/add/y", "shape": [], "dtype": "float32"}, {"name": "FeatureExtractor/MobileDetCPU/IBN_13/SqueezeExcite/Conv_1/weights", "shape": [1, 1, 144, 576], "dtype": "float32"}, {"name": "FeatureExtractor/MobileDetCPU/IBN_13/SqueezeExcite/Conv_1/biases", "shape": [576], "dtype": "float32"}, {"name": "FeatureExtractor/MobileDetCPU/IBN_13/SeparableConv2d/swish6/mul_1/y", "shape": [], "dtype": "float32"}, {"name": "FeatureExtractor/MobileDetCPU/IBN_13/Conv/swish6/mul_1/y", "shape": [], "dtype": "float32"}, {"name": "FeatureExtractor/MobileDetCPU/IBN_12/SqueezeExcite/Conv/swish6/mul_1/y", "shape": [], "dtype": "float32"}, {"name": "FeatureExtractor/MobileDetCPU/IBN_12/SqueezeExcite/Conv/weights", "shape": [1, 1, 576, 144], "dtype": "float32"}, {"name": "FeatureExtractor/MobileDetCPU/IBN_12/SqueezeExcite/Conv/biases", "shape": [144], "dtype": "float32"}, {"name": "FeatureExtractor/MobileDetCPU/IBN_12/SqueezeExcite/Conv/swish6/add/y", "shape": [], "dtype": "float32"}, {"name": "FeatureExtractor/MobileDetCPU/IBN_12/SqueezeExcite/Conv_1/weights", "shape": [1, 1, 144, 576], "dtype": "float32"}, {"name": "FeatureExtractor/MobileDetCPU/IBN_12/SqueezeExcite/Conv_1/biases", "shape": [576], "dtype": "float32"}, {"name": "FeatureExtractor/MobileDetCPU/IBN_12/SeparableConv2d/swish6/mul_1/y", "shape": [], "dtype": "float32"}, {"name": "FeatureExtractor/MobileDetCPU/IBN_12/Conv/swish6/mul_1/y", "shape": [], "dtype": "float32"}, {"name": "FeatureExtractor/MobileDetCPU/IBN_12/Conv/swish6/add/y", "shape": [], "dtype": "float32"}, {"name": "FeatureExtractor/MobileDetCPU/IBN_12/SeparableConv2d/swish6/add/y", "shape": [], "dtype": "float32"}, {"name": "FeatureExtractor/MobileDetCPU/IBN_11/SqueezeExcite/Conv/swish6/mul_1/y", "shape": [], "dtype": "float32"}, {"name": "FeatureExtractor/MobileDetCPU/IBN_11/SqueezeExcite/Conv/weights", "shape": [1, 1, 576, 144], "dtype": "float32"}, {"name": "FeatureExtractor/MobileDetCPU/IBN_11/SqueezeExcite/Conv/biases", "shape": [144], "dtype": "float32"}, {"name": "FeatureExtractor/MobileDetCPU/IBN_11/SqueezeExcite/Conv/swish6/add/y", "shape": [], "dtype": "float32"}, {"name": "FeatureExtractor/MobileDetCPU/IBN_11/SqueezeExcite/Conv_1/weights", "shape": [1, 1, 144, 576], "dtype": "float32"}, {"name": "FeatureExtractor/MobileDetCPU/IBN_11/SqueezeExcite/Conv_1/biases", "shape": [576], "dtype": "float32"}, {"name": "FeatureExtractor/MobileDetCPU/IBN_11/SeparableConv2d/swish6/mul_1/y", "shape": [], "dtype": "float32"}, {"name": "FeatureExtractor/MobileDetCPU/IBN_11/Conv/swish6/mul_1/y", "shape": [], "dtype": "float32"}, {"name": "FeatureExtractor/MobileDetCPU/IBN_11/Conv/swish6/add/y", "shape": [], "dtype": "float32"}, {"name": "FeatureExtractor/MobileDetCPU/IBN_11/SeparableConv2d/swish6/add/y", "shape": [], "dtype": "float32"}, {"name": "FeatureExtractor/MobileDetCPU/IBN_10/SqueezeExcite/Conv/swish6/mul_1/y", "shape": [], "dtype": "float32"}, {"name": "FeatureExtractor/MobileDetCPU/IBN_10/SqueezeExcite/Conv/weights", "shape": [1, 1, 576, 144], "dtype": "float32"}, {"name": "FeatureExtractor/MobileDetCPU/IBN_10/SqueezeExcite/Conv/biases", "shape": [144], "dtype": "float32"}, {"name": "FeatureExtractor/MobileDetCPU/IBN_10/SqueezeExcite/Conv/swish6/add/y", "shape": [], "dtype": "float32"}, {"name": "FeatureExtractor/MobileDetCPU/IBN_10/SqueezeExcite/Conv_1/weights", "shape": [1, 1, 144, 576], "dtype": "float32"}, {"name": "FeatureExtractor/MobileDetCPU/IBN_10/SqueezeExcite/Conv_1/biases", "shape": [576], "dtype": "float32"}, {"name": "FeatureExtractor/MobileDetCPU/IBN_10/SeparableConv2d/swish6/mul_1/y", "shape": [], "dtype": "float32"}, {"name": "FeatureExtractor/MobileDetCPU/IBN_10/Conv/swish6/mul_1/y", "shape": [], "dtype": "float32"}, {"name": "FeatureExtractor/MobileDetCPU/IBN_10/Conv/swish6/add/y", "shape": [], "dtype": "float32"}, {"name": "FeatureExtractor/MobileDetCPU/IBN_10/SeparableConv2d/swish6/add/y", "shape": [], "dtype": "float32"}, {"name": "FeatureExtractor/MobileDetCPU/IBN_9/SqueezeExcite/Conv/swish6/mul_1/y", "shape": [], "dtype": "float32"}, {"name": "FeatureExtractor/MobileDetCPU/IBN_9/SqueezeExcite/Conv/weights", "shape": [1, 1, 576, 144], "dtype": "float32"}, {"name": "FeatureExtractor/MobileDetCPU/IBN_9/SqueezeExcite/Conv/biases", "shape": [144], "dtype": "float32"}, {"name": "FeatureExtractor/MobileDetCPU/IBN_9/SqueezeExcite/Conv/swish6/add/y", "shape": [], "dtype": "float32"}, {"name": "FeatureExtractor/MobileDetCPU/IBN_9/SqueezeExcite/Conv_1/weights", "shape": [1, 1, 144, 576], "dtype": "float32"}, {"name": "FeatureExtractor/MobileDetCPU/IBN_9/SqueezeExcite/Conv_1/biases", "shape": [576], "dtype": "float32"}, {"name": "FeatureExtractor/MobileDetCPU/IBN_9/SeparableConv2d/swish6/mul_1/y", "shape": [], "dtype": "float32"}, {"name": "FeatureExtractor/MobileDetCPU/IBN_9/Conv/swish6/mul_1/y", "shape": [], "dtype": "float32"}, {"name": "FeatureExtractor/MobileDetCPU/IBN_8/SqueezeExcite/Conv/swish6/mul_1/y", "shape": [], "dtype": "float32"}, {"name": "FeatureExtractor/MobileDetCPU/IBN_8/SqueezeExcite/Conv/weights", "shape": [1, 1, 288, 72], "dtype": "float32"}, {"name": "FeatureExtractor/MobileDetCPU/IBN_8/SqueezeExcite/Conv/biases", "shape": [72], "dtype": "float32"}, {"name": "FeatureExtractor/MobileDetCPU/IBN_8/SqueezeExcite/Conv/swish6/add/y", "shape": [], "dtype": "float32"}, {"name": "FeatureExtractor/MobileDetCPU/IBN_8/SqueezeExcite/Conv_1/weights", "shape": [1, 1, 72, 288], "dtype": "float32"}, {"name": "FeatureExtractor/MobileDetCPU/IBN_8/SqueezeExcite/Conv_1/biases", "shape": [288], "dtype": "float32"}, {"name": "FeatureExtractor/MobileDetCPU/IBN_8/SeparableConv2d/swish6/mul_1/y", "shape": [], "dtype": "float32"}, {"name": "FeatureExtractor/MobileDetCPU/IBN_8/Conv/swish6/mul_1/y", "shape": [], "dtype": "float32"}, {"name": "FeatureExtractor/MobileDetCPU/IBN_8/Conv/swish6/add/y", "shape": [], "dtype": "float32"}, {"name": "FeatureExtractor/MobileDetCPU/IBN_8/SeparableConv2d/swish6/add/y", "shape": [], "dtype": "float32"}, {"name": "FeatureExtractor/MobileDetCPU/IBN_7/SqueezeExcite/Conv/swish6/mul_1/y", "shape": [], "dtype": "float32"}, {"name": "FeatureExtractor/MobileDetCPU/IBN_7/SqueezeExcite/Conv/weights", "shape": [1, 1, 288, 72], "dtype": "float32"}, {"name": "FeatureExtractor/MobileDetCPU/IBN_7/SqueezeExcite/Conv/biases", "shape": [72], "dtype": "float32"}, {"name": "FeatureExtractor/MobileDetCPU/IBN_7/SqueezeExcite/Conv/swish6/add/y", "shape": [], "dtype": "float32"}, {"name": "FeatureExtractor/MobileDetCPU/IBN_7/SqueezeExcite/Conv_1/weights", "shape": [1, 1, 72, 288], "dtype": "float32"}, {"name": "FeatureExtractor/MobileDetCPU/IBN_7/SqueezeExcite/Conv_1/biases", "shape": [288], "dtype": "float32"}, {"name": "FeatureExtractor/MobileDetCPU/IBN_7/SeparableConv2d/swish6/mul_1/y", "shape": [], "dtype": "float32"}, {"name": "FeatureExtractor/MobileDetCPU/IBN_7/Conv/swish6/mul_1/y", "shape": [], "dtype": "float32"}, {"name": "FeatureExtractor/MobileDetCPU/IBN_7/Conv/swish6/add/y", "shape": [], "dtype": "float32"}, {"name": "FeatureExtractor/MobileDetCPU/IBN_7/SeparableConv2d/swish6/add/y", "shape": [], "dtype": "float32"}, {"name": "FeatureExtractor/MobileDetCPU/IBN_6/SqueezeExcite/Conv/swish6/mul_1/y", "shape": [], "dtype": "float32"}, {"name": "FeatureExtractor/MobileDetCPU/IBN_6/SqueezeExcite/Conv/weights", "shape": [1, 1, 576, 144], "dtype": "float32"}, {"name": "FeatureExtractor/MobileDetCPU/IBN_6/SqueezeExcite/Conv/biases", "shape": [144], "dtype": "float32"}, {"name": "FeatureExtractor/MobileDetCPU/IBN_6/SqueezeExcite/Conv/swish6/add/y", "shape": [], "dtype": "float32"}, {"name": "FeatureExtractor/MobileDetCPU/IBN_6/SqueezeExcite/Conv_1/weights", "shape": [1, 1, 144, 576], "dtype": "float32"}, {"name": "FeatureExtractor/MobileDetCPU/IBN_6/SqueezeExcite/Conv_1/biases", "shape": [576], "dtype": "float32"}, {"name": "FeatureExtractor/MobileDetCPU/IBN_6/SeparableConv2d/swish6/mul_1/y", "shape": [], "dtype": "float32"}, {"name": "FeatureExtractor/MobileDetCPU/IBN_6/Conv/swish6/mul_1/y", "shape": [], "dtype": "float32"}, {"name": "FeatureExtractor/MobileDetCPU/IBN_6/Conv/swish6/add/y", "shape": [], "dtype": "float32"}, {"name": "FeatureExtractor/MobileDetCPU/IBN_6/SeparableConv2d/swish6/add/y", "shape": [], "dtype": "float32"}, {"name": "FeatureExtractor/MobileDetCPU/IBN_5/SqueezeExcite/Conv/swish6/mul_1/y", "shape": [], "dtype": "float32"}, {"name": "FeatureExtractor/MobileDetCPU/IBN_5/SqueezeExcite/Conv/weights", "shape": [1, 1, 256, 64], "dtype": "float32"}, {"name": "FeatureExtractor/MobileDetCPU/IBN_5/SqueezeExcite/Conv/biases", "shape": [64], "dtype": "float32"}, {"name": "FeatureExtractor/MobileDetCPU/IBN_5/SqueezeExcite/Conv/swish6/add/y", "shape": [], "dtype": "float32"}, {"name": "FeatureExtractor/MobileDetCPU/IBN_5/SqueezeExcite/Conv_1/weights", "shape": [1, 1, 64, 256], "dtype": "float32"}, {"name": "FeatureExtractor/MobileDetCPU/IBN_5/SqueezeExcite/Conv_1/biases", "shape": [256], "dtype": "float32"}, {"name": "FeatureExtractor/MobileDetCPU/IBN_5/SeparableConv2d/swish6/mul_1/y", "shape": [], "dtype": "float32"}, {"name": "FeatureExtractor/MobileDetCPU/IBN_5/Conv/swish6/mul_1/y", "shape": [], "dtype": "float32"}, {"name": "FeatureExtractor/MobileDetCPU/IBN_4/SqueezeExcite/Conv/swish6/mul_1/y", "shape": [], "dtype": "float32"}, {"name": "FeatureExtractor/MobileDetCPU/IBN_4/SqueezeExcite/Conv/weights", "shape": [1, 1, 128, 32], "dtype": "float32"}, {"name": "FeatureExtractor/MobileDetCPU/IBN_4/SqueezeExcite/Conv/biases", "shape": [32], "dtype": "float32"}, {"name": "FeatureExtractor/MobileDetCPU/IBN_4/SqueezeExcite/Conv/swish6/add/y", "shape": [], "dtype": "float32"}, {"name": "FeatureExtractor/MobileDetCPU/IBN_4/SqueezeExcite/Conv_1/weights", "shape": [1, 1, 32, 128], "dtype": "float32"}, {"name": "FeatureExtractor/MobileDetCPU/IBN_4/SqueezeExcite/Conv_1/biases", "shape": [128], "dtype": "float32"}, {"name": "FeatureExtractor/MobileDetCPU/IBN_4/SeparableConv2d/swish6/mul_1/y", "shape": [], "dtype": "float32"}, {"name": "FeatureExtractor/MobileDetCPU/IBN_4/Conv/swish6/mul_1/y", "shape": [], "dtype": "float32"}, {"name": "FeatureExtractor/MobileDetCPU/IBN_4/Conv/swish6/add/y", "shape": [], "dtype": "float32"}, {"name": "FeatureExtractor/MobileDetCPU/IBN_4/SeparableConv2d/swish6/add/y", "shape": [], "dtype": "float32"}, {"name": "FeatureExtractor/MobileDetCPU/IBN_3/SqueezeExcite/Conv/swish6/mul_1/y", "shape": [], "dtype": "float32"}, {"name": "FeatureExtractor/MobileDetCPU/IBN_3/SqueezeExcite/Conv/weights", "shape": [1, 1, 128, 32], "dtype": "float32"}, {"name": "FeatureExtractor/MobileDetCPU/IBN_3/SqueezeExcite/Conv/biases", "shape": [32], "dtype": "float32"}, {"name": "FeatureExtractor/MobileDetCPU/IBN_3/SqueezeExcite/Conv/swish6/add/y", "shape": [], "dtype": "float32"}, {"name": "FeatureExtractor/MobileDetCPU/IBN_3/SqueezeExcite/Conv_1/weights", "shape": [1, 1, 32, 128], "dtype": "float32"}, {"name": "FeatureExtractor/MobileDetCPU/IBN_3/SqueezeExcite/Conv_1/biases", "shape": [128], "dtype": "float32"}, {"name": "FeatureExtractor/MobileDetCPU/IBN_3/SeparableConv2d/swish6/mul_1/y", "shape": [], "dtype": "float32"}, {"name": "FeatureExtractor/MobileDetCPU/IBN_3/Conv/swish6/mul_1/y", "shape": [], "dtype": "float32"}, {"name": "FeatureExtractor/MobileDetCPU/IBN_3/Conv/swish6/add/y", "shape": [], "dtype": "float32"}, {"name": "FeatureExtractor/MobileDetCPU/IBN_3/SeparableConv2d/swish6/add/y", "shape": [], "dtype": "float32"}, {"name": "FeatureExtractor/MobileDetCPU/IBN_2/SqueezeExcite/Conv/swish6/mul_1/y", "shape": [], "dtype": "float32"}, {"name": "FeatureExtractor/MobileDetCPU/IBN_2/SqueezeExcite/Conv/weights", "shape": [1, 1, 128, 32], "dtype": "float32"}, {"name": "FeatureExtractor/MobileDetCPU/IBN_2/SqueezeExcite/Conv/biases", "shape": [32], "dtype": "float32"}, {"name": "FeatureExtractor/MobileDetCPU/IBN_2/SqueezeExcite/Conv/swish6/add/y", "shape": [], "dtype": "float32"}, {"name": "FeatureExtractor/MobileDetCPU/IBN_2/SqueezeExcite/Conv_1/weights", "shape": [1, 1, 32, 128], "dtype": "float32"}, {"name": "FeatureExtractor/MobileDetCPU/IBN_2/SqueezeExcite/Conv_1/biases", "shape": [128], "dtype": "float32"}, {"name": "FeatureExtractor/MobileDetCPU/IBN_2/SeparableConv2d/swish6/mul_1/y", "shape": [], "dtype": "float32"}, {"name": "FeatureExtractor/MobileDetCPU/IBN_2/Conv/swish6/mul_1/y", "shape": [], "dtype": "float32"}, {"name": "FeatureExtractor/MobileDetCPU/IBN_2/Conv/swish6/add/y", "shape": [], "dtype": "float32"}, {"name": "FeatureExtractor/MobileDetCPU/IBN_2/SeparableConv2d/swish6/add/y", "shape": [], "dtype": "float32"}, {"name": "FeatureExtractor/MobileDetCPU/IBN_1/SqueezeExcite/Conv/swish6/mul_1/y", "shape": [], "dtype": "float32"}, {"name": "FeatureExtractor/MobileDetCPU/IBN_1/SqueezeExcite/Conv/weights", "shape": [1, 1, 128, 32], "dtype": "float32"}, {"name": "FeatureExtractor/MobileDetCPU/IBN_1/SqueezeExcite/Conv/biases", "shape": [32], "dtype": "float32"}, {"name": "FeatureExtractor/MobileDetCPU/IBN_1/SqueezeExcite/Conv/swish6/add/y", "shape": [], "dtype": "float32"}, {"name": "FeatureExtractor/MobileDetCPU/IBN_1/SqueezeExcite/Conv_1/weights", "shape": [1, 1, 32, 128], "dtype": "float32"}, {"name": "FeatureExtractor/MobileDetCPU/IBN_1/SqueezeExcite/Conv_1/biases", "shape": [128], "dtype": "float32"}, {"name": "FeatureExtractor/MobileDetCPU/IBN_1/SeparableConv2d/swish6/mul_1/y", "shape": [], "dtype": "float32"}, {"name": "FeatureExtractor/MobileDetCPU/IBN_1/Conv/swish6/mul_1/y", "shape": [], "dtype": "float32"}, {"name": "FeatureExtractor/MobileDetCPU/IBN/SqueezeExcite/Conv/swish6/mul_1/y", "shape": [], "dtype": "float32"}, {"name": "FeatureExtractor/MobileDetCPU/IBN/SqueezeExcite/Conv/weights", "shape": [1, 1, 32, 8], "dtype": "float32"}, {"name": "FeatureExtractor/MobileDetCPU/IBN/SqueezeExcite/Conv/biases", "shape": [8], "dtype": "float32"}, {"name": "FeatureExtractor/MobileDetCPU/IBN/SqueezeExcite/Conv/swish6/add/y", "shape": [], "dtype": "float32"}, {"name": "FeatureExtractor/MobileDetCPU/IBN/SqueezeExcite/Conv_1/weights", "shape": [1, 1, 8, 32], "dtype": "float32"}, {"name": "FeatureExtractor/MobileDetCPU/IBN/SqueezeExcite/Conv_1/biases", "shape": [32], "dtype": "float32"}, {"name": "FeatureExtractor/MobileDetCPU/IBN/SeparableConv2d/swish6/mul_1/y", "shape": [], "dtype": "float32"}, {"name": "FeatureExtractor/MobileDetCPU/IBN/Conv/swish6/mul_1/y", "shape": [], "dtype": "float32"}, {"name": "FeatureExtractor/MobileDetCPU/IBNNoExpansion/SqueezeExcite/Conv/swish6/mul_1/y", "shape": [], "dtype": "float32"}, {"name": "FeatureExtractor/MobileDetCPU/IBNNoExpansion/SqueezeExcite/Conv/weights", "shape": [1, 1, 16, 8], "dtype": "float32"}, {"name": "FeatureExtractor/MobileDetCPU/IBNNoExpansion/SqueezeExcite/Conv/biases", "shape": [8], "dtype": "float32"}, {"name": "FeatureExtractor/MobileDetCPU/IBNNoExpansion/SqueezeExcite/Conv/swish6/add/y", "shape": [], "dtype": "float32"}, {"name": "FeatureExtractor/MobileDetCPU/IBNNoExpansion/SqueezeExcite/Conv_1/weights", "shape": [1, 1, 8, 16], "dtype": "float32"}, {"name": "FeatureExtractor/MobileDetCPU/IBNNoExpansion/SqueezeExcite/Conv_1/biases", "shape": [16], "dtype": "float32"}, {"name": "FeatureExtractor/MobileDetCPU/IBNNoExpansion/SeparableConv2d/swish6/mul_1/y", "shape": [], "dtype": "float32"}, {"name": "FeatureExtractor/MobileDetCPU/Conv/swish6/mul_1/y", "shape": [], "dtype": "float32"}, {"name": "Preprocessor/mul/x", "shape": [], "dtype": "float32"}, {"name": "Preprocessor/ResizeImage/resize/ExpandDims/dim", "shape": [], "dtype": "int32"}, {"name": "Preprocessor/sub/y", "shape": [], "dtype": "float32"}, {"name": "FeatureExtractor/MobileDetCPU/Conv/swish6/add/y", "shape": [], "dtype": "float32"}, {"name": "FeatureExtractor/MobileDetCPU/IBNNoExpansion/SeparableConv2d/swish6/add/y", "shape": [], "dtype": "float32"}, {"name": "FeatureExtractor/MobileDetCPU/IBN/Conv/swish6/add/y", "shape": [], "dtype": "float32"}, {"name": "FeatureExtractor/MobileDetCPU/IBN/SeparableConv2d/swish6/add/y", "shape": [], "dtype": "float32"}, {"name": "FeatureExtractor/MobileDetCPU/IBN_1/Conv/swish6/add/y", "shape": [], "dtype": "float32"}, {"name": "FeatureExtractor/MobileDetCPU/IBN_1/SeparableConv2d/swish6/add/y", "shape": [], "dtype": "float32"}, {"name": "FeatureExtractor/MobileDetCPU/IBN_5/Conv/swish6/add/y", "shape": [], "dtype": "float32"}, {"name": "FeatureExtractor/MobileDetCPU/IBN_5/SeparableConv2d/swish6/add/y", "shape": [], "dtype": "float32"}, {"name": "FeatureExtractor/MobileDetCPU/IBN_9/Conv/swish6/add/y", "shape": [], "dtype": "float32"}, {"name": "FeatureExtractor/MobileDetCPU/IBN_9/SeparableConv2d/swish6/add/y", "shape": [], "dtype": "float32"}, {"name": "FeatureExtractor/MobileDetCPU/IBN_13/Conv/swish6/add/y", "shape": [], "dtype": "float32"}, {"name": "FeatureExtractor/MobileDetCPU/IBN_13/SeparableConv2d/swish6/add/y", "shape": [], "dtype": "float32"}, {"name": "FeatureExtractor/MobileDetCPU/IBN_17/Conv/swish6/add/y", "shape": [], "dtype": "float32"}, {"name": "FeatureExtractor/MobileDetCPU/IBN_17/SeparableConv2d/swish6/add/y", "shape": [], "dtype": "float32"}, {"name": "BoxPredictor_5/ClassPredictor/weights", "shape": [1, 1, 128, 18], "dtype": "float32"}, {"name": "BoxPredictor_5/ClassPredictor/biases", "shape": [18], "dtype": "float32"}, {"name": "BoxPredictor_5/Reshape_1/shape", "shape": [3], "dtype": "int32"}, {"name": "concat_1/axis", "shape": [], "dtype": "int32"}, {"name": "FeatureExtractor/MobileDetCPU/Conv/Conv2D_weights", "shape": [3, 3, 3, 16], "dtype": "float32"}, {"name": "FeatureExtractor/MobileDetCPU/Conv/Conv2D_bn_offset", "shape": [16], "dtype": "float32"}, {"name": "FeatureExtractor/MobileDetCPU/IBNNoExpansion/SeparableConv2d/depthwise_weights", "shape": [3, 3, 16, 1], "dtype": "float32"}, {"name": "FeatureExtractor/MobileDetCPU/IBNNoExpansion/SeparableConv2d/depthwise_bn_offset", "shape": [16], "dtype": "float32"}, {"name": "FeatureExtractor/MobileDetCPU/IBNNoExpansion/Conv/Conv2D_weights", "shape": [1, 1, 16, 8], "dtype": "float32"}, {"name": "FeatureExtractor/MobileDetCPU/IBNNoExpansion/Conv/Conv2D_bn_offset", "shape": [8], "dtype": "float32"}, {"name": "FeatureExtractor/MobileDetCPU/IBN/Conv/Conv2D_weights", "shape": [1, 1, 8, 32], "dtype": "float32"}, {"name": "FeatureExtractor/MobileDetCPU/IBN/Conv/Conv2D_bn_offset", "shape": [32], "dtype": "float32"}, {"name": "FeatureExtractor/MobileDetCPU/IBN/SeparableConv2d/depthwise_weights", "shape": [3, 3, 32, 1], "dtype": "float32"}, {"name": "FeatureExtractor/MobileDetCPU/IBN/SeparableConv2d/depthwise_bn_offset", "shape": [32], "dtype": "float32"}, {"name": "FeatureExtractor/MobileDetCPU/IBN/Conv_1/Conv2D_weights", "shape": [1, 1, 32, 16], "dtype": "float32"}, {"name": "FeatureExtractor/MobileDetCPU/IBN/Conv_1/Conv2D_bn_offset", "shape": [16], "dtype": "float32"}, {"name": "FeatureExtractor/MobileDetCPU/IBN_1/Conv/Conv2D_weights", "shape": [1, 1, 16, 128], "dtype": "float32"}, {"name": "FeatureExtractor/MobileDetCPU/IBN_1/Conv/Conv2D_bn_offset", "shape": [128], "dtype": "float32"}, {"name": "FeatureExtractor/MobileDetCPU/IBN_1/SeparableConv2d/depthwise_weights", "shape": [3, 3, 128, 1], "dtype": "float32"}, {"name": "FeatureExtractor/MobileDetCPU/IBN_1/SeparableConv2d/depthwise_bn_offset", "shape": [128], "dtype": "float32"}, {"name": "FeatureExtractor/MobileDetCPU/IBN_1/Conv_1/Conv2D_weights", "shape": [1, 1, 128, 32], "dtype": "float32"}, {"name": "FeatureExtractor/MobileDetCPU/IBN_1/Conv_1/Conv2D_bn_offset", "shape": [32], "dtype": "float32"}, {"name": "FeatureExtractor/MobileDetCPU/IBN_2/Conv/Conv2D_weights", "shape": [1, 1, 32, 128], "dtype": "float32"}, {"name": "FeatureExtractor/MobileDetCPU/IBN_2/Conv/Conv2D_bn_offset", "shape": [128], "dtype": "float32"}, {"name": "FeatureExtractor/MobileDetCPU/IBN_2/SeparableConv2d/depthwise_weights", "shape": [3, 3, 128, 1], "dtype": "float32"}, {"name": "FeatureExtractor/MobileDetCPU/IBN_2/SeparableConv2d/depthwise_bn_offset", "shape": [128], "dtype": "float32"}, {"name": "FeatureExtractor/MobileDetCPU/IBN_2/Conv_1/Conv2D_weights", "shape": [1, 1, 128, 32], "dtype": "float32"}, {"name": "BoxPredictor_5/ClassPredictor_depthwise/depthwise_weights", "shape": [3, 3, 128, 1], "dtype": "float32"}, {"name": "FeatureExtractor/MobileDetCPU/IBN_2/Conv_1/Conv2D_bn_offset", "shape": [32], "dtype": "float32"}, {"name": "FeatureExtractor/MobileDetCPU/IBN_3/Conv/Conv2D_weights", "shape": [1, 1, 32, 128], "dtype": "float32"}, {"name": "FeatureExtractor/MobileDetCPU/IBN_3/Conv/Conv2D_bn_offset", "shape": [128], "dtype": "float32"}, {"name": "FeatureExtractor/MobileDetCPU/IBN_3/SeparableConv2d/depthwise_weights", "shape": [3, 3, 128, 1], "dtype": "float32"}, {"name": "FeatureExtractor/MobileDetCPU/IBN_3/SeparableConv2d/depthwise_bn_offset", "shape": [128], "dtype": "float32"}, {"name": "BoxPredictor_5/ClassPredictor_depthwise/depthwise_bn_offset", "shape": [128], "dtype": "float32"}, {"name": "FeatureExtractor/MobileDetCPU/IBN_3/Conv_1/Conv2D_weights", "shape": [1, 1, 128, 32], "dtype": "float32"}, {"name": "FeatureExtractor/MobileDetCPU/IBN_3/Conv_1/Conv2D_bn_offset", "shape": [32], "dtype": "float32"}, {"name": "FeatureExtractor/MobileDetCPU/IBN_4/Conv/Conv2D_weights", "shape": [1, 1, 32, 128], "dtype": "float32"}, {"name": "FeatureExtractor/MobileDetCPU/IBN_4/Conv/Conv2D_bn_offset", "shape": [128], "dtype": "float32"}, {"name": "FeatureExtractor/MobileDetCPU/IBN_4/SeparableConv2d/depthwise_weights", "shape": [3, 3, 128, 1], "dtype": "float32"}, {"name": "FeatureExtractor/MobileDetCPU/IBN_4/SeparableConv2d/depthwise_bn_offset", "shape": [128], "dtype": "float32"}, {"name": "FeatureExtractor/MobileDetCPU/IBN_4/Conv_1/Conv2D_weights", "shape": [1, 1, 128, 32], "dtype": "float32"}, {"name": "FeatureExtractor/MobileDetCPU/IBN_4/Conv_1/Conv2D_bn_offset", "shape": [32], "dtype": "float32"}, {"name": "FeatureExtractor/MobileDetCPU/IBN_5/Conv/Conv2D_weights", "shape": [1, 1, 32, 256], "dtype": "float32"}, {"name": "FeatureExtractor/MobileDetCPU/IBN_5/Conv/Conv2D_bn_offset", "shape": [256], "dtype": "float32"}, {"name": "FeatureExtractor/MobileDetCPU/IBN_5/SeparableConv2d/depthwise_weights", "shape": [5, 5, 256, 1], "dtype": "float32"}, {"name": "FeatureExtractor/MobileDetCPU/IBN_5/SeparableConv2d/depthwise_bn_offset", "shape": [256], "dtype": "float32"}, {"name": "FeatureExtractor/MobileDetCPU/IBN_5/Conv_1/Conv2D_weights", "shape": [1, 1, 256, 72], "dtype": "float32"}, {"name": "FeatureExtractor/MobileDetCPU/IBN_5/Conv_1/Conv2D_bn_offset", "shape": [72], "dtype": "float32"}, {"name": "FeatureExtractor/MobileDetCPU/IBN_6/Conv/Conv2D_weights", "shape": [1, 1, 72, 576], "dtype": "float32"}, {"name": "FeatureExtractor/MobileDetCPU/IBN_6/Conv/Conv2D_bn_offset", "shape": [576], "dtype": "float32"}, {"name": "FeatureExtractor/MobileDetCPU/IBN_6/SeparableConv2d/depthwise_weights", "shape": [3, 3, 576, 1], "dtype": "float32"}, {"name": "FeatureExtractor/MobileDetCPU/IBN_6/SeparableConv2d/depthwise_bn_offset", "shape": [576], "dtype": "float32"}, {"name": "FeatureExtractor/MobileDetCPU/IBN_6/Conv_1/Conv2D_weights", "shape": [1, 1, 576, 72], "dtype": "float32"}, {"name": "FeatureExtractor/MobileDetCPU/IBN_6/Conv_1/Conv2D_bn_offset", "shape": [72], "dtype": "float32"}, {"name": "FeatureExtractor/MobileDetCPU/IBN_7/Conv/Conv2D_weights", "shape": [1, 1, 72, 288], "dtype": "float32"}, {"name": "FeatureExtractor/MobileDetCPU/IBN_7/Conv/Conv2D_bn_offset", "shape": [288], "dtype": "float32"}, {"name": "FeatureExtractor/MobileDetCPU/IBN_7/SeparableConv2d/depthwise_weights", "shape": [5, 5, 288, 1], "dtype": "float32"}, {"name": "FeatureExtractor/MobileDetCPU/IBN_7/SeparableConv2d/depthwise_bn_offset", "shape": [288], "dtype": "float32"}, {"name": "FeatureExtractor/MobileDetCPU/IBN_7/Conv_1/Conv2D_weights", "shape": [1, 1, 288, 72], "dtype": "float32"}, {"name": "FeatureExtractor/MobileDetCPU/IBN_7/Conv_1/Conv2D_bn_offset", "shape": [72], "dtype": "float32"}, {"name": "FeatureExtractor/MobileDetCPU/IBN_8/Conv/Conv2D_weights", "shape": [1, 1, 72, 288], "dtype": "float32"}, {"name": "FeatureExtractor/MobileDetCPU/IBN_8/Conv/Conv2D_bn_offset", "shape": [288], "dtype": "float32"}, {"name": "FeatureExtractor/MobileDetCPU/IBN_8/SeparableConv2d/depthwise_weights", "shape": [3, 3, 288, 1], "dtype": "float32"}, {"name": "FeatureExtractor/MobileDetCPU/IBN_8/SeparableConv2d/depthwise_bn_offset", "shape": [288], "dtype": "float32"}, {"name": "FeatureExtractor/MobileDetCPU/IBN_8/Conv_1/Conv2D_weights", "shape": [1, 1, 288, 72], "dtype": "float32"}, {"name": "FeatureExtractor/MobileDetCPU/IBN_8/Conv_1/Conv2D_bn_offset", "shape": [72], "dtype": "float32"}, {"name": "FeatureExtractor/MobileDetCPU/IBN_9/Conv/Conv2D_weights", "shape": [1, 1, 72, 576], "dtype": "float32"}, {"name": "FeatureExtractor/MobileDetCPU/IBN_9/Conv/Conv2D_bn_offset", "shape": [576], "dtype": "float32"}, {"name": "FeatureExtractor/MobileDetCPU/IBN_9/SeparableConv2d/depthwise_weights", "shape": [3, 3, 576, 1], "dtype": "float32"}, {"name": "FeatureExtractor/MobileDetCPU/IBN_9/SeparableConv2d/depthwise_bn_offset", "shape": [576], "dtype": "float32"}, {"name": "FeatureExtractor/MobileDetCPU/IBN_9/Conv_1/Conv2D_weights", "shape": [1, 1, 576, 72], "dtype": "float32"}, {"name": "FeatureExtractor/MobileDetCPU/IBN_9/Conv_1/Conv2D_bn_offset", "shape": [72], "dtype": "float32"}, {"name": "FeatureExtractor/MobileDetCPU/IBN_10/Conv/Conv2D_weights", "shape": [1, 1, 72, 576], "dtype": "float32"}, {"name": "FeatureExtractor/MobileDetCPU/IBN_10/Conv/Conv2D_bn_offset", "shape": [576], "dtype": "float32"}, {"name": "FeatureExtractor/MobileDetCPU/IBN_10/SeparableConv2d/depthwise_weights", "shape": [3, 3, 576, 1], "dtype": "float32"}, {"name": "FeatureExtractor/MobileDetCPU/IBN_10/SeparableConv2d/depthwise_bn_offset", "shape": [576], "dtype": "float32"}, {"name": "FeatureExtractor/MobileDetCPU/IBN_10/Conv_1/Conv2D_weights", "shape": [1, 1, 576, 72], "dtype": "float32"}, {"name": "FeatureExtractor/MobileDetCPU/IBN_10/Conv_1/Conv2D_bn_offset", "shape": [72], "dtype": "float32"}, {"name": "FeatureExtractor/MobileDetCPU/IBN_11/Conv/Conv2D_weights", "shape": [1, 1, 72, 576], "dtype": "float32"}, {"name": "FeatureExtractor/MobileDetCPU/IBN_11/Conv/Conv2D_bn_offset", "shape": [576], "dtype": "float32"}, {"name": "FeatureExtractor/MobileDetCPU/IBN_11/SeparableConv2d/depthwise_weights", "shape": [3, 3, 576, 1], "dtype": "float32"}, {"name": "FeatureExtractor/MobileDetCPU/IBN_11/SeparableConv2d/depthwise_bn_offset", "shape": [576], "dtype": "float32"}, {"name": "FeatureExtractor/MobileDetCPU/IBN_11/Conv_1/Conv2D_weights", "shape": [1, 1, 576, 72], "dtype": "float32"}, {"name": "FeatureExtractor/MobileDetCPU/IBN_11/Conv_1/Conv2D_bn_offset", "shape": [72], "dtype": "float32"}, {"name": "FeatureExtractor/MobileDetCPU/IBN_12/Conv/Conv2D_weights", "shape": [1, 1, 72, 576], "dtype": "float32"}, {"name": "FeatureExtractor/MobileDetCPU/IBN_12/Conv/Conv2D_bn_offset", "shape": [576], "dtype": "float32"}, {"name": "FeatureExtractor/MobileDetCPU/IBN_12/SeparableConv2d/depthwise_weights", "shape": [3, 3, 576, 1], "dtype": "float32"}, {"name": "FeatureExtractor/MobileDetCPU/IBN_12/SeparableConv2d/depthwise_bn_offset", "shape": [576], "dtype": "float32"}, {"name": "FeatureExtractor/MobileDetCPU/IBN_12/Conv_1/Conv2D_weights", "shape": [1, 1, 576, 72], "dtype": "float32"}, {"name": "FeatureExtractor/MobileDetCPU/IBN_12/Conv_1/Conv2D_bn_offset", "shape": [72], "dtype": "float32"}, {"name": "BoxPredictor_0/BoxEncodingPredictor_depthwise/depthwise_weights", "shape": [3, 3, 72, 1], "dtype": "float32"}, {"name": "BoxPredictor_0/BoxEncodingPredictor_depthwise/depthwise_bn_offset", "shape": [72], "dtype": "float32"}, {"name": "BoxPredictor_0/ClassPredictor_depthwise/depthwise_weights", "shape": [3, 3, 72, 1], "dtype": "float32"}, {"name": "BoxPredictor_0/ClassPredictor_depthwise/depthwise_bn_offset", "shape": [72], "dtype": "float32"}, {"name": "FeatureExtractor/MobileDetCPU/IBN_13/Conv/Conv2D_weights", "shape": [1, 1, 72, 576], "dtype": "float32"}, {"name": "FeatureExtractor/MobileDetCPU/IBN_13/Conv/Conv2D_bn_offset", "shape": [576], "dtype": "float32"}, {"name": "FeatureExtractor/MobileDetCPU/IBN_13/SeparableConv2d/depthwise_weights", "shape": [5, 5, 576, 1], "dtype": "float32"}, {"name": "FeatureExtractor/MobileDetCPU/IBN_13/SeparableConv2d/depthwise_bn_offset", "shape": [576], "dtype": "float32"}, {"name": "FeatureExtractor/MobileDetCPU/IBN_13/Conv_1/Conv2D_weights", "shape": [1, 1, 576, 104], "dtype": "float32"}, {"name": "FeatureExtractor/MobileDetCPU/IBN_13/Conv_1/Conv2D_bn_offset", "shape": [104], "dtype": "float32"}, {"name": "FeatureExtractor/MobileDetCPU/IBN_14/Conv/Conv2D_weights", "shape": [1, 1, 104, 416], "dtype": "float32"}, {"name": "FeatureExtractor/MobileDetCPU/IBN_14/Conv/Conv2D_bn_offset", "shape": [416], "dtype": "float32"}, {"name": "FeatureExtractor/MobileDetCPU/IBN_14/SeparableConv2d/depthwise_weights", "shape": [5, 5, 416, 1], "dtype": "float32"}, {"name": "FeatureExtractor/MobileDetCPU/IBN_14/SeparableConv2d/depthwise_bn_offset", "shape": [416], "dtype": "float32"}, {"name": "FeatureExtractor/MobileDetCPU/IBN_14/Conv_1/Conv2D_weights", "shape": [1, 1, 416, 104], "dtype": "float32"}, {"name": "FeatureExtractor/MobileDetCPU/IBN_14/Conv_1/Conv2D_bn_offset", "shape": [104], "dtype": "float32"}, {"name": "FeatureExtractor/MobileDetCPU/IBN_15/Conv/Conv2D_weights", "shape": [1, 1, 104, 416], "dtype": "float32"}, {"name": "FeatureExtractor/MobileDetCPU/IBN_15/Conv/Conv2D_bn_offset", "shape": [416], "dtype": "float32"}, {"name": "FeatureExtractor/MobileDetCPU/IBN_15/SeparableConv2d/depthwise_weights", "shape": [5, 5, 416, 1], "dtype": "float32"}, {"name": "FeatureExtractor/MobileDetCPU/IBN_15/SeparableConv2d/depthwise_bn_offset", "shape": [416], "dtype": "float32"}, {"name": "FeatureExtractor/MobileDetCPU/IBN_15/Conv_1/Conv2D_weights", "shape": [1, 1, 416, 104], "dtype": "float32"}, {"name": "FeatureExtractor/MobileDetCPU/IBN_15/Conv_1/Conv2D_bn_offset", "shape": [104], "dtype": "float32"}, {"name": "FeatureExtractor/MobileDetCPU/IBN_16/Conv/Conv2D_weights", "shape": [1, 1, 104, 416], "dtype": "float32"}, {"name": "FeatureExtractor/MobileDetCPU/IBN_16/Conv/Conv2D_bn_offset", "shape": [416], "dtype": "float32"}, {"name": "FeatureExtractor/MobileDetCPU/IBN_16/SeparableConv2d/depthwise_weights", "shape": [3, 3, 416, 1], "dtype": "float32"}, {"name": "FeatureExtractor/MobileDetCPU/IBN_16/SeparableConv2d/depthwise_bn_offset", "shape": [416], "dtype": "float32"}, {"name": "FeatureExtractor/MobileDetCPU/IBN_16/Conv_1/Conv2D_weights", "shape": [1, 1, 416, 104], "dtype": "float32"}, {"name": "FeatureExtractor/MobileDetCPU/IBN_16/Conv_1/Conv2D_bn_offset", "shape": [104], "dtype": "float32"}, {"name": "FeatureExtractor/MobileDetCPU/IBN_17/Conv/Conv2D_weights", "shape": [1, 1, 104, 832], "dtype": "float32"}, {"name": "FeatureExtractor/MobileDetCPU/IBN_17/Conv/Conv2D_bn_offset", "shape": [832], "dtype": "float32"}, {"name": "FeatureExtractor/MobileDetCPU/IBN_17/SeparableConv2d/depthwise_weights", "shape": [3, 3, 832, 1], "dtype": "float32"}, {"name": "FeatureExtractor/MobileDetCPU/IBN_17/SeparableConv2d/depthwise_bn_offset", "shape": [832], "dtype": "float32"}, {"name": "FeatureExtractor/MobileDetCPU/IBN_17/Conv_1/Conv2D_weights", "shape": [1, 1, 832, 144], "dtype": "float32"}, {"name": "FeatureExtractor/MobileDetCPU/IBN_17/Conv_1/Conv2D_bn_offset", "shape": [144], "dtype": "float32"}, {"name": "BoxPredictor_1/BoxEncodingPredictor_depthwise/depthwise_weights", "shape": [3, 3, 144, 1], "dtype": "float32"}, {"name": "BoxPredictor_1/BoxEncodingPredictor_depthwise/depthwise_bn_offset", "shape": [144], "dtype": "float32"}, {"name": "BoxPredictor_1/ClassPredictor_depthwise/depthwise_weights", "shape": [3, 3, 144, 1], "dtype": "float32"}, {"name": "BoxPredictor_1/ClassPredictor_depthwise/depthwise_bn_offset", "shape": [144], "dtype": "float32"}, {"name": "FeatureExtractor/MobileDetCPU/C5_1_Conv2d_2_1x1_256/Conv2D_weights", "shape": [1, 1, 144, 256], "dtype": "float32"}, {"name": "FeatureExtractor/MobileDetCPU/C5_1_Conv2d_2_1x1_256/Conv2D_bn_offset", "shape": [256], "dtype": "float32"}, {"name": "FeatureExtractor/MobileDetCPU/C5_2_Conv2d_2_3x3_s2_512_depthwise/depthwise_weights", "shape": [3, 3, 256, 1], "dtype": "float32"}, {"name": "FeatureExtractor/MobileDetCPU/C5_2_Conv2d_2_3x3_s2_512_depthwise/depthwise_bn_offset", "shape": [256], "dtype": "float32"}, {"name": "FeatureExtractor/MobileDetCPU/C5_2_Conv2d_2_3x3_s2_512/Conv2D_weights", "shape": [1, 1, 256, 512], "dtype": "float32"}, {"name": "FeatureExtractor/MobileDetCPU/C5_2_Conv2d_2_3x3_s2_512/Conv2D_bn_offset", "shape": [512], "dtype": "float32"}, {"name": "BoxPredictor_2/BoxEncodingPredictor_depthwise/depthwise_weights", "shape": [3, 3, 512, 1], "dtype": "float32"}, {"name": "BoxPredictor_2/BoxEncodingPredictor_depthwise/depthwise_bn_offset", "shape": [512], "dtype": "float32"}, {"name": "BoxPredictor_2/ClassPredictor_depthwise/depthwise_weights", "shape": [3, 3, 512, 1], "dtype": "float32"}, {"name": "BoxPredictor_2/ClassPredictor_depthwise/depthwise_bn_offset", "shape": [512], "dtype": "float32"}, {"name": "FeatureExtractor/MobileDetCPU/C5_1_Conv2d_3_1x1_128/Conv2D_weights", "shape": [1, 1, 512, 128], "dtype": "float32"}, {"name": "FeatureExtractor/MobileDetCPU/C5_1_Conv2d_3_1x1_128/Conv2D_bn_offset", "shape": [128], "dtype": "float32"}, {"name": "FeatureExtractor/MobileDetCPU/C5_2_Conv2d_3_3x3_s2_256_depthwise/depthwise_weights", "shape": [3, 3, 128, 1], "dtype": "float32"}, {"name": "FeatureExtractor/MobileDetCPU/C5_2_Conv2d_3_3x3_s2_256_depthwise/depthwise_bn_offset", "shape": [128], "dtype": "float32"}, {"name": "FeatureExtractor/MobileDetCPU/C5_2_Conv2d_3_3x3_s2_256/Conv2D_weights", "shape": [1, 1, 128, 256], "dtype": "float32"}, {"name": "FeatureExtractor/MobileDetCPU/C5_2_Conv2d_3_3x3_s2_256/Conv2D_bn_offset", "shape": [256], "dtype": "float32"}, {"name": "BoxPredictor_3/BoxEncodingPredictor_depthwise/depthwise_weights", "shape": [3, 3, 256, 1], "dtype": "float32"}, {"name": "BoxPredictor_3/BoxEncodingPredictor_depthwise/depthwise_bn_offset", "shape": [256], "dtype": "float32"}, {"name": "BoxPredictor_3/ClassPredictor_depthwise/depthwise_weights", "shape": [3, 3, 256, 1], "dtype": "float32"}, {"name": "BoxPredictor_3/ClassPredictor_depthwise/depthwise_bn_offset", "shape": [256], "dtype": "float32"}, {"name": "FeatureExtractor/MobileDetCPU/C5_1_Conv2d_4_1x1_128/Conv2D_weights", "shape": [1, 1, 256, 128], "dtype": "float32"}, {"name": "FeatureExtractor/MobileDetCPU/C5_1_Conv2d_4_1x1_128/Conv2D_bn_offset", "shape": [128], "dtype": "float32"}, {"name": "FeatureExtractor/MobileDetCPU/C5_2_Conv2d_4_3x3_s2_256_depthwise/depthwise_weights", "shape": [3, 3, 128, 1], "dtype": "float32"}, {"name": "FeatureExtractor/MobileDetCPU/C5_2_Conv2d_4_3x3_s2_256_depthwise/depthwise_bn_offset", "shape": [128], "dtype": "float32"}, {"name": "FeatureExtractor/MobileDetCPU/C5_2_Conv2d_4_3x3_s2_256/Conv2D_weights", "shape": [1, 1, 128, 256], "dtype": "float32"}, {"name": "FeatureExtractor/MobileDetCPU/C5_2_Conv2d_4_3x3_s2_256/Conv2D_bn_offset", "shape": [256], "dtype": "float32"}, {"name": "BoxPredictor_4/BoxEncodingPredictor_depthwise/depthwise_weights", "shape": [3, 3, 256, 1], "dtype": "float32"}, {"name": "BoxPredictor_4/BoxEncodingPredictor_depthwise/depthwise_bn_offset", "shape": [256], "dtype": "float32"}, {"name": "BoxPredictor_4/ClassPredictor_depthwise/depthwise_weights", "shape": [3, 3, 256, 1], "dtype": "float32"}, {"name": "BoxPredictor_4/ClassPredictor_depthwise/depthwise_bn_offset", "shape": [256], "dtype": "float32"}, {"name": "FeatureExtractor/MobileDetCPU/C5_1_Conv2d_5_1x1_64/Conv2D_weights", "shape": [1, 1, 256, 64], "dtype": "float32"}, {"name": "FeatureExtractor/MobileDetCPU/C5_1_Conv2d_5_1x1_64/Conv2D_bn_offset", "shape": [64], "dtype": "float32"}, {"name": "FeatureExtractor/MobileDetCPU/C5_2_Conv2d_5_3x3_s2_128_depthwise/depthwise_weights", "shape": [3, 3, 64, 1], "dtype": "float32"}, {"name": "FeatureExtractor/MobileDetCPU/C5_2_Conv2d_5_3x3_s2_128_depthwise/depthwise_bn_offset", "shape": [64], "dtype": "float32"}, {"name": "FeatureExtractor/MobileDetCPU/C5_2_Conv2d_5_3x3_s2_128/Conv2D_weights", "shape": [1, 1, 64, 128], "dtype": "float32"}, {"name": "FeatureExtractor/MobileDetCPU/C5_2_Conv2d_5_3x3_s2_128/Conv2D_bn_offset", "shape": [128], "dtype": "float32"}, {"name": "BoxPredictor_5/BoxEncodingPredictor_depthwise/depthwise_weights", "shape": [3, 3, 128, 1], "dtype": "float32"}, {"name": "BoxPredictor_5/BoxEncodingPredictor_depthwise/depthwise_bn_offset", "shape": [128], "dtype": "float32"}, {"name": "ConstantFolding/Preprocessor/stack_const_axis", "shape": [], "dtype": "int32"}, {"name": "ConstantFolding/Postprocessor/BatchMultiClassNonMaxSuppression/stack_3_const_axis", "shape": [], "dtype": "int32"}, {"name": "ConstantFolding/Postprocessor/BatchMultiClassNonMaxSuppression/stack_6_const_axis", "shape": [], "dtype": "int32"}, {"name": "ConstantFolding/Postprocessor/BatchMultiClassNonMaxSuppression/stack_2_const_axis", "shape": [], "dtype": "int32"}, {"name": "ConstantFolding/Postprocessor/BatchMultiClassNonMaxSuppression/stack_1_const_axis", "shape": [], "dtype": "int32"}, {"name": "ConstantFolding/Postprocessor/BatchMultiClassNonMaxSuppression/stack_7_const_axis", "shape": [], "dtype": "int32"}]}]}